models/AAPL_v3.pth (torch, 91078 bytes, 33 tensors)

shared.0.weight f4 [64, 27]
0	0x3e2071d2	0.15668419
1	0xbd9aa89c	-0.07551691
2	0xbd22e850	-0.03977233
3	0x3e06b7cb	0.13156049
4	0x3cc105a1	0.023562254
5	0x3c4f13f9	0.012639039
6	0xbc4b4e39	-0.012408786
7	0xbe161969	-0.1465813
8	0x3d1ecd79	0.038770173
9	0xbe199e7e	-0.15001866
10	0xbd42ee2c	-0.04759042
11	0x3e0e9912	0.13925579
12	0xbdde0c07	-0.10842138
13	0xbc116fd1	-0.008876757
14	0xbd15f2d9	-0.03660855
15	0xbd0bc440	-0.034122705
16	0x3d974a90	0.073872685
17	0xbe17cee4	-0.14825016
18	0x3da7212d	0.08160625
19	0xbe08034f	-0.13282512
20	0x3deffd9d	0.11718295
21	0x3d921446	0.07132773
22	0xbe17d41b	-0.14827006
23	0x3e221b69	0.15830769
24	0x3e181720	0.14852571
25	0x3e16e992	0.14737538
26	0xbd2fef5e	-0.042952888
27	0x3ca9dffb	0.020736685
28	0xbe1e8ff0	-0.15484595
29	0xbb0ace44	-0.0021180073
30	0xbe1be95d	-0.1522574
31	0xbd1e9e08	-0.03872493
32	0xbd6c0d3f	-0.05762982
33	0xbe17c939	-0.14822854
34	0x3d6dba01	0.058038715
35	0xbe1fa7c2	-0.15591338
36	0x3e34d746	0.17660245
37	0x3d611bc5	0.054958124
38	0x3e2fba2f	0.17160867
39	0x3de12bc4	0.10994676
40	0xbde50a63	-0.11183622
41	0x3cfc3d55	0.030790964
42	0xbd63cda4	-0.055616036
43	0x3de2f203	0.11081316
44	0x3d3aab16	0.045573317
45	0xbdd3ff3b	-0.10351416
46	0xbd67a3cb	-0.05655269
47	0xbdcef5fa	-0.1010551
48	0xbcd20bf3	-0.025640463
49	0xbda729de	-0.081622824
50	0xbdec5ffe	-0.115417466
51	0x3d9fc487	0.078011565
52	0x3d900dec	0.070339054
53	0xbd1ec003	-0.038757335
54	0xbe13516e	-0.14386532
55	0xbe42c66d	-0.19021006
56	0xbd95ac47	-0.0730825
57	0x3e43215e	0.19055697
58	0x3e168891	0.14700533
59	0x3e0e6ca9	0.13908638
60	0x3db0b3c0	0.086280346
61	0xbe0bdf0f	-0.13659309
62	0xbdd4d0ee	-0.10391413
63	0x3dd5fdc2	0.10448791
64	0xbddd824f	-0.1081587
65	0x3d9dece4	0.07711199
66	0x3db3429b	0.08752938
67	0x3e075aee	0.1321828
68	0x3d7fddf6	0.062467538
69	0x3e3a09bf	0.1816778
70	0xbd3b750f	-0.045765933
71	0x3e39e494	0.18153602
72	0xbe016eb8	-0.12639892
73	0xbc98f207	-0.018670095
74	0x3d0d3aec	0.03448002
75	0x3e36fb5f	0.17869328
76	0x3dd6136c	0.10452923
77	0x3d56cb86	0.05244019
78	0x3df7e315	0.12103859
79	0xbca2a6ea	-0.019854981
80	0xbc8c4b3f	-0.017125724
81	0xbc5a62f1	-0.0133292535
82	0xbdca803e	-0.098877415
83	0x3d504bf9	0.050853703
84	0x3cd73382	0.026269678
85	0xbdb79d93	-0.08965602
86	0xbe4257a0	-0.18978739
87	0x3ded8136	0.11596911
88	0x3c650926	0.013979232
89	0x3d2217d3	0.0395735
90	0xbe067373	-0.13129978
91	0x3e13e6e3	0.14443545
92	0xbdd44c2a	-0.1036609
93	0xbe287fde	-0.16455027
94	0x3d1e5916	0.038659178
95	0x3d71e80e	0.059059195
96	0x3db2235f	0.08698153
97	0xbd2a74c5	-0.041615266
98	0x3e3b2dcb	0.18279187
99	0xbe3eb596	-0.18623957
100	0xbe221571	-0.15828492
101	0x3d642332	0.055697627
102	0x3e00e219	0.1258625
103	0x3e38efdd	0.1806025
104	0x3df5bbcc	0.1199871
105	0x3d0079fc	0.031366333
106	0x3d12be57	0.035826053
107	0xbe27393f	-0.16330431
108	0xbe375a51	-0.17905547
109	0x3e08e931	0.13370205
110	0xbe002297	-0.12513195
111	0xbd1f8680	-0.03894663
112	0xbd508b24	-0.050913945
113	0x3dd37f08	0.10326964
114	0x3d988028	0.07446319
115	0x3e26ec2d	0.16301031
116	0xbe3d68e2	-0.18497041
117	0xbde9251d	-0.11384032
118	0xbcf88443	-0.030336505
119	0x3d1d9c53	0.03847916
120	0xbe070cfe	-0.1318855
121	0xbe3c326c	-0.1837861
122	0x3e3c428f	0.18384765
123	0x3d022e06	0.031782173
124	0xbcab7200	-0.020928383
125	0x3e0f3041	0.13983251
126	0x3e345785	0.17611511
127	0xbe0c9025	-0.13726862
128	0x3dbe21ab	0.092837654
129	0xbd881177	-0.06643956
130	0x38f0f540	0.00011489773
131	0xbe22e890	-0.15909028
132	0x3e36ebb8	0.17863357
133	0x3ca0fe32	0.01965246
134	0xbdac0faa	-0.08401425
135	0x3c531f75	0.012885918
136	0xbda6a766	-0.081373975
137	0x3e1ed289	0.1551
138	0xbe0c0689	-0.13674368
139	0x3d7eb145	0.062180776
140	0x3e2f79f3	0.17136364
141	0x3d2aff93	0.04174764
142	0x3e081286	0.13288316
143	0xbe27c887	-0.16385089
144	0x3b99afde	0.0046901545
145	0xbd02546d	-0.031818796
146	0xbe2c9dbd	-0.16857047
147	0xbd56c204	-0.05243112
148	0xbe30b653	-0.17257051
149	0xbd25de04	-0.040494934
150	0xbcd521e9	-0.026017146
151	0xbb86ce42	-0.0041139433
152	0x3e013136	0.12616429
153	0x3da90670	0.08253181
154	0x3e1bb572	0.15205935
155	0x3d55d205	0.052202243
156	0x3d917934	0.07103196
157	0xbdf3f823	-0.11912563
158	0x3dae4902	0.08510019
159	0x3e095c25	0.13414057
160	0x3df9e104	0.122011214
161	0x3df6e965	0.12056235
162	0x3e33be49	0.17553057
163	0x3da45ad3	0.08025136
164	0xbdd22c6f	-0.10262381
165	0x3d96d540	0.07364893
166	0xbded4d1b	-0.11586972
167	0x3e324557	0.17409264
168	0xbda56485	-0.08075813
169	0xbe1d34bb	-0.15352146
170	0xbd8c6dbe	-0.06856869
171	0x3cf300ef	0.029663531
172	0x3e123341	0.14277364
173	0x3d7ab689	0.061209235
174	0x3ddbcd2f	0.10732495
175	0x3d4ae810	0.04953772
176	0x3d488cd6	0.048962437
177	0x3bd4a87a	0.0064898105
178	0x3c901ec2	0.017592791
179	0xbd48929d	-0.048967946
180	0x3d955d22	0.07293154
181	0x3da0cc36	0.0785145
182	0xbdf64c52	-0.12026276
183	0xbe2dc834	-0.16970903
184	0x3cbdf7c3	0.023189431
185	0x3aa7fcf7	0.0012816478
186	0xbe0ce8b0	-0.13760638
187	0x3e359d6a	0.1773583
188	0x3e233f30	0.15942073
189	0x3de742eb	0.112920605
190	0x3e2f1e85	0.17101486
191	0xbe072c74	-0.13200551
192	0xbe0ff55b	-0.1405844
193	0xbdf07025	-0.1174014
194	0xbe313191	-0.17304064
195	0x3e053f04	0.1301232
196	0xbde31896	-0.11088674
197	0xbd87d16d	-0.06631742
198	0xbe1d3b8a	-0.15354744
199	0x3d021122	0.03175462
200	0x3df0339d	0.117285945
201	0xbde08c1f	-0.10964226
202	0x3db2990e	0.08720599
203	0x3dbf4aa3	0.09340408
204	0xbd5bf51a	-0.053700544
205	0x3dd4a75a	0.10383482
206	0x3e091dec	0.1339032
207	0x3e0cad40	0.13737965
208	0x3e1381cc	0.14404982
209	0x3e450a13	0.19242124
210	0xbdb0c15c	-0.086306304
211	0xbe206ff3	-0.15667705
212	0x3df32d64	0.11873892
213	0x3dcbbc5a	0.099480346
214	0xbe13bdde	-0.14427897
215	0xbd8fa38d	-0.07013617
216	0x39bed361	0.00036397114
217	0xbbc54db5	-0.0060212263
218	0x3ddb5434	0.1070942
219	0x3e0d3abf	0.13791941
220	0x3d45dacc	0.048304364
221	0x3d8b0bf6	0.06789391
222	0xbd99662c	-0.07490191
223	0xbe134502	-0.14381793
224	0x3ddd90a8	0.108186066
225	0xbe1ea12f	-0.15491174
226	0xbc1dd819	-0.009634041
227	0xbdd0b41c	-0.10190603
228	0x3d5d7973	0.0540709
229	0xbd380097	-0.044922438
230	0x3e0f5e2f	0.14000772
231	0x3e17e0b5	0.14831813
232	0x3e25231c	0.16126674
233	0x3e162eb3	0.14666252
234	0xbd1f8322	-0.038943417
235	0x3cdc5656	0.026896637
236	0x3db9739c	0.09055254
237	0xbe184df7	-0.14873491
238	0xbbdaaacf	-0.006673194
239	0xbe24035a	-0.16016904
240	0x3e3aabd8	0.18229616
241	0xbe2ef771	-0.17086579
242	0x3dd4c597	0.1038925
243	0xbdcc8f35	-0.09988252
244	0xbe1ee7c4	-0.15518099
245	0x3db94684	0.09046653
246	0x3e41747a	0.18892089
247	0x3e0cdf1a	0.13756981
248	0xbe33ebb2	-0.1757038
249	0xbc0b6274	-0.00850736
250	0xbdd0046e	-0.10157095
251	0xba06f8d4	-0.00051487726
252	0xbda4741b	-0.08029958
253	0x3d29a6d9	0.041418884
254	0x3cfb0ebe	0.030646678
255	0x3db0194e	0.085985765

shared.0.bias f4 [64]
0	0xbb1e3269	-0.0024138934
1	0x3d03997d	0.0321288
2	0xbe3915cc	-0.18074721
3	0x3dc4dbe5	0.09612254
4	0xbe0cca9a	-0.13749161
5	0xbe082a3a	-0.13297358
6	0x3e2a58fb	0.16635506
7	0x3e1747ca	0.14773479
8	0x3dd32891	0.10310472
9	0x3d5fe6c6	0.054663442
10	0x3d7f5b03	0.062342655
11	0xbe362a11	-0.17789485
12	0xbdaa9e18	-0.08330935
13	0x3d04be84	0.032408252
14	0xbe3e46a7	-0.18581639
15	0xbdaedf54	-0.0853869
16	0x3de7babd	0.113149144
17	0x3d90d3bb	0.070716344
18	0x3d9d3fdb	0.07678195
19	0xbe348e9e	-0.17632529
20	0xbd343334	-0.043994144
21	0xbd4d0841	-0.0500567
22	0xbd0d3848	-0.034477502
23	0xbe234016	-0.15942416
24	0x3de63560	0.11240649
25	0xbd9a33fd	-0.07529447
26	0xbc68efda	-0.014217341
27	0xbdbc0ea2	-0.091824785
28	0x3e0fe17a	0.14050856
29	0xbe0baa88	-0.13639271
30	0xbc888bf1	-0.016668292
31	0x3d9be468	0.076119244
32	0x3b964625	0.0045859986
33	0xbdf34359	-0.1187808
34	0x3dd1dff3	0.10247793
35	0xbe279d31	-0.16368558
36	0xbd9c8893	-0.07643237
37	0xbc20622e	-0.009789033
38	0x3e0dab09	0.13834776
39	0xbdbf02e2	-0.09326722
40	0x3bae927c	0.005327521
41	0x3e36fb60	0.1786933
42	0x3dff6643	0.12470677
43	0x3e18b08e	0.149111
44	0x3db03a36	0.08604853
45	0x3e01f3b9	0.12690629
46	0x3e0be128	0.13660109
47	0xbb0991f2	-0.0020991531
48	0x3e08c237	0.13355337
49	0xbe09aeef	-0.13445638
50	0xbd08cd00	-0.03339863
51	0x3dc426f8	0.09577745
52	0x3d032d3e	0.03202557
53	0x3e32268f	0.17397521
54	0xbe022ebf	-0.12713145
55	0x3cc85ac6	0.024457347
56	0xbe2912aa	-0.16511026
57	0xbdc4d982	-0.09611799
58	0xbd9fa9db	-0.07796069
59	0x3d9e17f4	0.077194124
60	0x3e38a818	0.18032873
61	0xbe3a92c4	-0.18220049
62	0x3dff3be6	0.124625966
63	0xbe162544	-0.14662653

shared.1.weight f4 [64]
0	0x3f7f9ddc	0.9985025
1	0x3f7f9da3	0.9984991
2	0x3f7f9db3	0.99850005
3	0x3f7f9db8	0.99850035
4	0x3f7f9daa	0.9984995
5	0x3f7f9dbc	0.9985006
6	0x3f7f9ddb	0.99850243
7	0x3f7f9dfd	0.99850446
8	0x3f7f9db6	0.9985002
9	0x3f7f9e0d	0.9985054
10	0x3f7f9db7	0.9985003
11	0x3f7f9db3	0.99850005
12	0x3f7f9dc2	0.99850094
13	0x3f7f9dad	0.9984997
14	0x3f7f9db1	0.99849993
15	0x3f7f9db9	0.9985004
16	0x3f7f9daf	0.9984998
17	0x3f7f9db7	0.9985003
18	0x3f7f9dc7	0.99850124
19	0x3f7f9db3	0.99850005
20	0x3f7f9db9	0.9985004
21	0x3f7f9db8	0.99850035
22	0x3f7f9daf	0.9984998
23	0x3f7f9db3	0.99850005
24	0x3f7f9d9a	0.99849856
25	0x3f7f9db4	0.9985001
26	0x3f7f9d9f	0.99849886
27	0x3f7f9db4	0.9985001
28	0x3f7f9dd5	0.9985021
29	0x3f7f9db3	0.99850005
30	0x3f7f9d95	0.99849826
31	0x3f7f9dd6	0.99850214
32	0x3f7f9dc3	0.998501
33	0x3f7f9db3	0.99850005
34	0x3f7f9dbb	0.9985005
35	0x3f7f9db5	0.99850017
36	0x3f7f9dbd	0.99850065
37	0x3f7f9db1	0.99849993
38	0x3f7f9dbb	0.9985005
39	0x3f7f9dc3	0.998501
40	0x3f7f9db3	0.99850005
41	0x3f7f9dd9	0.9985023
42	0x3f7f9dc7	0.99850124
43	0x3f802c73	1.0013565
44	0x3f7f9db9	0.9985004
45	0x3f7f9dbc	0.9985006
46	0x3f7f9da9	0.99849945
47	0x3f7f9dbd	0.99850065
48	0x3f7f9e4c	0.99850917
49	0x3f7f9dd1	0.99850184
50	0x3f7f9db6	0.9985002
51	0x3f7f9db5	0.99850017
52	0x3f7f9dbe	0.9985007
53	0x3f7f9dd9	0.9985023
54	0x3f7f9db3	0.99850005
55	0x3f7f9dac	0.99849963
56	0x3f7f9db3	0.99850005
57	0x3f7f9db7	0.9985003
58	0x3f7f9db6	0.9985002
59	0x3f7f9d8c	0.9984977
60	0x3f7f9d95	0.99849826
61	0x3f7f9db1	0.99849993
62	0x3f7f9db1	0.99849993
63	0x3f7f9db3	0.99850005

shared.1.bias f4 [64]
0	0xbac3b9b7	-0.0014932667
1	0x3ac372eb	0.0014911568
2	0x3a356879	0.00069201697
3	0x3ac2535c	0.0014825868
4	0xba961e3e	-0.0011453105
5	0x3a7ef7d7	0.0009726262
6	0xbac442d1	-0.0014973526
7	0x3ac33e51	0.0014895891
8	0xbac2192c	-0.0014808527
9	0x3ac50581	0.0015031548
10	0x3abde50d	0.0014487818
11	0x3aade22a	0.0013266255
12	0x3ac46800	0.0014984608
13	0xbab08e6e	-0.0013470182
14	0x3ac1cdde	0.0014786085
15	0xbac2abc2	-0.0014852213
16	0x3aadba5a	0.001325439
17	0x3abbcc75	0.0014327901
18	0xbac240fe	-0.0014820395
19	0x00000000	0.0
20	0x3aaaa9ee	0.0013020614
21	0x3ab2a6f0	0.0013630074
22	0xbaa605ab	-0.0012666484
23	0x3abf5308	0.0014596889
24	0xbac0265b	-0.0014659868
25	0xbac3c6e0	-0.0014936589
26	0x3ab7e13e	0.0014028919
27	0xbab5efc5	-0.0013880661
28	0xbabe7231	-0.0014529881
29	0x00000000	0.0
30	0xbac32768	-0.0014889063
31	0x3ac4242a	0.0014964391
32	0x3ac2efe0	0.0014872514
33	0xba6c4506	-0.0009012971
34	0xbaba20bb	-0.0014200428
35	0xbab409f4	-0.0013735876
36	0xbab4b084	-0.0013785516
37	0x3ac3ef00	0.0014948547
38	0x3ac3af21	0.0014929512
39	0xbac09a17	-0.001469436
40	0x3ac3dc54	0.0014942982
41	0xba50a5a4	-0.00079592527
42	0xbac294e6	-0.0014845401
43	0x3ac4d880	0.0015018135
44	0xbab90aba	-0.0014117577
45	0x3ac09d6b	0.0014695352
46	0xbaab2024	-0.0013055843
47	0x3aa6639a	0.0012694479
48	0x3ac14b52	0.0014747179
49	0x3ac4dfc6	0.0015020303
50	0x3aa00764	0.0012209234
51	0x3ac4d270	0.0015016329
52	0xbac388d2	-0.0014918095
53	0xbac35c8b	-0.0014904899
54	0x00000000	0.0
55	0xbac3f860	-0.0014951341
56	0x39fc6396	0.00048139383
57	0x3868e9bc	5.5530792e-05
58	0xba9f964c	-0.0012175529
59	0xbac4b5c6	-0.0015007786
60	0x3aba5518	0.0014216034
61	0x3a8f3899	0.0010926902
62	0xbac2ebbf	-0.0014871283
63	0xbabe1384	-0.0014501666

shared.4.weight f4 [64, 64]
0	0xbd42d66f	-0.04756778
1	0xbd61177b	-0.054954033
2	0xbd72243f	-0.0591166
3	0x3ce5b366	0.028039645
4	0x3d40ba46	0.047052644
5	0xbdfbac1e	-0.12288688
6	0x3d978e34	0.0740017
7	0x3cbd3de8	0.023100808
8	0xbd812d4e	-0.06307469
9	0xbdb13580	-0.086527824
10	0x3d30f8e3	0.043206107
11	0xbc0495ed	-0.008092386
12	0xbc3c6404	-0.011498455
13	0x3df08373	0.11743822
14	0x3d26250f	0.040562686
15	0xbdb9d2ce	-0.09073411
16	0x3ddd63b7	0.10810035
17	0xbdf9dd59	-0.12200422
18	0xbd8ddf93	-0.06927409
19	0x3d8b8187	0.06811815
20	0x3ca7a868	0.020466045
21	0x3dd7d8c7	0.10539394
22	0x3cff3417	0.031152768
23	0xbdd8c80a	-0.105850294
24	0xbaa1d6a4	-0.0012347293
25	0xbd41e033	-0.047332954
26	0xbd6e15e3	-0.05812634
27	0x3c1190dd	0.008884636
28	0xbd94cfd6	-0.07266204
29	0xbdbb6379	-0.09149832
30	0x3de1f641	0.11033297
31	0x3c8511f1	0.016243907
32	0x3c5cfd4d	0.013488126
33	0xbd20e768	-0.039283186
34	0xbcf6b14a	-0.030113835
35	0x3d4fe37e	0.050754063
36	0xbd73674b	-0.05942468
37	0xbc0838d5	-0.008314331
38	0xbd878782	-0.06617643
39	0x3b5e0d34	0.0033882381
40	0x3d70a704	0.05875303
41	0x3d483b2f	0.048884567
42	0x3d49c482	0.04925967
43	0xbd80f33d	-0.06296394
44	0x3c4cc1b8	0.012497358
45	0x3dfc9220	0.12332559
46	0x3c2f980a	0.010717401
47	0xbdc73a19	-0.09727878
48	0x3c7f8ae5	0.01559708
49	0x3d50bb7e	0.050960056
50	0xbd81cc2d	-0.063377716
51	0xbde5c76e	-0.11219679
52	0x3dd382dc	0.10327694
53	0x3ca2014a	0.019776005
54	0x3cc5903d	0.02411663
55	0xbd3b7823	-0.04576887
56	0xbdd30fb0	-0.103057265
57	0xbd21761b	-0.039419275
58	0xbdd6b05d	-0.104828574
59	0xbcc6b98a	-0.024258394
60	0x3cad063c	0.021121137
61	0x3c5caf6d	0.013469559
62	0x3c6c44ac	0.0144206695
63	0xbd0777fe	-0.033073418
64	0xbda1b8eb	-0.078965984
65	0x3db64fd5	0.089019455
66	0xbdf8256e	-0.12116514
67	0x3da9e4e9	0.08295614
68	0x3dd9d07e	0.1063547
69	0xbcba4ef0	-0.022742718
70	0xbd1c8f08	-0.038222343
71	0x3d9f5cf1	0.07781399
72	0xbde92233	-0.11383476
73	0x3db9f5fb	0.0908012
74	0xbd336abf	-0.043802973
75	0xbc24ce5a	-0.010058964
76	0x3d47eba0	0.048808694
77	0xbd30e6a8	-0.04318872
78	0xbbca2710	-0.0061692074
79	0xbdcf8ba0	-0.10134053
80	0xbda0c762	-0.07850529
81	0x3dc73826	0.09727506
82	0xbd82e564	-0.06391409
83	0xbd19af8a	-0.037520923
84	0x3d6e5db6	0.05819484
85	0xbd01d908	-0.031701118
86	0x3d892d4a	0.06698091
87	0xbdc00af8	-0.09377092
88	0x399f7985	0.00030417382
89	0xbd73c255	-0.0595115
90	0x3e010559	0.12599696
91	0x3d9529d4	0.07283369
92	0xbd1ce136	-0.038300715
93	0x3daa1907	0.08305555
94	0x3ddac3bb	0.10681864
95	0x3d63da28	0.055627972
96	0x3c47220c	0.0121541135
97	0x3da6aa5d	0.08137963
98	0x3cf3f19e	0.029778298
99	0xbdf92160	-0.12164569
100	0xbdf2f3ec	-0.11862931
101	0x3d538e19	0.051649187
102	0x3dd07951	0.10179389
103	0x3d207faa	0.03918425
104	0x3ddeff6d	0.10888562
105	0x3d32ecc9	0.043682847
106	0x3d839b6d	0.064261295
107	0x3cea944f	0.028635172
108	0x3ce28c15	0.027654687
109	0xbdfa0034	-0.1220707
110	0x3db61b66	0.088919446
111	0x3dddc74b	0.10829028
112	0xbdccbf11	-0.099973805
113	0xbcecce79	-0.028907048
114	0xbcd7e49b	-0.026354125
115	0x3db59742	0.08866741
116	0xbdcfec6d	-0.101525165
117	0xbd416949	-0.04721955
118	0x3d91192b	0.070848785
119	0x3dcc0eea	0.09963782
120	0xbc16c8ea	-0.009203175
121	0xbd63b584	-0.05559303
122	0x3ca02326	0.01954801
123	0xbdd549e4	-0.10414484
124	0xbd07f53d	-0.03319286
125	0xbd9d5f0d	-0.07684145
126	0xbcfefd67	-0.031126691
127	0xbce67faf	-0.028137056
128	0xbcecf022	-0.028923098
129	0x3d1e66e9	0.03867236
130	0xbcd33447	-0.025781764
131	0x3d434680	0.047674656
132	0x3dc117b9	0.09428353
133	0xbd385939	-0.045006964
134	0x3be8991b	0.0070983297
135	0xbc182bb5	-0.009287764
136	0xbda35968	-0.07976037
137	0x3dba694f	0.09102117
138	0x3d1870e6	0.037217043
139	0xbbd219e1	-0.0064117764
140	0x3c2b6215	0.010460396
141	0xbd5521b4	-0.052034095
142	0x3b4487c5	0.0029988152
143	0xbd78f172	-0.060777135
144	0x3d56218e	0.052278094
145	0xbd83499a	-0.06410523
146	0xbcebe037	-0.028793437
147	0x3c36d0be	0.011158166
148	0x3daae6c6	0.08344798
149	0xbce53a7e	-0.027981993
150	0x3b4b5c56	0.0031030378
151	0xb98a9e70	-0.00026439456
152	0x3c0f9362	0.008763166
153	0xbd86ee8e	-0.065884694
154	0x3d8a5c9f	0.06755947
155	0x3dc6a914	0.09700218
156	0xbc003f67	-0.007827616
157	0x3dae8304	0.08521083
158	0xbca76ade	-0.0204367
159	0x3d88663d	0.066601254
160	0x3df27ac4	0.11839822
161	0x3de9ad35	0.1140999
162	0x3de36ac3	0.111043476
163	0xbcc726f5	-0.024310568
164	0x3cbf989f	0.023388205
165	0x3deb87bf	0.11500501
166	0xbd7412f6	-0.059588395
167	0xbdd1e86b	-0.10249408
168	0x3daab47d	0.08335207
169	0xbdf246b2	-0.1182989
170	0x3d28250c	0.041050956
171	0x3d4c62a3	0.049898755
172	0x3d6b9bf8	0.05752179
173	0xbdf189fe	-0.11793898
174	0xbd97bb1d	-0.07408736
175	0xbd7020a3	-0.058624875
176	0xbd3e35cb	-0.04643802
177	0xbc367417	-0.011136076
178	0xbd89c15a	-0.06726332
179	0xbd2f70c7	-0.042832162
180	0xbdf04c92	-0.11733355
181	0x3d99b0ea	0.07504447
182	0x3d25042e	0.04028719
183	0xbabdc106	-0.0014477081
184	0x3da0cf18	0.07852
185	0xbd07b5b2	-0.033132263
186	0x3d86ca82	0.06581594
187	0x3dceabe8	0.10091382
188	0x3d99be5b	0.075070105
189	0x3ce9f295	0.028558055
190	0xbdbf6d9b	-0.093470775
191	0x3d61870a	0.055060424
192	0xbd92a8f2	-0.0716113
193	0x3d2781f4	0.040895417
194	0x3d46b86c	0.048515722
195	0x3c2d4926	0.010576522
196	0x3de2b5fe	0.110698685
197	0x3dd92fcb	0.10604819
198	0xbd999f4d	-0.07501087
199	0xbddfe0be	-0.10931538
200	0xbdec4421	-0.11536432
201	0xbdd83902	-0.105577484
202	0xbde21a19	-0.11040134
203	0x3bb32fd4	0.005468348
204	0xbdb5843a	-0.08863111
205	0xbd554156	-0.052064262
206	0x3c571a16	0.013128778
207	0x3beca0bb	0.007221309
208	0x3d341a5c	0.04397045
209	0x3d63e7a5	0.055640835
210	0xbd063eac	-0.032774612
211	0xbc1f7528	-0.009732522
212	0xbdf78d0a	-0.12087448
213	0x3d32aa24	0.04361929
214	0xbdca2673	-0.09870615
215	0xbd017003	-0.031600963
216	0x3dbb81a7	0.091555886
217	0x3bc5f594	0.006041238
218	0x3cd41adf	0.02589172
219	0x3d48f6a7	0.04906335
220	0x3cd215ef	0.025645224
221	0x3caa7360	0.020806968
222	0xbd969de2	-0.073543325
223	0x3c289336	0.010289004
224	0x3db577ec	0.08860764
225	0x3db55669	0.08854372
226	0x3d0ad061	0.03389013
227	0x3db144bb	0.086556874
228	0x3d4e7924	0.050408497
229	0x3aed23bb	0.0018092314
230	0xbdb19747	-0.08671432
231	0xbd6a1b49	-0.057154927
232	0x3da898a1	0.08232237
233	0xbdab90db	-0.08377238
234	0xbd6ca9ef	-0.05777925
235	0x3da08c0d	0.078392126
236	0x3c80093e	0.015629407
237	0x3d89e232	0.067325965
238	0xbd938329	-0.07202751
239	0xbda1fede	-0.0790994
240	0xbce7cc67	-0.028295709
241	0x3d38c87a	0.045113064
242	0xbd9462ec	-0.0724543
243	0xbc2a5aab	-0.0103975935
244	0x3d385fe1	0.045013312
245	0x3c8527c7	0.016254319
246	0xbda087e8	-0.07838422
247	0x3cc5cb86	0.0241449
248	0xbd51380b	-0.051078837
249	0x3dc14c20	0.09438348
250	0x3ddd3701	0.10801507
251	0xbdbef2f4	-0.093236834
252	0xbde16306	-0.11005215
253	0x3d1caafd	0.038249005
254	0xbd3937d8	-0.045219272
255	0x3d87f996	0.066394016

shared.4.bias f4 [64]
0	0x3cd68ea5	0.026191065
1	0x3ddd083d	0.10792587
2	0xbde3980f	-0.11112987
3	0xbc1245cc	-0.008927774
4	0x3cce249b	0.02516394
5	0x3c422aed	0.011851055
6	0xbd6bf109	-0.057602916
7	0xbc90f772	-0.017696116
8	0x3dbdc16b	0.09265407
9	0xbc5f62b7	-0.013634375
10	0xbd0f8bda	-0.035045482
11	0x3dd21ad1	0.10259021
12	0x3cbf1165	0.023323724
13	0xbda0d80a	-0.07853706
14	0x3d92ecde	0.07174085
15	0xba69ad9f	-0.0008914116
16	0x3df87a85	0.12132744
17	0x3dde85db	0.10865375
18	0x3de4fcc1	0.111810215
19	0x3cb48434	0.022035696
20	0xbdddbba3	-0.108268045
21	0xbd6100a1	-0.05493224
22	0xbdc4c46b	-0.09607776
23	0xbcf6a224	-0.030106612
24	0x3cb5fb26	0.022214483
25	0x3c8ec37d	0.0174272
26	0xbd268987	-0.0406585
27	0x3cdbfdce	0.026854422
28	0x3d815e22	0.063167825
29	0xbdbb38fe	-0.0914173
30	0xbdf73302	-0.12070276
31	0xbd3af1b1	-0.04564065
32	0xbdc7a57b	-0.0974836
33	0x3dc6fd33	0.09716263
34	0x3c156f3f	0.009120761
35	0xbdd13c85	-0.10216621
36	0xbdbe9ecb	-0.09307631
37	0xbce7569a	-0.028239537
38	0xbd435c8d	-0.047695685
39	0xbdae8e28	-0.08523208
40	0xbd219200	-0.039445877
41	0x3c2ea3d0	0.010659173
42	0xbc078091	-0.008270399
43	0xbddd617e	-0.10809611
44	0x3d4e50ad	0.050369907
45	0x3d4b69a9	0.049661312
46	0xbc60879d	-0.013704208
47	0xbcac70a4	-0.021049805
48	0x3df6e6f9	0.12055773
49	0xbd0ab723	-0.03386606
50	0x3dce47cc	0.10072288
51	0xbde08fb3	-0.109649085
52	0x3d476918	0.04868421
53	0x3d39e775	0.04538675
54	0x3ac3cd5e	0.0014938524
55	0x3d4fd655	0.050741512
56	0x3c91a81b	0.017780354
57	0xbc664aa0	-0.014055878
58	0x3d49de78	0.04928443
59	0x3baf5b91	0.0053514917
60	0xbdca1001	-0.09866334
61	0x3d7941c5	0.06085374
62	0xbdea81fe	-0.11450575
63	0x3cdcf6f7	0.02697323

shared.5.weight f4 [64]
0	0x3f7f9dbf	0.99850076
1	0x3f7f9da0	0.9984989
2	0x3f7f9dbd	0.99850065
3	0x3f7f9db1	0.99849993
4	0x3f7f9db9	0.9985004
5	0x3f7f9dcf	0.9985017
6	0x3f7f9db4	0.9985001
7	0x3f7fabf6	0.99871767
8	0x3f7f9dba	0.99850047
9	0x3f7f9e4f	0.99850935
10	0x3f7f9df9	0.9985042
11	0x3f7f9da3	0.9984991
12	0x3f7f9dbb	0.9985005
13	0x3f7f9dba	0.99850047
14	0x3f7f9db2	0.9985
15	0x3f7f9db3	0.99850005
16	0x3f7f9d90	0.99849796
17	0x3f7f9dae	0.99849975
18	0x3f7f9ddb	0.99850243
19	0x3f7f9e56	0.99850976
20	0x3f7f9db5	0.99850017
21	0x3f7f9db9	0.9985004
22	0x3f7f9db0	0.9984999
23	0x3f7f9db8	0.99850035
24	0x3f7f9db3	0.99850005
25	0x3f7f9dc9	0.99850136
26	0x3f7f9db7	0.9985003
27	0x3f7f9da7	0.99849933
28	0x3f7fa0ee	0.99854934
29	0x3f7f9db1	0.99849993
30	0x3f7f9dbe	0.9985007
31	0x3f7f9da6	0.9984993
32	0x3f7f9de1	0.9985028
33	0x3f7f9da4	0.99849916
34	0x3f7f9db3	0.99850005
35	0x3f7f9db8	0.99850035
36	0x3f7f9db3	0.99850005
37	0x3f7f9dcc	0.99850154
38	0x3f7f9dca	0.9985014
39	0x3f7f9db2	0.9985
40	0x3f7f9db0	0.9984999
41	0x3f7f9dba	0.99850047
42	0x3f7f9db5	0.99850017
43	0x3f7f9dca	0.9985014
44	0x3f7f9dbb	0.9985005
45	0x3f7f9db4	0.9985001
46	0x3f7f9dc6	0.9985012
47	0x3f7f9dc5	0.9985011
48	0x3f7f9db9	0.9985004
49	0x3f7f9db3	0.99850005
50	0x3f7f9dc8	0.9985013
51	0x3f7f9de4	0.99850297
52	0x3f7f9eac	0.9985149
53	0x3f7f9db3	0.99850005
54	0x3f7f9dd6	0.99850214
55	0x3f7f9dd9	0.9985023
56	0x3f7f9daf	0.9984998
57	0x3f7f9dbb	0.9985005
58	0x3f8005f9	1.0001823
59	0x3f7f9dba	0.99850047
60	0x3f7f9dd1	0.99850184
61	0x3f7f9dd2	0.9985019
62	0x3f7f9db4	0.9985001
63	0x3f7f9db4	0.9985001

shared.5.bias f4 [64]
0	0xbac13e18	-0.0014743237
1	0x3ac399f5	0.0014923202
2	0x3abfab7c	0.001462325
3	0x3aa443f2	0.0012532456
4	0xbabe007f	-0.0014495997
5	0xbabf813a	-0.0014610656
6	0x3ac4fc8e	0.001502888
7	0x3ac3dfce	0.0014944018
8	0x3ac48843	0.0014994222
9	0x3ac51a0e	0.0015037672
10	0x3ac2f540	0.0014874116
11	0x3ac33bd5	0.0014895151
12	0x3ac00091	0.0014648606
13	0xbac25016	-0.0014824893
14	0x3a4f9069	0.0007917942
15	0xba790121	-0.00094987644
16	0x3abe8a86	0.0014537133
17	0x3ac4b69d	0.0015008036
18	0x3ac31ac0	0.0014885291
19	0x3ac53c9f	0.0015047974
20	0xbac3822a	-0.0014916111
21	0xbac3a7db	-0.0014927344
22	0x3abd3489	0.0014435212
23	0xbab9cf2a	-0.001417612
24	0x3aa2d7ba	0.0012423911
25	0x3ac4a9be	0.00150042
26	0xbac3f9e8	-0.0014951797
27	0xbac4701a	-0.0014987022
28	0x3ac4d318	0.0015016524
29	0x3a95a40c	0.0011416688
30	0xbac282b7	-0.0014839981
31	0x3ac3e910	0.0014946777
32	0xbac443de	-0.0014973839
33	0x3ac2de7c	0.0014867331
34	0xbab66467	-0.001391542
35	0x3aaa30b6	0.0012984488
36	0x3905636c	0.00012720906
37	0xbac3c514	-0.0014936053
38	0x3ac4b9e0	0.0015009008
39	0xbac41528	-0.0014959918
40	0x3aa0fde2	0.0012282694
41	0x3ac393a4	0.001492132
42	0x3ac4410e	0.0014973001
43	0xbac37837	-0.0014913146
44	0xbabe2138	-0.001450575
45	0x3abede9a	0.001456219
46	0x3ac4bccd	0.001500988
47	0x3ac37673	0.001491262
48	0x3ac5668a	0.0015060466
49	0x3ac3b121	0.0014930108
50	0xbac4897e	-0.0014994589
51	0x3ac40544	0.0014955183
52	0x3ac42eab	0.0014967521
53	0xbac50ef0	-0.0015034359
54	0xbac488be	-0.0014994366
55	0xbac3cb50	-0.0014937911
56	0xbac4ac7e	-0.001500502
57	0xbac327a4	-0.0014889133
58	0x3ac4ef2c	0.0015024892
59	0x3ac23f4a	0.0014819887
60	0xbac4255a	-0.0014964745
61	0xbac3888c	-0.0014918013
62	0x3abff3f3	0.0014644846
63	0xbabd1465	-0.0014425634

actor.0.weight f4 [3, 64]
0	0xbdd0786d	-0.101792194
1	0x3dbc3aed	0.09190927
2	0xbd1496b0	-0.03627652
3	0x3d0d290c	0.034462973
4	0xbdd58574	-0.10425845
5	0xbdb9d75f	-0.09074282
6	0xbd21313e	-0.0393536
7	0x3da729b8	0.08162254
8	0xbd226f03	-0.03965665
9	0xbdc1cc8f	-0.094628446
10	0x3d738a36	0.05945798
11	0x3d20eea8	0.0392901
12	0xbd660fd7	-0.05616745
13	0xbd6b7189	-0.057481322
14	0x3dde9922	0.108690515
15	0xbdebff24	-0.115232736
16	0x3d4677e3	0.048454177
17	0x3d6bcaf3	0.057566594
18	0x3df408bb	0.11915728
19	0xbda45b62	-0.080252424
20	0x3db79c87	0.08965402
21	0x3ddf4058	0.109009445
22	0xbca81453	-0.020517504
23	0x3b5572c4	0.0032569626
24	0xbd93d125	-0.072176255
25	0x3cdad317	0.026711984
26	0xbda1e7b7	-0.07905524
27	0x3c154ab6	0.009112051
28	0xbdef9fa9	-0.11700375
29	0x3deab07c	0.11459443
30	0x3d0f416a	0.034974493
31	0x3db465ec	0.088085026
32	0xbd6ea314	-0.058260992
33	0x3db2dff4	0.08734122
34	0xbb95a432	-0.0045666927
35	0xbd677846	-0.056511186
36	0x3dfcdced	0.12346826
37	0x3c9aa1d7	0.018876
38	0xbcecd0de	-0.02890819
39	0x3d85e866	0.06538467
40	0xbdce584d	-0.10075436
41	0x3dbf3c10	0.09337628
42	0xbde587ce	-0.11207543
43	0xbda89bb9	-0.08232827
44	0x3d2a9bab	0.041652363
45	0x3c31cdc1	0.010852278
46	0x3d0a7f55	0.03381284
47	0xbd2c515d	-0.04206978
48	0xbd8f3778	-0.06993002
49	0xbd9c5587	-0.076335005
50	0x3ca9df3d	0.020736331
51	0x3dd6c747	0.10487228
52	0x3d19a653	0.037512135
53	0x3cdec9f5	0.02719591
54	0x3c12b22f	0.008953615
55	0xbcfc912c	-0.030830942
56	0x3d9f27d5	0.07771269
57	0xbdc1ca3a	-0.094624
58	0x3def6b7a	0.116904214
59	0x3d9bd259	0.0760848
60	0x3d4c7fbb	0.0499265
61	0xbd9e005f	-0.077149145
62	0xbbe7e6b9	-0.007077065
63	0x3c72b99e	0.014814762
64	0xbd6f09fa	-0.058359124
65	0xbd10fc5a	-0.03539691
66	0x3c88da84	0.016705759
67	0x3dbffe47	0.093746714
68	0x3cfff32d	0.031243885
69	0xbd2a20bc	-0.041535124
70	0x3dd959cb	0.1061283
71	0xbd7d2168	-0.061799437
72	0xbd89ead8	-0.06734246
73	0x3cad9dc2	0.021193389
74	0x3c097d20	0.0083916485
75	0xbaa3139c	-0.0012441757
76	0x3db4ae0a	0.08822258
77	0x3dfc8900	0.12330818
78	0xbd71b770	-0.05901283
79	0xbd2b15d2	-0.041768856
80	0xbdade297	-0.08490484
81	0xbdf01926	-0.11723547
82	0x3cc7d2e3	0.02439255
83	0x3d0020af	0.03128117
84	0x3c5a2761	0.013315053
85	0xbda4977a	-0.08036704
86	0xbd9d9cc2	-0.07695915
87	0x3dd54cd7	0.10415047
88	0xbddf9ab3	-0.109181784
89	0xbcc16d82	-0.023611788
90	0x3c6781be	0.014130054
91	0xbd249ebd	-0.040190447
92	0x3c8fd456	0.017557304
93	0xbddffa9d	-0.109364726
94	0xbcf2f515	-0.02965788
95	0x3db6703a	0.08908124
96	0xbddd846d	-0.10816274
97	0x3c429bc7	0.0118779605
98	0xbb862749	-0.0040940386
99	0xbd00b003	-0.031417858
100	0x3da3d858	0.08000249
101	0xbd7f3dbf	-0.062314745
102	0xbd32425c	-0.043520316
103	0xbd5b7f18	-0.053588003
104	0x3cda6cda	0.026663233
105	0xbdac97a2	-0.08427359
106	0x3cef3ebd	0.02920472
107	0xbd78a107	-0.060700443
108	0xbd57ad83	-0.052655708
109	0xbddcd898	-0.107834995
110	0xbbdc1195	-0.006715963
111	0xbdbbff06	-0.09179501
112	0x3dc6dd20	0.09710145
113	0xbc5b1284	-0.013371114
114	0x3da49eec	0.080381244
115	0x3d586b94	0.05283697
116	0x3d2ba788	0.041907817
117	0xbd797b97	-0.06090888
118	0x3cf0eed2	0.029410753
119	0x3dcd91da	0.100375846
120	0xbd6e777a	-0.05821941
121	0x3de1436f	0.1099919
122	0xbb032237	-0.0020009407
123	0xbdfce2aa	-0.1234792
124	0xbd2815c4	-0.041036382
125	0x3dd0531c	0.10172102
126	0x3b93b667	0.004507828
127	0xbdda2cff	-0.106531136
128	0xbcd9fb83	-0.026609188
129	0xbd9ef6d9	-0.07761926
130	0x3dc155fd	0.09440229
131	0xbd01a979	-0.031655762
132	0x3cdc44d4	0.026888289
133	0xbdc863f2	-0.09784688
134	0x3ccfbe42	0.025359277
135	0x3d424f8b	0.04743914
136	0x3d5b2a9e	0.05350744
137	0x3ddbe88f	0.107377164
138	0xbacc7fd4	-0.0015602061
139	0xbdd16482	-0.102242485
140	0x3da5d778	0.08097738
141	0x3dcbcd57	0.09951275
142	0xbd80b265	-0.06284026
143	0x3d7fc943	0.062447798
144	0x3df7a569	0.12092096
145	0xbdc0831f	-0.09400009
146	0xbd614d31	-0.055005256
147	0xbd2a3a21	-0.041559342
148	0xbd861477	-0.06546872
149	0x3afab17b	0.001912638
150	0xbdaed543	-0.0853677
151	0x3d809698	0.062787235
152	0xbcf46a5e	-0.029835876
153	0xbde7bec6	-0.11315684
154	0xbdbd2a12	-0.0923654
155	0xbdf23fd5	-0.11828581
156	0xbd1625fc	-0.03665732
157	0x3da8dc94	0.08245197
158	0x3d7e8e6c	0.062147543
159	0x3d8e342b	0.06943544
160	0x3d7e35d5	0.062063057
161	0xbd747de6	-0.05969038
162	0xbd49d6b8	-0.049277037
163	0xbdb44a5a	-0.08803244
164	0xbdb0f1ca	-0.086398676
165	0x3ddfe550	0.1093241
166	0xbda312e6	-0.07962589
167	0xbcaf5fb0	-0.021407932
168	0x3d593fca	0.05303935
169	0xbd42954c	-0.04750566
170	0xbd3c68de	-0.045998447
171	0xbdb564cd	-0.08857117
172	0x3de798fa	0.11308475
173	0xbdb4c806	-0.08827214
174	0x3dde1821	0.10844446
175	0x3c32deb2	0.0109173525
176	0xbd16c1e1	-0.03680599
177	0xbca93877	-0.020656807
178	0x3dc2a7a0	0.09504628
179	0x3cffac0e	0.031209972
180	0xbd3ff0e5	-0.046860594
181	0xbde8f7d0	-0.113753915
182	0x3cf6ae15	0.030112306
183	0x3d54e8e1	0.051979903
184	0x3da6d23f	0.0814557
185	0x3d19c000	0.03753662
186	0x3ce509a0	0.027958691
187	0x3d0c6775	0.03427835
188	0xbd5d4a75	-0.054026086
189	0x3d91da3c	0.07121703
190	0xbd683555	-0.056691486
191	0x3cae8ee0	0.021308362

actor.0.bias f4 [3]
0	0xbcfcd75f	-0.030864416
1	0x3d24b641	0.040212873
2	0xbd4477e6	-0.047965907

critic.0.weight f4 [1, 64]
0	0x3c0181e1	0.007904501
1	0xbdeb4373	-0.11487474
2	0xbd2e78e1	-0.042595748
3	0xbdd75c7d	-0.105156876
4	0x3ce60bd1	0.028081806
5	0x3daa7709	0.083234854
6	0xbd0b7404	-0.034046188
7	0xbdcd98e7	-0.100389294
8	0xbd640240	-0.05566621
9	0xbdc331d7	-0.095309906
10	0xbddb724f	-0.10715162
11	0xbda26c51	-0.07930816
12	0xbbd28d2a	-0.0064255195
13	0x3b607fe7	0.0034255923
14	0x3d766f82	0.060164936
15	0x3b1ea870	0.0024209283
16	0xbdd74381	-0.10510922
17	0xbd3303c8	-0.043704778
18	0xbda085ec	-0.078380436
19	0xbdc7c8bb	-0.09755083
20	0x3ca3d554	0.019999184
21	0x3c77d012	0.015125291
22	0xbbce4e10	-0.006295927
23	0x3c7b2300	0.015328169
24	0xbbb8c5fa	-0.005638835
25	0xbd02131a	-0.031756498
26	0x3dd68c65	0.10475997
27	0x3d9c3c53	0.076286934
28	0xbdeba2b5	-0.11505643
29	0xbc813929	-0.015774326
30	0x3d4bbb8d	0.04973941
31	0xbdedee8a	-0.11617763
32	0x3dbdc09b	0.09265252
33	0xbdfd8853	-0.123795174
34	0x3b7ef8e9	0.0038905686
35	0xbd908abc	-0.070577115
36	0xbcd23c60	-0.025663555
37	0x3d8d9125	0.0691245
38	0xbdcf6c73	-0.10128107
39	0x3c39e60d	0.011346352
40	0xbdca8d74	-0.09890261
41	0xbc65c8a6	-0.014024889
42	0xbc97baf1	-0.018521758
43	0x3d7f97e1	0.062400702
44	0x3ca9b879	0.020717846
45	0xbc2eec19	-0.010676407
46	0xbdadf6fd	-0.08494375
47	0xbd9eedf7	-0.07760232
48	0xbd355a4a	-0.04427556
49	0xbd223d24	-0.03960909
50	0x3d799d23	0.060940873
51	0xbd822e2f	-0.06356465
52	0xbdf48705	-0.119398154
53	0x3ccba450	0.024858624
54	0x3df5a213	0.11993804
55	0x3d95b2da	0.07309504
56	0x3d219744	0.0394509
57	0x3d1192d0	0.035540402
58	0xbdd0f6d3	-0.10203328
59	0xbc88c0d7	-0.016693516
60	0x3dbd6baf	0.09249055
61	0x3da1675d	0.07881043
62	0xbdcd7af5	-0.10033218
63	0x3b65ed55	0.0035084088

exp_avg f4 [64, 27]
0	0x3a29198c	0.0006450645
1	0xb9af13b5	-0.00033393284
2	0xb9724d0f	-0.00023107625
3	0x39dd6afb	0.0004223211
4	0xb824b0d0	-3.9265316e-05
5	0xb8158d8f	-3.5656205e-05
6	0xb941a53c	-0.00018467469
7	0xba4ef14b	-0.0007894232
8	0xb81989a7	-3.660624e-05
9	0xba4dae14	-0.0007846069
10	0x3c31d9a0	0.0108551085
11	0x39cd752b	0.00039187944
12	0xba09dd38	-0.00052590994
13	0xb826c804	-3.9763763e-05
14	0x3a35386b	0.0006913009
15	0xb96676ca	-0.00021978762
16	0x39116a4c	0.00013867876
17	0xbb9b75df	-0.004744276
18	0x3c17a10b	0.009254704
19	0x38bf51f4	9.122855e-05
20	0x3c2b7646	0.01046521
21	0x39ed7ddf	0.00045297944
22	0xba05c679	-0.0005103122
23	0xb86da214	-5.665615e-05
24	0x3a814176	0.0009861428
25	0x3c2bd821	0.010488541
26	0xb9e1e679	-0.0004308706
27	0x38b9434d	8.834023e-05
28	0xba2ab55d	-0.00065120106
29	0xb8216355	-3.84779e-05
30	0xba32b1f7	-0.000681668
31	0xb981f22c	-0.0002478523
32	0xb9c0f955	-0.0003680686
33	0xba47c8e7	-0.00076211843
34	0x38a5d9a8	7.908355e-05
35	0xba5e0018	-0.0008468642
36	0x39f6d820	0.00047081802
37	0xbbb06d2e	-0.005384109
38	0x39efbe26	0.00045727304
39	0x39a685a6	0.00031761563
40	0xb9f1e908	-0.00046140724
41	0xb942dd58	-0.00018583739
42	0xb9bb5b39	-0.00035735386
43	0x39531fa3	0.00020134314
44	0xbb15b326	-0.0022842376
45	0xbab23fa1	-0.0013599285
46	0xb9e6879c	-0.00043970055
47	0xbb7d77d5	-0.0038676162
48	0xb9060780	-0.0001278203
49	0xba0648b8	-0.000512253
50	0x39c6afa9	0.0003789638
51	0x3946c209	0.00018955035
52	0xbbbebca1	-0.005820826
53	0xba05c1e8	-0.00051024416
54	0xba1b56b1	-0.0005925699
55	0xba4d6d9b	-0.0007836462
56	0xb99fddc2	-0.00030492066
57	0x3a4c33bb	0.0007789691
58	0x3a1d3c02	0.00059980166
59	0x3a148a3d	0.0005666351
60	0x39b6c0d2	0.00034857407
61	0xba15dc91	-0.0005716766
62	0xb9e6077b	-0.00043874592
63	0x39dce881	0.000421349
64	0xb99724e7	-0.0002882846
65	0x39a29dc4	0.00031016592
66	0x39bb4c9a	0.00035724492
67	0x3a0ecc21	0.00054472877
68	0x398e33f2	0.00027123053
69	0x3a430792	0.0007439788
70	0xb9528f6f	-0.00020080594
71	0x3a1528dd	0.0005689988
72	0xb9db710d	-0.00041855164
73	0xb88fc313	-6.855107e-05
74	0x3991fe2d	0.0002784593
75	0x3a3e65d4	0.00072630984
76	0x39e23c45	0.00043150983
77	0x393de7ae	0.00018110752
78	0x3a045ac7	0.0005048927
79	0x37b09c4c	2.1053616e-05
80	0xb8ab826f	-8.1782106e-05
81	0xb8734793	-5.8002373e-05
82	0xb9d7faa5	-0.0004119474
83	0x39483338	0.00019092567
84	0x38a9e305	8.100834e-05
85	0xb9d6c0c3	-0.0004096088
86	0xba639149	-0.0008681012
87	0x39c5f37e	0.00037756184
88	0xb820e69c	-3.8361744e-05
89	0x388922f5	6.53918e-05
90	0xba314b9b	-0.000676328
91	0xbb65f004	-0.0035085687
92	0xba09226a	-0.00052312633
93	0xba4129b3	-0.00073685794
94	0x39299820	0.00016173767
95	0xb802bc58	-3.1169824e-05
96	0x39a43be9	0.00031325154
97	0xb9a2083a	-0.00030905177
98	0xb904afed	-0.00012654038
99	0xbb0ef4d6	-0.0021813414
100	0xba5671af	-0.00081803923
101	0xbb50be13	-0.0031851574
102	0x39ec95a3	0.00045124916
103	0x3a2c4f72	0.00065731176
104	0x39eb3cf5	0.0004486811
105	0x36e41fa6	6.798614e-06
106	0xbb8ba10a	-0.0042611407
107	0xba4bda2a	-0.00077763444
108	0xba411d93	-0.00073667726
109	0x3a10098d	0.0005494587
110	0xba091666	-0.0005229473
111	0xb93b21cf	-0.00017846304
112	0xb97494d1	-0.00023325092
113	0x39d189e9	0.00039966337
114	0x3996a557	0.00028733417
115	0x3a2a923e	0.0006506777
116	0xba4bf40f	-0.0007780203
117	0xb9fe2132	-0.00048471388
118	0x36855884	3.9740135e-06
119	0x391afbb0	0.00014780345
120	0xba0f6183	-0.00054695475
121	0xba4631a2	-0.00075604965
122	0x3a48b8f0	0.00076569524
123	0x3918ba73	0.00014565307
124	0xb8da8ad5	-0.000104209095
125	0x39bfe4b1	0.00036600747
126	0x3a6cdf4e	0.00090359605
127	0xba126a1a	-0.00055852684
128	0x3a12edec	0.0005604911
129	0xb98748aa	-0.00025803345
130	0xb7815bc0	-1.5420723e-05
131	0xba2c8523	-0.0006581118
132	0x3a427c04	0.00074189925
133	0x3909b037	0.00013130983
134	0xb9c3de99	-0.00037359147
135	0x386ba9d0	5.6186516e-05
136	0xb9afe497	-0.00033548914
137	0x3a270c68	0.0006372393
138	0xba16207a	-0.0005726885
139	0x397a18eb	0.0002385114
140	0x3a3361a4	0.00068428577
141	0x391e7db3	0.00015114881
142	0x3a07d386	0.0005181361
143	0xba39662d	-0.00070724153
144	0xb7a9e20f	-2.0251637e-05
145	0xba207464	-0.0006120859
146	0xba4026f9	-0.0007330026
147	0xb97a4d10	-0.00023870566
148	0xba3a2765	-0.0007101207
149	0xb9491ecc	-0.00019180326
150	0xb905617a	-0.00012720181
151	0xb8744fe5	-5.824854e-05
152	0xb875f7c8	-5.8643316e-05
153	0xb8b292d8	-8.515053e-05
154	0x3a1eaa46	0.00060525944
155	0x378cb768	1.6774706e-05
156	0x399cbb9e	0.00029894424
157	0xba04dacd	-0.0005068004
158	0x39bfaca4	0.00036558986
159	0x3a0eb7be	0.000544425
160	0xb90acb04	-0.00013236335
161	0x39e7b05b	0.00044191148
162	0x3a3d54dd	0.00072224234
163	0x39afaa2a	0.00033505383
164	0xb9f3e159	-0.0004651647
165	0x3984a1a3	0.0002529743
166	0xba058dbb	-0.0005094667
167	0x3a35509d	0.00069166144
168	0xb9c163b8	-0.00036886125
169	0xba3540e5	-0.0006914272
170	0xb9bbc764	-0.00035815977
171	0x3826edcb	3.9798946e-05
172	0x3c010097	0.007873676
173	0x39474182	0.00019002522
174	0x39cc5ffc	0.00038981426
175	0x39584ec9	0.00020628715
176	0x3a3a2f3c	0.00071023754
177	0xb816eb6f	-3.598205e-05
178	0xb7489849	-1.1956386e-05
179	0xbb126a91	-0.002234135
180	0x3ba200f4	0.0049439613
181	0x3a3cb067	0.0007197917
182	0x3bbc5553	0.005747476
183	0xba258213	-0.0006313633
184	0x38f9b95f	0.00011907773
185	0xb97a2b05	-0.00023857884
186	0xb9b5b293	-0.00034656058
187	0x3be50894	0.006989548
188	0x3a38be86	0.0007047433
189	0x39f43d0d	0.00046584793
190	0x3a401621	0.0007327516
191	0xb9facc0e	-0.00047835748
192	0xba051855	-0.0005077173
193	0xb9d05446	-0.0003973564
194	0xba1fe4c7	-0.0006099459
195	0x3a2e0b1a	0.00066392275
196	0xb98d914d	-0.00027001873
197	0xb8b63e28	-8.690014e-05
198	0xb9d98677	-0.0004148965
199	0xbbca3bae	-0.006171665
200	0x3a373039	0.0006988082
201	0xb9af3084	-0.00033414748
202	0x39bd075a	0.00036054367
203	0xb8fccde8	-0.000120546494
204	0xb8e314ee	-0.00010828102
205	0x3a29548e	0.0006459438
206	0x3b93500b	0.004495626
207	0xbb94b257	-0.0045378613
208	0x392582aa	0.00015784302
209	0xbbb2be3b	-0.005454806
210	0xb9cdcefe	-0.00039254868
211	0xba2ad9f4	-0.0006517463
212	0x3a7f64e0	0.00097425096
213	0x3943ec21	0.00018684614
214	0xbbbb3ba0	-0.005713895
215	0xb886a223	-6.419818e-05
216	0xb4674e97	-2.1542142e-07
217	0xb839d90a	-4.430957e-05
218	0x39dafaf2	0.0004176717
219	0x3a0fa676	0.00054798217
220	0x393dd9cf	0.00018105585
221	0x3984b5b3	0.00025312378
222	0xb9b1258d	-0.00033788048
223	0xba22fe56	-0.00062177086
224	0x39ddc03a	0.00042295625
225	0xba2a41b7	-0.00064947776
226	0x3b1af254	0.0023642974
227	0xb9d6bbbe	-0.0004095714
228	0x396f58a2	0.00022825834
229	0xb9447d44	-0.00018738682
230	0x3a3ac7da	0.0007125117
231	0x3a24de0c	0.0006289191
232	0x3a2af4be	0.0006521455
233	0x3a037ef5	0.00050161715
234	0x39afe9f7	0.00033552918
235	0x3982b421	0.0002492974
236	0x3b0151a4	0.00197325
237	0xba1dcd83	-0.00060196983
238	0xb5994912	-1.1420655e-06
239	0xbab15392	-0.0013528934
240	0x3a55ca9d	0.0008155497
241	0x3ac1c729	0.0014784086
242	0x39f0811e	0.00045872567
243	0xb9d83ed8	-0.00041245553
244	0xba28030b	-0.0006409145
245	0x39c2b0a2	0.00037134165
246	0x3a503496	0.0007942406
247	0x3a1dea05	0.00060239463
248	0xba3838a0	-0.0007027481
249	0xb62d7b8d	-2.5850925e-06
250	0xb9cdaf7b	-0.0003923139
251	0x3729dbd3	1.0124367e-05
252	0xb9a64ff9	-0.00031721572
253	0xbbc39eb2	-0.0059698457
254	0x3917a529	0.00014462009
255	0x39c05c96	0.00036690076

exp_avg_sq f4 [64, 27]
0	0x3254e295	1.2391543e-08
1	0x31648ad2	3.3257277e-09
2	0x30df584e	1.6250483e-09
3	0x31bbb89a	5.463403e-09
4	0x2f4524ec	1.7930163e-10
5	0x2f2b7c43	1.5596506e-10
6	0x309ac193	1.1259992e-09
7	0x329f31a9	1.8532619e-08
8	0x2f99ffeb	2.8012379e-10
9	0x329c9f30	1.823318e-08
10	0x366d7144	3.5381681e-06
11	0x31af74de	5.1064566e-09
12	0x320d51c5	8.225872e-09
13	0x2e51f983	4.774271e-11
14	0x3273d9bd	1.41939696e-08
15	0x30ca9c5f	1.4741878e-09
16	0x307afbcc	9.1307295e-10
17	0x353b029e	6.9666737e-07
18	0x362ed008	2.604911e-06
19	0x2fb5c100	3.3060843e-10
20	0x365ac977	3.26018e-06
21	0x31e5a8cf	6.6839685e-09
22	0x32042c42	7.693474e-09
23	0x31e0d8e0	6.543914e-09
24	0x32f8bf2e	2.8957938e-08
25	0x365e8596	3.3158335e-06
26	0x31d54736	6.2072116e-09
27	0x2f8072d6	2.336466e-10
28	0x325a0c2a	1.2692036e-08
29	0x2e9f1a87	7.235195e-11
30	0x326f4a10	1.3928471e-08
31	0x3101556f	1.8820534e-09
32	0x318e6ef1	4.1453565e-09
33	0x3295442f	1.737689e-08
34	0x2f885c3b	2.480379e-10
35	0x32b8b204	2.1501371e-08
36	0x31e229aa	6.5822023e-09
37	0x356b3cb6	8.763267e-07
38	0x31d5279c	6.203619e-09
39	0x314da667	2.9926015e-09
40	0x31d9e8fb	6.342018e-09
41	0x3091fad0	1.0621424e-09
42	0x3184753f	3.855035e-09
43	0x30a9cd12	1.2354653e-09
44	0x342c98aa	1.6074287e-07
45	0x3390a2dd	6.735147e-08
46	0x31cabf89	5.900749e-09
47	0x34f367a2	4.533768e-07
48	0x30255d71	6.015944e-10
49	0x320783a8	7.887969e-09
50	0x32033e44	7.639361e-09
51	0x3091f772	1.0620467e-09
52	0x3589a222	1.0254482e-06
53	0x3203cb8e	7.671487e-09
54	0x3233a8b8	1.04575335e-08
55	0x329d050f	1.8279506e-08
56	0x313e3f5f	2.7684661e-09
57	0x329b4943	1.807769e-08
58	0x3238194d	1.0715962e-08
59	0x32245820	9.566094e-09
60	0x3179286a	3.6257242e-09
61	0x32272d8d	9.731036e-09
62	0x31c4e033	5.7298393e-09
63	0x31b5df34	5.2931686e-09
64	0x3130b486	2.5713986e-09
65	0x3145584a	2.871746e-09
66	0x3182b1c9	3.80371e-09
67	0x3217d50f	8.837801e-09
68	0x31165468	2.1875852e-09
69	0x328d95da	1.6482705e-08
70	0x30a53380	1.2019967e-09
71	0x3229d531	9.885569e-09
72	0x31bad58a	5.437589e-09
73	0x2f1db4ed	1.4343345e-10
74	0x311b665f	2.261366e-09
75	0x3286e32c	1.5702959e-08
76	0x31beb49a	5.55026e-09
77	0x308ca198	1.0232268e-09
78	0x320259ec	7.587442e-09
79	0x2ec3fdcd	8.9126574e-11
80	0x2f5a3c63	1.9848438e-10
81	0x2ede45e4	1.0107806e-10
82	0x31ae2dba	5.069265e-09
83	0x309658c9	1.0939171e-09
84	0x2f5bf934	2.0006469e-10
85	0x31ac0f00	5.007564e-09
86	0x32c03e19	2.237998e-08
87	0x31939337	4.2949995e-09
88	0x2e923fe4	6.6506606e-11
89	0x2f2aa069	1.5518399e-10
90	0x3269106f	1.3566122e-08
91	0x34cc0dad	3.8007911e-07
92	0x320c551a	8.168422e-09
93	0x328a7f9f	1.612335e-08
94	0x3056a93a	7.809323e-10
95	0x2e883eed	6.195742e-11
96	0x314d1e7d	2.9848757e-09
97	0x31433ab8	2.8409612e-09
98	0x319a4938	4.490314e-09
99	0x34281290	1.5652972e-07
100	0x32ac62ec	2.006842e-08
101	0x34a12747	3.0017165e-07
102	0x31d38595	6.1560947e-09
103	0x325d025c	1.28644295e-08
104	0x31e88c9a	6.768073e-09
105	0x2d19db2d	8.74571e-12
106	0x351472a9	5.530115e-07
107	0x329bb8e6	1.8128457e-08
108	0x328acf4c	1.6159582e-08
109	0x321a3644	8.976318e-09
110	0x320c7799	8.176266e-09
111	0x30839337	9.573345e-10
112	0x30e0ac47	1.6347109e-09
113	0x31a507e4	4.803029e-09
114	0x312b0565	2.4886841e-09
115	0x32596de0	1.2656045e-08
116	0x329a8c67	1.7991807e-08
117	0x31efd56d	6.980079e-09
118	0x3082bb79	9.512028e-10
119	0x3035b228	6.610059e-10
120	0x3218e9dc	8.900738e-09
121	0x32923424	1.7020348e-08
122	0x329577f3	1.740043e-08
123	0x302e6542	6.344473e-10
124	0x2fb3573e	3.26219e-10
125	0x319baa1b	4.5304325e-09
126	0x32d6ad24	2.4991614e-08
127	0x32209b28	9.348504e-09
128	0x321f8ada	9.286589e-09
129	0x310f3cda	2.0843829e-09
130	0x2d1f0cbe	9.040933e-12
131	0x3261ca89	1.3142775e-08
132	0x328c9e5a	1.6370155e-08
133	0x3072ea8e	8.837241e-10
134	0x318d7b6b	4.117671e-09
135	0x2ed0a502	9.488056e-11
136	0x316541b9	3.3361245e-09
137	0x32505516	1.212654e-08
138	0x322710a4	9.724463e-09
139	0x30efc3d4	1.7445196e-09
140	0x3271e255	1.4079508e-08
141	0x304b7912	7.402302e-10
142	0x320b87e3	8.121762e-09
143	0x327e128a	1.4788961e-08
144	0x2e422f5a	4.415255e-11
145	0x326d154d	1.3800059e-08
146	0x328914c4	1.5958342e-08
147	0x30e8bd5d	1.6934042e-09
148	0x3280fc50	1.50159e-08
149	0x30960ed1	1.0918147e-09
150	0x300911c2	4.9865545e-10
151	0x2f08ae92	1.2431148e-10
152	0x31b6ed23	5.3238565e-09
153	0x313d9701	2.7588956e-09
154	0x323c9422	1.0976722e-08
155	0x302b283c	6.2266614e-10
156	0x3135a4f8	2.643274e-09
157	0x3202b490	7.608051e-09
158	0x31870161	3.929174e-09
159	0x32180c0f	8.850306e-09
160	0x3214a4c8	8.652201e-09
161	0x31cd2722	5.970734e-09
162	0x32856cd3	1.5532725e-08
163	0x31663691	3.3500422e-09
164	0x31de8858	6.476551e-09
165	0x3106bc7c	1.9606707e-09
166	0x320776df	7.885062e-09
167	0x32737d32	1.4172928e-08
168	0x318f5666	4.17167e-09
169	0x3277a398	1.4414489e-08
170	0x31880de9	3.9597023e-09
171	0x2f250b1c	1.501061e-10
172	0x35f91217	1.855721e-06
173	0x309bd03e	1.133692e-09
174	0x319b2b4c	4.516016e-09
175	0x30ae7958	1.2694654e-09
176	0x3281ce3c	1.5111361e-08
177	0x2e5bcdbb	4.997756e-11
178	0x2efc4964	1.147267e-10
179	0x34269a17	1.5516012e-07
180	0x3549f637	7.5236625e-07
181	0x328471f9	1.5418651e-08
182	0x3585ad13	9.959643e-07
183	0x3249b8ba	1.1741742e-08
184	0x2fff4d82	4.6439302e-10
185	0x316485a8	3.3254342e-09
186	0x31754846	3.5693275e-09
187	0x35c367b5	1.4558815e-06
188	0x327d1d85	1.473325e-08
189	0x31de1f52	6.464611e-09
190	0x32896988	1.599689e-08
191	0x31ed18fc	6.900448e-09
192	0x32054758	7.757841e-09
193	0x31a39547	4.7608952e-09
194	0x323fd49f	1.1166008e-08
195	0x32618374	1.3126613e-08
196	0x31198fb5	2.2346118e-09
197	0x2f9aa13d	2.8127004e-10
198	0x31b29910	5.197883e-09
199	0x359f944d	1.1889584e-06
200	0x32786894	1.4459278e-08
201	0x3165721d	3.3388752e-09
202	0x31851862	3.8735815e-09
203	0x3012cc1a	5.3404536e-10
204	0x2fc9e040	3.6721026e-10
205	0x32554584	1.2414038e-08
206	0x352191e4	6.018947e-07
207	0x352b5e5e	6.3839786e-07
208	0x304e44b2	7.5039985e-10
209	0x3576e5ca	9.197653e-07
210	0x31a1f7b9	4.7138795e-09
211	0x3259e2e7	1.2682654e-08
212	0x330762a9	3.1521868e-08
213	0x308d822e	1.02961e-09
214	0x35876502	1.0087681e-06
215	0x2f112eab	1.3204253e-10
216	0x299115be	6.443065e-14
217	0x2ea956cf	7.7006505e-11
218	0x31b259c6	5.190688e-09
219	0x32190b0f	8.9082866e-09
220	0x308d9da9	1.030391e-09
221	0x3106c158	1.960947e-09
222	0x31729fdb	3.5306502e-09
223	0x32481737	1.1646811e-08
224	0x31b77b8d	5.340047e-09
225	0x325aa092	1.27257795e-08
226	0x34346ce4	1.680342e-07
227	0x31b028a5	5.126895e-09
228	0x30d37d9b	1.538797e-09
229	0x30900169	1.047778e-09
230	0x328270f0	1.518535e-08
231	0x3249d9f6	1.1749298e-08
232	0x3258912a	1.2605861e-08
233	0x32861a13	1.561151e-08
234	0x3297d3b1	1.767498e-08
235	0x3101117b	1.8781907e-09
236	0x33ff273d	1.18815e-07
237	0x323d4e54	1.1019058e-08
238	0x2c5bcb25	3.123454e-12
239	0x33765f1a	5.7362833e-08
240	0x32aa8f8a	1.9855879e-08
241	0x338c6d45	6.539134e-08
242	0x31d4e10c	6.195597e-09
243	0x31ae262f	5.0684075e-09
244	0x325278de	1.2251091e-08
245	0x318bc582	4.0678865e-09
246	0x32a02c9d	1.864674e-08
247	0x32381296	1.0714436e-08
248	0x32817abe	1.5073393e-08
249	0x2f077287	1.2318867e-10
250	0x31a4a364	4.7916036e-09
251	0x2f0bd1f0	1.2716561e-10
252	0x31616ea8	3.280471e-09
253	0x358d4066	1.0524061e-06
254	0x30385d11	6.7071065e-10
255	0x31889d00	3.9759698e-09

exp_avg f4 [64]
0	0x3cc75f41	0.024337413
1	0xbc1c8c73	-0.00955497
2	0xb9b3d392	-0.00034299173
3	0xbbea3ce1	-0.0071483706
4	0xb92626df	-0.00015845474
5	0xba986268	-0.0011626007
6	0x3c8289cd	0.01593485
7	0xbc65155a	-0.013982141
8	0x3ba75f09	0.0051077646
9	0xbc4ee545	-0.012627904
10	0xbb39d301	-0.0028354528
11	0xb9fc07b1	-0.00048070916
12	0xbbf047b9	-0.0073327688
13	0x3aec027e	0.0018006114
14	0xbad8d290	-0.0016542245
15	0x3ba67340	0.005079657
16	0xba2ed9c0	-0.00066700205
17	0xbb26e707	-0.0025467293
18	0x3be4f360	0.0069870204
19	0xb9f14488	-0.00046018162
20	0xba840d60	-0.0010074787
21	0xbac65f93	-0.0015134685
22	0x39e5848b	0.00043777036
23	0xbacd8f93	-0.0015683047
24	0x3b5580bd	0.0032577955
25	0x3b0d64ca	0.0021574968
26	0xbada208d	-0.0016641781
27	0x39552aa6	0.0002032915
28	0x3bc50bc5	0.006013366
29	0xb8142dbe	-3.532855e-05
30	0x3ba2ef92	0.0049724067
31	0xbc495201	-0.012287618
32	0xbb876e0b	-0.004132991
33	0xb9bc28e9	-0.00035888635
34	0x3b367c08	0.0027844924
35	0x39060c51	0.00012783824
36	0x3a32e631	0.00068244623
37	0xbc2b00d2	-0.010437207
38	0xbc07e8e6	-0.008295273
39	0x3b044c8f	0.0020187234
40	0xbae042d1	-0.0017109757
41	0x39aa54c1	0.00032488073
42	0x3bb6bfaa	0.0055770474
43	0xbc97b9a8	-0.018521145
44	0x3ab35bc3	0.0013683963
45	0xbaa713dd	-0.0012747009
46	0x3a9ccfa4	0.0011963737
47	0xbabd54a0	-0.0014444776
48	0xbbd03a8c	-0.0063546356
49	0xbba0d127	-0.0049077454
50	0xb9c9da53	-0.00038500372
51	0xbbd459c9	-0.00648043
52	0x3c16b10d	0.009197486
53	0x3c3a92f3	0.0113875745
54	0xb9c2c25f	-0.0003714738
55	0x3c1cb0bb	0.00956362
56	0xba077167	-0.00051667396
57	0xb9d7e02d	-0.0004117502
58	0x39894b97	0.00026186995
59	0x3c8f3970	0.017483443
60	0xbaab5f45	-0.0013074657
61	0xba872b1a	-0.0010312528
62	0x3c01296b	0.00788341
63	0x3a2c42ec	0.00065712514

exp_avg_sq f4 [64]
0	0x37943083	1.7665565e-05
1	0x36398881	2.7646604e-06
2	0x3184fe26	3.870599e-09
3	0x35d1d5ca	1.5633934e-06
4	0x319c4ef9	4.5491757e-09
5	0x333c26e6	4.380754e-08
6	0x36fe5960	7.5801945e-06
7	0x36c9fe09	6.0198404e-06
8	0x35552e56	7.941611e-07
9	0x369d1f24	4.68259e-06
10	0x348b91a3	2.5996732e-07
11	0x31f9a654	7.265763e-09
12	0x35d8556b	1.6118114e-06
13	0x341e6d99	1.4754768e-07
14	0x33b720e6	8.527586e-08
15	0x3550226a	7.753612e-07
16	0x33023bc6	3.0322347e-08
17	0x34693e1e	2.1722414e-07
18	0x35c6fe38	1.4826137e-06
19	0x31e517f8	6.667502e-09
20	0x33185e54	3.547605e-08
21	0x33b05ee0	8.212896e-08
22	0x323ee9e9	1.1112641e-08
23	0x33a8ed9b	7.86633e-08
24	0x34afa0bc	3.271324e-07
25	0x3414eab8	1.3868964e-07
26	0x33dc9372	1.02713685e-07
27	0x314f0fa4	3.0131355e-09
28	0x3599c402	1.1456434e-06
29	0x2f58814a	1.9691018e-10
30	0x35508f96	7.7694983e-07
31	0x369664bc	4.4820754e-06
32	0x35132214	5.481136e-07
33	0x318333a5	3.818473e-09
34	0x3484fa77	2.4769153e-07
35	0x318cf75e	4.1026587e-09
36	0x32d7ad17	2.5108006e-08
37	0x365ca529	3.287869e-06
38	0x360b790f	2.078308e-06
39	0x340a08f0	1.2855503e-07
40	0x33ba3f59	8.672823e-08
41	0x331a476f	3.5920888e-08
42	0x35811a1a	9.618846e-07
43	0x372b8234	1.02227095e-05
44	0x3381c22b	6.0423496e-08
45	0x335f7d8a	5.203541e-08
46	0x3391748a	6.773287e-08
47	0x33ae297a	8.110051e-08
48	0x35ab73eb	1.2774229e-06
49	0x353ce32d	7.036604e-07
50	0x31f7a522	7.2074196e-09
51	0x35a97f12	1.2628464e-06
52	0x36319689	2.6462678e-06
53	0x3683c77f	3.9273286e-06
54	0x3198442a	4.4315316e-09
55	0x363a598e	2.7768288e-06
56	0x320ddbb0	8.257231e-09
57	0x32139a07	8.591548e-09
58	0x326f5fc7	1.3933408e-08
59	0x37178da3	9.033279e-06
60	0x33b6b762	8.5083926e-08
61	0x333c1c33	4.3797808e-08
62	0x3600e0a2	1.920424e-06
63	0x32879cc8	1.5787364e-08

exp_avg f4 [64]
0	0x3be9c92d	0.0071345777
1	0x3b5d8f2b	0.0033807259
2	0x3b8616e3	0.004092084
3	0x3b33bea7	0.002742687
4	0x3b860681	0.004090131
5	0x3b843b0b	0.004035359
6	0x3c0b4a45	0.008501594
7	0x3aa6dce6	0.0012730628
8	0x3b907197	0.004408072
9	0x3b435db7	0.0029810497
10	0x3b6755c5	0.0035298925
11	0x3b861943	0.004092367
12	0x3b6a33dd	0.003573648
13	0x3b8cc66f	0.004296116
14	0x3b8525fd	0.0040633664
15	0x3b97b914	0.0046302173
16	0x3b7ea65b	0.003885648
17	0x3b7f7262	0.003897809
18	0x3b96c5e7	0.0046012285
19	0x3b86196b	0.0040923855
20	0x3b84e65f	0.0040557827
21	0x3b81805a	0.0039520683
22	0x3b871d66	0.0041233776
23	0x3b85096d	0.0040599615
24	0x3b973d13	0.004615435
25	0x3b8bbc64	0.0042644013
26	0x3b7c5883	0.0038504906
27	0x3b867759	0.004103583
28	0x3b91a74c	0.004444992
29	0x3b86196b	0.0040923855
30	0x3baad4a6	0.005213338
31	0x3b3b3c0d	0.0028569729
32	0x3b80d5f6	0.003931756
33	0x3b861d7d	0.0040928707
34	0x3b8a71e0	0.0042250007
35	0x3b865820	0.004099861
36	0x3b8670a6	0.004102784
37	0x3b7d89d3	0.0038686886
38	0x3b5fd09a	0.0034151436
39	0x3b8f5d29	0.004375119
40	0x3b84ac0e	0.004048831
41	0x3b829b8f	0.003985829
42	0x3baaef8e	0.0052165454
43	0xba1213db	-0.00055724167
44	0x3b8638e2	0.0040961364
45	0x3b829c42	0.0039859125
46	0x3b89db7e	0.0042070737
47	0x3b7e1b11	0.0038773457
48	0x3b2486ed	0.0025104836
49	0x3b76576e	0.0037588733
50	0x3b85c2b8	0.00408205
51	0x3b66fbd2	0.0035245311
52	0x3bbfb087	0.005849901
53	0x3bb67ed9	0.0055693206
54	0x3b86196b	0.0040923855
55	0x3bb634c1	0.005560488
56	0x3b86139e	0.004091694
57	0x3b85c6c1	0.004082531
58	0x3b8691ca	0.004106735
59	0x3bf1fae7	0.007384646
60	0x3b6f6709	0.003652992
61	0x3b844795	0.0040368536
62	0x3b965193	0.004587361
63	0x3b87745a	0.0041337432
