models/AAPL.pth (torch, 84074 bytes, 33 tensors)

shared.0.weight f4 [64, 20]
0	0xbd2e1909	-0.042504344
1	0xbd0f906c	-0.03504984
2	0xbcb54c84	-0.022131212
3	0x3b6e1bb2	0.0036332426
4	0x3bcc1615	0.0062282183
5	0x3c0b9284	0.008518819
6	0x3c070084	0.008239869
7	0xbb3c7991	-0.0028758983
8	0x3beb901e	0.007188811
9	0x3c5b1d5a	0.013373697
10	0x3e2422e5	0.16028936
11	0x3ca657cd	0.020305539
12	0x3c8d6ca8	0.017263725
13	0xbc579db9	-0.013160163
14	0x3c85ff25	0.016357014
15	0x3dad83d7	0.08472412
16	0xbbb14d08	-0.005410794
17	0x3dfec564	0.12439993
18	0x3d757a8e	0.05993133
19	0x3d6c275c	0.057654724
20	0x3dbed232	0.09317435
21	0xb5f56546	-1.8283397e-06
22	0x3d6a1130	0.057145298
23	0x3d659711	0.05605227
24	0xbb1b7ca6	-0.002372542
25	0xbad3568f	-0.0016123819
26	0xb9fff1d5	-0.0004881757
27	0xbb3b7229	-0.002860198
28	0x3d8c7948	0.0685907
29	0xbb37eef7	-0.0028066018
30	0x3e092e3e	0.13396546
31	0xbb6321e7	-0.0034657659
32	0xbc612c50	-0.013743475
33	0x3678a100	3.7048594e-06
34	0xbc4b6f76	-0.012416711
35	0xba9cb9ed	-0.0011957266
36	0xbb32f5af	-0.0027307083
37	0x3d7e6410	0.062107146
38	0xbce7a03e	-0.028274652
39	0x3c682374	0.014168609
40	0x3b026e68	0.0019902233
41	0xbc58c20f	-0.013229861
42	0xbdc4544a	-0.09586389
43	0x3db90727	0.09034567
44	0x3c1a5c52	0.009421425
45	0xbd357c25	-0.044307847
46	0x3d332274	0.04373403
47	0xbd190815	-0.037361223
48	0x3b03fbfe	0.0020139213
49	0x3b0da702	0.0021614437
50	0x3d2c489e	0.04206144
51	0x3b3d8aae	0.002892177
52	0xbb21f888	-0.0024714787
53	0xbd6dc29e	-0.05804693
54	0x3c10d139	0.008838945
55	0x3c0b1cc6	0.008490747
56	0x3db98d59	0.09060163
57	0xbd88cbf3	-0.06679525
58	0xbd311187	-0.043229606
59	0x3d8aa639	0.06769986
60	0xa787d39f	-3.7699467e-15
61	0xbda83174	-0.082125574
62	0x39ad5cd0	0.00033066282
63	0xbbcf3b6b	-0.006324222
64	0xbc1d627a	-0.009605998
65	0xbb358f43	-0.00277038
66	0x3acac6a5	0.0015470578
67	0x3cc6875e	0.02423447
68	0xbc4df398	-0.012570284
69	0x3b092ccb	0.002093124
70	0x3d01ffa1	0.031737927
71	0x3cbf7661	0.023371877
72	0xbb0a3738	-0.0021090042
73	0x3da2ab29	0.079428025
74	0x3db6fd86	0.089350745
75	0xbc8cf659	-0.017207311
76	0xbd4c106a	-0.04982034
77	0xbd0d22b6	-0.03445693
78	0x3dec5021	0.11538721
79	0xbd190b94	-0.037364557
80	0xbdc23507	-0.094827704
81	0x394386e0	0.00018646894
82	0xbd9221a8	-0.07135326
83	0x3d830512	0.063974515
84	0x3b2a8aaa	0.0026022592
85	0xbd33983e	-0.04384636
86	0x39ae752a	0.0003327516
87	0x3a0a9da7	0.0005287774
88	0x3aa1e751	0.0012352263
89	0x3ada338a	0.001664744
90	0x3c328997	0.010897062
91	0x3dbd72c3	0.09250405
92	0x3dc6afba	0.09701486
93	0x3d0005f1	0.031255666
94	0x3c5786fd	0.013154742
95	0x3d924afe	0.0714321
96	0x3add38d1	0.0016877895
97	0x3bfb0364	0.0076603163
98	0x3ce27950	0.027645737
99	0x3a7647ba	0.00093948434
100	0xba92fed4	-0.0011214861
101	0x3d0c9300	0.034319878
102	0x3dbbfbdc	0.09178898
103	0x3dbcbf7d	0.09216211
104	0x3d6e9799	0.058250044
105	0x3a9c0144	0.0011902233
106	0xbc007c30	-0.007842109
107	0x3a92f937	0.0011213188
108	0x3c7c3647	0.0153938
109	0xbaee3fff	-0.0018177031
110	0x3ba16be5	0.004926192
111	0x3ca0fe8b	0.019652626
112	0x3b2ceec2	0.0026387428
113	0xbcf7e645	-0.030261168
114	0xbcadcfbb	-0.021217218
115	0x3d53e87c	0.051735386
116	0x3d1cfdf8	0.03832814
117	0xbdd64614	-0.10462585
118	0x3c97984e	0.018505242
119	0x3dba1478	0.09085935
120	0x3c162cc4	0.009165946
121	0xbc15f534	-0.009152699
122	0xbbbd5ecc	-0.005779123
123	0xbd941452	-0.07230438
124	0xbdc98ed4	-0.098416954
125	0xbc7fa408	-0.015603073
126	0xbdb93191	-0.09042657
127	0xbc14a849	-0.009073325
128	0x3d13467b	0.035955887
129	0xbd97d5ef	-0.074138515
130	0x3e3d4241	0.18482305
131	0x3ca7ae67	0.020468904
132	0x3d81075a	0.0630023
133	0xbbcc7035	-0.006238962
134	0xbad4dccd	-0.001624012
135	0x3c8bee48	0.017081395
136	0xbd7b13c3	-0.061298143
137	0x3dc85e2e	0.09783588
138	0x3d317458	0.043323845
139	0xbd65c266	-0.056093596
140	0x3af8c975	0.0018980937
141	0x38ee3290	0.000113581424
142	0x391a7bd2	0.00014732711
143	0x3d12816f	0.03576797
144	0xbc12dd1c	-0.008963849
145	0x3da8f83d	0.08250473
146	0xbd2af1b6	-0.04173442
147	0x3d489bd0	0.04897672
148	0xbd29e37f	-0.041476723
149	0x3d8ab0f1	0.0677203
150	0x3c391d4c	0.011298489
151	0x3c034e96	0.008014342
152	0xbcde4a73	-0.02713511
153	0x3b9ea8cc	0.0048418995
154	0xbd9b46a3	-0.07581832
155	0x3a7c6e7d	0.0009629501
156	0x3ca27882	0.019832853
157	0x3d0a1409	0.033710513
158	0x3e188fd1	0.14898612
159	0x3db3a94e	0.08772527
160	0xa80c9d7e	-7.805712e-15
161	0x3994d232	0.00028385367
162	0x3d13db3e	0.036097758
163	0x3c4f9881	0.012670637
164	0x3915444a	0.00014235187
165	0xbd391c11	-0.04519278
166	0xbdb1dfff	-0.08685302
167	0xbd84b7c3	-0.06480362
168	0x3bfaffe5	0.0076598995
169	0x3cdb3678	0.026759371
170	0xbd4ab65f	-0.04949033
171	0x3a4fb8a1	0.0007923935
172	0xbcce87a5	-0.025211165
173	0xbc7f0d6b	-0.015567164
174	0xbb658f21	-0.0035027938
175	0xb915ec0a	-0.00014297679
176	0xbc1a2101	-0.009407283
177	0x3d2de73c	0.04245685
178	0x3d20aef8	0.039229363
179	0xba8236e3	-0.000993457
180	0x3c6d9d49	0.014502832
181	0xbc115aec	-0.008871775
182	0xba87764f	-0.0010334941
183	0x3d0b689b	0.034035306
184	0xbd8d503c	-0.06900069
185	0x3adb4c3e	0.0016731096
186	0xbcde3980	-0.027127028
187	0xbbe93967	-0.0071174386
188	0xbd2d7f2a	-0.0423576
189	0x3d98ae53	0.07455125
190	0x3e14ae71	0.14519669
191	0x3dbfd055	0.09365908
192	0xbd7b828a	-0.06140379
193	0xbd9cf3c1	-0.0766368
194	0x3d3b0ad5	0.045664627
195	0xbc0e4262	-0.008682819
196	0xbcd352af	-0.025796263
197	0xbe088b04	-0.1333428
198	0xbddd8502	-0.10816385
199	0x3ba58391	0.0050510843
200	0x3d344132	0.044007488
201	0x3d829cc8	0.0637756
202	0xbdad6f31	-0.08468474
203	0xbdcda699	-0.100415416
204	0xbd8c86ad	-0.06861625
205	0x3bef52f7	0.0073035914
206	0x3c837b5e	0.016050037
207	0xbcc6a8c8	-0.024250403
208	0xbc850808	-0.016239181
209	0x3c6b7d7c	0.0143731795
210	0x3d3cf7a5	0.04613461
211	0x3db9c802	0.090713516
212	0x3db10006	0.086425826
213	0xbd3997dd	-0.045310844
214	0x3d789b63	0.060695063
215	0x3da1f738	0.07908481
216	0xbdaf5cf8	-0.08562654
217	0xbe0d5def	-0.13805364
218	0x3e0c6505	0.13710411
219	0xbd66bb93	-0.05633123
220	0x3cb54663	0.02212829
221	0xb934ee4e	-0.00017254913
222	0xbdca30e9	-0.0987261
223	0x3d39b85f	0.045341846
224	0xbc882ca0	-0.016622841
225	0xbb8fbce5	-0.0043865317
226	0x3be251e7	0.006906736
227	0x3d0ace0e	0.033887915
228	0x3dc8195f	0.09770464
229	0xbc4bf856	-0.012449345
230	0x3e11d41c	0.1424107
231	0x3c589626	0.013219392
232	0xbdbe97be	-0.09306286
233	0xbdab08a5	-0.08351258
234	0x3bd92c96	0.0066276295
235	0xbd61976a	-0.05507604
236	0xbd69f18d	-0.057115126
237	0x3e3d91c1	0.18512632
238	0x3ccc1472	0.024912093
239	0xbc483d30	-0.0122216195
240	0xbdb612b6	-0.088902876
241	0x38aa739d	8.127766e-05
242	0xbdb6dd0a	-0.089288786
243	0xbbb9b4d6	-0.0056673093
244	0x3d0c0323	0.03418268
245	0xbd7893db	-0.06068788
246	0xbbc0fa8f	-0.005889244
247	0x3d848004	0.064697295
248	0x3aa1fb47	0.0012358212
249	0xbc861c2b	-0.016370853
250	0xbdb6f968	-0.08934289
251	0x3d8ec35e	0.06970857
252	0x3da28854	0.07936159
253	0x3c8751db	0.016518524
254	0xbbeea74e	-0.007283128
255	0x3d6ef16a	0.0583357

shared.0.bias f4 [64]
0	0xbe10a0a5	-0.14123781
1	0xbdc0333d	-0.09384773
2	0xbd7ccf4d	-0.061721135
3	0x3dca7760	0.0988605
4	0xbde24764	-0.11048773
5	0xbd300830	-0.04297656
6	0x3e13f39b	0.14448397
7	0xbe101c67	-0.14073335
8	0xbb55b69b	-0.0032610062
9	0x3e0cdc73	0.1375597
10	0x3d4466e3	0.047949683
11	0x3d26bd5a	0.040707923
12	0x3ce5b382	0.028039698
13	0x3e46741f	0.19380234
14	0x3dfaccf4	0.12246123
15	0xbdc934a0	-0.098244905
16	0xbd920512	-0.07129873
17	0x3bf72d1a	0.0075432183
18	0x3e0f8935	0.14017184
19	0x3def68f0	0.11689937
20	0x3da9637d	0.08270929
21	0xbc1a4e62	-0.009418102
22	0xbd8c9278	-0.06863874
23	0xbdc7d3c5	-0.09757189
24	0x3e570653	0.20998506
25	0x3c377b71	0.011198864
26	0x3d5341d8	0.051576465
27	0xbda05963	-0.07829549
28	0xbdc215e8	-0.094768345
29	0x3d3096d3	0.043112587
30	0x3afd8903	0.0019343201
31	0xbde8d425	-0.11368588
32	0x3de9985e	0.11406015
33	0x3e0351b4	0.12824136
34	0xbdecc9dc	-0.11561939
35	0x3e410847	0.18850814
36	0xbd7de0e0	-0.061982036
37	0xbd455b00	-0.048182487
38	0x3e2b4283	0.16724591
39	0x3dfde606	0.12397389
40	0x3cc5b9e6	0.024136495
41	0xbd06a220	-0.03286946
42	0x3c1c6036	0.009544423
43	0x3d092e5d	0.03349148
44	0xbd290700	-0.04126644
45	0x3dac919d	0.08426211
46	0xbc6a772b	-0.014310638
47	0x3e1dc9f5	0.15409072
48	0xbd0a9f2f	-0.033843216
49	0xbd545c82	-0.051846035
50	0x3b810dd7	0.0039384174
51	0xbde32bfb	-0.11092373
52	0x3e2a194e	0.16611215
53	0xbdbd5e5c	-0.09246513
54	0x3e2e165c	0.17000717
55	0x3daaa2db	0.083318435
56	0xbd1ed33a	-0.03877566
57	0xbd9e79d1	-0.077380784
58	0x3b74cb01	0.0037352445
59	0xbdea04e3	-0.11426713
60	0xbdd0295f	-0.10164141
61	0x3e0c2be9	0.13688625
62	0xbdb19060	-0.086701155
63	0x3dd9bdfd	0.106319405

shared.1.weight f4 [64]
0	0x3f5ac213	0.85452384
1	0x3f5aee3d	0.8551977
2	0x3f5ae3f0	0.85504055
3	0x3f5d334c	0.864064
4	0x3f5a8ad2	0.85368073
5	0x3f5aa60c	0.8540962
6	0x3f613129	0.8796564
7	0x3f5a7830	0.8533964
8	0x3f5a8c68	0.8537049
9	0x3f5eb4ce	0.86994636
10	0x3f5f324d	0.8718613
11	0x3f5b512b	0.8567073
12	0x3f5a8c0d	0.8536995
13	0x3f58c818	0.8468032
14	0x3f5a7233	0.85330504
15	0x3f5a8ad2	0.85368073
16	0x3f5a8ad2	0.85368073
17	0x3f5a6ce8	0.8532243
18	0x3f5c633a	0.8608891
19	0x3f59db84	0.8510058
20	0x3f5cb8e1	0.862196
21	0x3f5a55bf	0.8528709
22	0x3f5a9876	0.85388887
23	0x3f5a8ad2	0.85368073
24	0x3f594cdc	0.84882903
25	0x3f5a804b	0.8535201
26	0x3f5b43a0	0.8565006
27	0x3f5a8ad2	0.85368073
28	0x3f5a6c11	0.85321146
29	0x3f58a790	0.8463068
30	0x3f5a6d60	0.85323143
31	0x3f5a8ad2	0.85368073
32	0x3f5a8c86	0.8537067
33	0x3f5abc16	0.85443246
34	0x3f5a8ad2	0.85368073
35	0x3f613fe2	0.879881
36	0x3f5a9d10	0.8539591
37	0x3f5a8cd0	0.8537111
38	0x3f5e4e75	0.86838466
39	0x3f5c7ce9	0.861281
40	0x3f5b60be	0.8569449
41	0x3f5bf19d	0.8591555
42	0x3f5c4977	0.860496
43	0x3f5d6051	0.8647509
44	0x3f5a8ad2	0.85368073
45	0x3f59a2f7	0.8501429
46	0x3f5a7bd3	0.8534519
47	0x3f5c96c4	0.8616755
48	0x3f5a8ada	0.8536812
49	0x3f5a8ad2	0.85368073
50	0x3f5a93c2	0.8538171
51	0x3f5a8ad2	0.85368073
52	0x3f5eb963	0.8700163
53	0x3f5ad84d	0.854863
54	0x3f5a932b	0.8538081
55	0x3f5b2f64	0.8561919
56	0x3f5a8ad2	0.85368073
57	0x3f5a8ee6	0.85374296
58	0x3f5a8ae7	0.853682
59	0x3f5a97de	0.8538798
60	0x3f5a8c24	0.8537009
61	0x3f61cd4e	0.88203895
62	0x3f58bdfa	0.8466488
63	0x3f5b02de	0.8555125

shared.1.bias f4 [64]
0	0x3cd540ff	0.02603197
1	0xbc7c5e0d	-0.015403283
2	0xbbbfe4d2	-0.005856135
3	0x3c74c51c	0.014939573
4	0x00000000	0.0
5	0xbb2cc88a	-0.0026364648
6	0xbb0d8d3c	-0.0021599075
7	0x381777c7	3.6112757e-05
8	0xb7fbe1bd	-3.002665e-05
9	0xbcd289d9	-0.025700497
10	0xba1f8566	-0.00060852466
11	0x3cd77699	0.026301669
12	0xb3a6b8cf	-7.763594e-08
13	0x3be22789	0.0069016856
14	0xb9cf74e0	-0.00039569195
15	0x00000000	0.0
16	0x00000000	0.0
17	0x3af3c01f	0.0018596685
18	0xbc53959f	-0.01291409
19	0x3d030c5f	0.03199422
20	0xb8315c26	-4.228591e-05
21	0x3b3aa96b	0.0028482329
22	0xbab50181	-0.0013809652
23	0x00000000	0.0
24	0x3c84136c	0.016122542
25	0x3c2f95b8	0.010716848
26	0xbcb9a5cd	-0.022662068
27	0x00000000	0.0
28	0x3a2561b1	0.00063088076
29	0x3c0c34c2	0.0085575
30	0x3b215d82	0.0024622385
31	0x00000000	0.0
32	0xbc999dad	-0.018751943
33	0xbc815505	-0.01578761
34	0x00000000	0.0
35	0xbbf18302	-0.0073703537
36	0xbafe9de6	-0.001942572
37	0xb6b5e2f3	-5.4206407e-06
38	0xbd00c1c4	-0.03143479
39	0xbcabe1a2	-0.020981614
40	0xbac8cf30	-0.0015320536
41	0x3d04b37b	0.03239773
42	0x3ba4b5c2	0.00502655
43	0xbc804529	-0.015657978
44	0x00000000	0.0
45	0x3b1b2d16	0.0023677996
46	0x39cbd6cd	0.00038879216
47	0x3ab68236	0.0013924304
48	0xa724603c	-2.281174e-15
49	0x00000000	0.0
50	0xbae02310	-0.0017100293
51	0x00000000	0.0
52	0x3ca4843a	0.020082582
53	0xbb462459	-0.0030234067
54	0x3c9bc7fc	0.019016258
55	0xbc8cc5e7	-0.017184211
56	0x00000000	0.0
57	0xb4178f38	-1.4115074e-07
58	0xabb244b1	-1.2666726e-12
59	0xbb1b5c52	-0.002370615
60	0xb8abcd5a	-8.192165e-05
61	0xbbe73cfc	-0.0070568305
62	0x3c3e4a4f	0.011614396
63	0x3cc693da	0.024240423

shared.4.weight f4 [64, 64]
0	0xbb9ff88b	-0.0048819236
1	0xbc946822	-0.01811606
2	0xb9c11598	-0.00036827917
3	0xbd138e3b	-0.036024313
4	0xa7a72474	-4.6391334e-15
5	0xbb30dae6	-0.0026985942
6	0xbd77160a	-0.060323752
7	0xbc80f1ff	-0.015740393
8	0xb9f16314	-0.0004604092
9	0xbc2ea065	-0.010658358
10	0xbc8e11e8	-0.017342523
11	0xbda680a1	-0.08130003
12	0x3c0d42d7	0.008621893
13	0xbd27a982	-0.04093314
14	0x3c072103	0.008247617
15	0xa97a8535	-5.562669e-14
16	0xadd71d40	-2.445566e-11
17	0x3c5819a2	0.013189705
18	0xbcc1c45a	-0.023653198
19	0xbd5ad741	-0.05342794
20	0x3c9d3fb1	0.01919541
21	0xbce1179c	-0.027477078
22	0x3baaff55	0.005218426
23	0x3b787ebe	0.003791734
24	0xbd73775c	-0.05944
25	0xbc7177e9	-0.014738061
26	0xbd9f0eca	-0.07766493
27	0xb80e2ddc	-3.3898148e-05
28	0x3c7eaaa6	0.015543615
29	0xbc9dde1d	-0.01927095
30	0xbd46dbfa	-0.04854963
31	0x3c61bdb1	0.013778136
32	0xbcec658d	-0.028857017
33	0xbd072cc4	-0.033001676
34	0xba34e0ab	-0.0006899933
35	0xbd25f087	-0.040512588
36	0xbae733c9	-0.0017639335
37	0xb283688c	-1.529795e-08
38	0x3d1fe926	0.039040707
39	0xbd7be7e0	-0.06150043
40	0xbc7273de	-0.014798133
41	0x3b6c5599	0.0036061762
42	0xbd3d4af4	-0.04621406
43	0xba2c5366	-0.00065737066
44	0x3bfbf615	0.0076892474
45	0x3c4b1c04	0.012396816
46	0xbb859fe5	-0.004077899
47	0xbdc1d37b	-0.09464165
48	0xbca9b289	-0.020715015
49	0xbc9f83fa	-0.019472111
50	0xbc3ede21	-0.011649639
51	0x3c7f0847	0.015565938
52	0xbd3c6ddc	-0.046003208
53	0x3cb99e30	0.022658437
54	0xbde7309c	-0.112885684
55	0x3b025710	0.001988832
56	0xb690b78f	-4.3129035e-06
57	0xbb9d11ef	-0.0047933976
58	0x28772710	1.3719725e-14
59	0xbbaa3f82	-0.005195559
60	0xb95ce951	-0.00021067752
61	0x3cee4c8b	0.029089233
62	0xbc88492f	-0.01663646
63	0xbd52193e	-0.051293604
64	0xbcc5aa69	-0.02412911
65	0x3cd25d68	0.025679305
66	0xbcf468c0	-0.029835105
67	0xbdaab633	-0.08335533
68	0xbb984fef	-0.0046482007
69	0x3c533c37	0.012892774
70	0x3b69a3c1	0.0035650583
71	0xbcd733c7	-0.026269807
72	0xb0e610a9	-1.6739438e-09
73	0x3d379060	0.04481542
74	0x3db780db	0.08960124
75	0xbd97e6e9	-0.074170895
76	0x31e889fe	6.7677766e-09
77	0x3dde1b77	0.10845082
78	0x3ce429a5	0.027851889
79	0x38c9b3b3	9.6178985e-05
80	0xbc67137f	-0.014103769
81	0xbc308efb	-0.010776277
82	0x3db592b8	0.08865875
83	0x3d65c39d	0.056094754
84	0xbc84ecb0	-0.016226143
85	0x3b910d22	0.0044266144
86	0x3c32831d	0.010895518
87	0x36b55a1f	5.404712e-06
88	0xbcc78a46	-0.024357926
89	0xbd5acafb	-0.053416234
90	0xbba50d37	-0.0050369757
91	0xac37c0a3	-2.61128e-12
92	0x3d1ad576	0.03780123
93	0x3c87a39a	0.016557503
94	0x3d3d084e	0.046150498
95	0xba16299a	-0.0005728245
96	0x3b91fe8c	0.004455393
97	0x3c7bf915	0.01537921
98	0xbc6eab90	-0.014567271
99	0xbdc90b73	-0.09816637
100	0xbcacaab4	-0.021077491
101	0x2c47e353	2.8405791e-12
102	0xbd6a6798	-0.0572277
103	0x3d2c65f5	0.04208942
104	0xbd512be8	-0.051067263
105	0xbc7bffd9	-0.015380823
106	0xbd5a490a	-0.05329231
107	0xbd06fa22	-0.03295339
108	0xbc30ee9c	-0.010799076
109	0x3d6cb3c6	0.057788633
110	0x3af78476	0.0018884081
111	0x3c74c567	0.0149396425
112	0xbc19c0e9	-0.009384372
113	0xbc582219	-0.013191723
114	0xbd80e36d	-0.06293378
115	0x3b18c85b	0.002331278
116	0x3db6b2a3	0.08920791
117	0xbd615da9	-0.055020962
118	0x3cccc689	0.024997013
119	0x3d2dcd62	0.042432196
120	0x3a02d61d	0.0004991012
121	0xa9572872	-4.777467e-14
122	0xaa9bdf30	-2.7688398e-13
123	0x3b64dbba	0.0034921006
124	0x36166686	2.2411418e-06
125	0x3cd7f5bb	0.02636229
126	0x3d2582cc	0.04040794
127	0x3d2497d3	0.040183853
128	0xbc877595	-0.01653556
129	0x3ce2775a	0.027644802
130	0xb979f5b7	-0.00023838026
131	0x3dc9f47e	0.09861086
132	0x2afccee8	4.4907762e-13
133	0x3c4683f5	0.012116422
134	0xbd3095a6	-0.043111466
135	0xbb15faa0	-0.002288498
136	0x38434794	4.6558285e-05
137	0x3dd8b3ca	0.10581167
138	0x3c252244	0.01007897
139	0xbcaa2854	-0.020771183
140	0x31e3a4fb	6.6253256e-09
141	0xbc379e9a	-0.011207247
142	0x3d9a616c	0.07538113
143	0xb8c074ad	-9.177006e-05
144	0xaaf3f002	-4.333201e-13
145	0xbbefa2da	-0.0073131146
146	0x3d112ba8	0.035442024
147	0xbd36cb26	-0.04462733
148	0x3d61b75a	0.0551065
149	0xbd166e2c	-0.03672616
150	0xbb4c77df	-0.0031199378
151	0x3a397707	0.00070749264
152	0xbd22b497	-0.039723005
153	0x3c259f7e	0.010108827
154	0xbd1fd9fa	-0.039026238
155	0xaa00597e	-1.1399733e-13
156	0x3d23207a	0.039825894
157	0x3d86b177	0.065768175
158	0x3b668363	0.0035173527
159	0xbcb03043	-0.021507388
160	0x3cd55bf3	0.026044821
161	0x3c822658	0.015887424
162	0x3652185a	3.1306613e-06
163	0xbcae9a6b	-0.021313867
164	0xbc80ecbc	-0.015737884
165	0xb71fbefd	-9.521606e-06
166	0x3db055f1	0.08610142
167	0x3dc0bae4	0.094106466
168	0x3d01eb22	0.03171838
169	0xbcc6b148	-0.024254456
170	0xbd25b724	-0.04045786
171	0x3d578d01	0.052624706
172	0xb967fb4d	-0.00022123494
173	0x3d0fa0ec	0.035065576
174	0x3ad17faf	0.0015983487
175	0x3d031461	0.032001857
176	0x3c2084c6	0.009797281
177	0x3c991e54	0.01869122
178	0xbca37be2	-0.019956533
179	0xb72a7ff4	-1.0162581e-05
180	0x3db49843	0.08818104
181	0x3c4060a8	0.011741795
182	0x3d98f580	0.074687004
183	0x3cca7ece	0.024718668
184	0xa9efadaa	-1.0643858e-13
185	0xac2c45fd	-2.4481521e-12
186	0x3c39cc5c	0.011340227
187	0x3b3418c9	0.0027480593
188	0x3c0db825	0.0086498605
189	0xbd0338ed	-0.03203671
190	0xbcaf0155	-0.02136294
191	0x3d90cd5c	0.07070419
192	0xb8076c30	-3.2287266e-05
193	0x3d1b6be7	0.0379447
194	0xbc5cb8f4	-0.013471831
195	0xbd96daaf	-0.07365929
196	0x36267cae	2.48085e-06
197	0xbcf52ed8	-0.029929563
198	0x3d3cc7c3	0.046088945
199	0x39a9118a	0.0003224726
200	0x31cf1b35	6.027586e-09
201	0x3dded459	0.10880346
202	0x3bdcae76	0.0067346646
203	0x3d177d76	0.036984883
204	0xbb11319f	-0.002215482
205	0x3dbfc8d3	0.09364476
206	0xbd88d6a9	-0.06681568
207	0xb98a4667	-0.00026373865
208	0xbb5128ad	-0.0031915114
209	0xbd1b7d55	-0.037961323
210	0x3db17ad7	0.08666008
211	0x3d8b2bd3	0.06795468
212	0xbd8147f7	-0.06312554
213	0xbce176d5	-0.027522484
214	0xbc23376c	-0.009961944
215	0x3be063b2	0.006847822
216	0xbd6c3c69	-0.0576748
217	0xbc7df87f	-0.015501141
218	0xbc73bf14	-0.0148771
219	0xba49e709	-0.00077019684
220	0x3cc606a9	0.024173098
221	0x3daf2379	0.08551688
222	0x3d76d78c	0.060264155
223	0x3627410b	2.49228e-06
224	0x3d831b50	0.06401694
225	0x3dc31e45	0.09527258
226	0x2a029a24	1.1599798e-13
227	0x3d949fbd	0.0725703
228	0x3bafeb8a	0.0053686546
229	0x3c6ff8ae	0.014646692
230	0x3c99089c	0.018680863
231	0xbd34a047	-0.044098165
232	0xbbd32a0d	-0.006444222
233	0xbd71d60d	-0.059042025
234	0xbdc45a6a	-0.095875576
235	0xbd61831c	-0.055056676
236	0x3c53f6bc	0.012937244
237	0xbd4148fa	-0.047188736
238	0x3bef232a	0.007297893
239	0x3dae0bbf	0.08498334
240	0x3ad2e761	0.0016090685
241	0x39e50e83	0.00043689096
242	0x3c0ded55	0.008662541
243	0x3c01135a	0.007878149
244	0x3ca89baf	0.020582048
245	0xbd14d373	-0.036334466
246	0xbd079302	-0.033099182
247	0xbd8de616	-0.06928651
248	0x3cb24349	0.0217606
249	0xa9664d0f	-5.1137097e-14
250	0xb80d795c	-3.3730044e-05
251	0x3c93c14d	0.018036509
252	0x3ab0a7b7	0.0013477717
253	0xbd2158a2	-0.039391167
254	0x3d63fcae	0.055660896
255	0xbcf7d29e	-0.030251797

shared.4.bias f4 [64]
0	0xbd04e16b	-0.032441538
1	0x3d2f9c8f	0.042873915
2	0xbd33ee53	-0.043928456
3	0x3d48293f	0.04886746
4	0xbd8eed42	-0.06978847
5	0xbb69dd58	-0.003568491
6	0xbd45c2b4	-0.048281386
7	0xbd9d56d9	-0.076825805
8	0xbc81eab7	-0.015858991
9	0xbd915c90	-0.07097733
10	0x3d448116	0.04797467
11	0xbd3372b8	-0.043810576
12	0x3d58862a	0.052862324
13	0xbc8415c5	-0.016123662
14	0x3d07fd5f	0.033200618
15	0x3c2360dc	0.009971824
16	0xbd0b0a72	-0.03394551
17	0xbd285c1e	-0.041103475
18	0x398e9b2a	0.00027199957
19	0x3dd5d78d	0.10441504
20	0xbd84ff2d	-0.064939834
21	0xbd044ead	-0.032301594
22	0x3c92933b	0.01789247
23	0x3d3d1d0e	0.046170287
24	0xbd448961	-0.047982577
25	0xbc37264c	-0.011178564
26	0xbc1e8a08	-0.009676464
27	0xbd5d8bf0	-0.054088533
28	0x3cd3f1ed	0.025872195
29	0xbd159b06	-0.036524795
30	0xbcb4a5f4	-0.022051789
31	0x3d87418b	0.06604298
32	0xbdac0485	-0.083992995
33	0x3d8934c4	0.06699517
34	0xbc796c4a	-0.015223572
35	0x3d4a8c3f	0.049450155
36	0x3d1d4b70	0.03840202
37	0x3c4b5538	0.012410454
38	0x3dcb90a7	0.099396996
39	0xbc6f990b	-0.014623891
40	0x3c790d82	0.015200974
41	0x3dbc5ce8	0.09197408
42	0x3c828046	0.015930306
43	0xbd39a1e3	-0.045320403
44	0x3d31fbf5	0.043453176
45	0x3ce27a4e	0.02764621
46	0xbd1bbe8b	-0.038023513
47	0x3dda880e	0.106704816
48	0x3d476aa4	0.048685685
49	0x3d9ae319	0.07562847
50	0x3d8ed11b	0.069734775
51	0x3c0b92d2	0.008518891
52	0xbd2af0be	-0.041733496
53	0xbcdd2592	-0.026995454
54	0xbd16c564	-0.03680934
55	0xbbfcf86e	-0.007720045
56	0x3d4a7d80	0.049436092
57	0xbc7bbaa5	-0.015364324
58	0x3cecd7e1	0.028911533
59	0x3d8abb9e	0.067740664
60	0x3d35d300	0.04439068
61	0xbd353829	-0.04424301
62	0xbd1eb217	-0.03874406
63	0xbb94a2a5	-0.0045359903

shared.5.weight f4 [64]
0	0x3f5aa447	0.8540692
1	0x3f5ebb49	0.87004524
2	0x3f59c8d1	0.85072047
3	0x3f600ea3	0.87522334
4	0x3f5aab1c	0.8541734
5	0x3f5c9f06	0.8618015
6	0x3f5c56dd	0.8607004
7	0x3f5b4b9c	0.85662246
8	0x3f5a7d14	0.85347104
9	0x3f5d6ca8	0.8649392
10	0x3f5a49c8	0.8526883
11	0x3f5bbf51	0.858388
12	0x3f5a131a	0.85185397
13	0x3f5ac091	0.85450083
14	0x3f592687	0.84824413
15	0x3f5b0c44	0.8556559
16	0x3f5deda5	0.8669074
17	0x3f5a87ac	0.8536327
18	0x3f5aa145	0.8540233
19	0x3f5b9008	0.8576665
20	0x3f5b10f8	0.8557277
21	0x3f5d2d85	0.8639758
22	0x3f63ba71	0.8895636
23	0x3f66feb8	0.9023242
24	0x3f5dcc72	0.86640084
25	0x3f5b8d80	0.85762787
26	0x3f5afb06	0.8553928
27	0x3f5de46c	0.8667667
28	0x3f5a2925	0.8521903
29	0x3f59c944	0.8507273
30	0x3f5a99d7	0.8539099
31	0x3f5c6bd3	0.86102027
32	0x3f5baf3e	0.85814273
33	0x3f5dcc66	0.8664001
34	0x3f5ad635	0.85483104
35	0x3f5b420f	0.8564767
36	0x3f5ab031	0.85425097
37	0x3f5b66e4	0.85703874
38	0x3f63e7ba	0.8902546
39	0x3f5b5f7d	0.8569258
40	0x3f5addbd	0.85494596
41	0x3f5c93c1	0.86162955
42	0x3f5e3fc5	0.86816055
43	0x3f5a31e6	0.8523239
44	0x3f64c7fc	0.8936765
45	0x3f607c6e	0.87689865
46	0x3f5ba20b	0.8579413
47	0x3f5a8061	0.8535214
48	0x3f5f51bb	0.87234086
49	0x3f5d5336	0.86455095
50	0x3f599d98	0.85006094
51	0x3f5ad31c	0.8547838
52	0x3f5b4c18	0.85662985
53	0x3f5bb0ce	0.8581666
54	0x3f5bd21b	0.8586747
55	0x3f5ab92f	0.8543882
56	0x3f5ab57e	0.85433185
57	0x3f62ea8d	0.88639146
58	0x3f5b4105	0.85646087
59	0x3f5a8608	0.85360765
60	0x3f5c7c83	0.8612749
61	0x3f5a0472	0.85163033
62	0x3f5e6517	0.86873
63	0x3f5dcb74	0.8663857

shared.5.bias f4 [64]
0	0xb77e969a	-1.5174644e-05
1	0x3be9d64b	0.0071361414
2	0x3c02e187	0.00798834
3	0xb8dc5a2e	-0.00010507215
4	0xbc3cdc49	-0.011527129
5	0x3bd7205d	0.0065651373
6	0x3b8efb64	0.004363464
7	0xbb8e0a25	-0.0043347054
8	0xbc4a4002	-0.012344362
9	0x3b8f0403	0.004364492
10	0xbb0e4104	-0.0021706233
11	0x3c239b45	0.00998575
12	0x3c04cba6	0.008105194
13	0xb99c635f	-0.00029828676
14	0xb9a04ce9	-0.0003057488
15	0x3cfe563d	0.031046981
16	0x3baf0be3	0.005341993
17	0xb6045191	-1.971701e-06
18	0x3c8d61cb	0.017258545
19	0x3c5ed3f0	0.0136003345
20	0xbb8f8a70	-0.0043805167
21	0xbbb17983	-0.0054160967
22	0xbb95d9ca	-0.0045730816
23	0xbbb19391	-0.0054192026
24	0xbc811816	-0.015758555
25	0x3cc07a86	0.023495924
26	0xbbd50ab1	-0.0065015187
27	0x3c3a267a	0.011361713
28	0xbc2d8603	-0.010591033
29	0xb91b89bb	-0.0001483326
30	0xb9ae0554	-0.00033191836
31	0x3bb3580c	0.0054731425
32	0x3b224fe0	0.0024766847
33	0xbb8d7332	-0.004316711
34	0xba838037	-0.0010032718
35	0x3cf1e8eb	0.02953001
36	0x3cae0a17	0.021245046
37	0x3b0e8c01	0.002175093
38	0xbb057858	-0.002036592
39	0x3b147650	0.0022653528
40	0x3cac3038	0.021019086
41	0xba363dae	-0.000695194
42	0xbc82da9d	-0.015973384
43	0xbc0c4b98	-0.008562945
44	0xbbd9e85e	-0.006650015
45	0xbc9b4b9c	-0.018956952
46	0x3befc1d5	0.0073168078
47	0x3b61af0e	0.0034436616
48	0xbc5e91bd	-0.013584551
49	0xbc734332	-0.014847564
50	0x3bb84c00	0.0056242943
51	0x3cc709aa	0.0242966
52	0xbba7b5b2	-0.0051180953
53	0x3ae08fb3	0.001713267
54	0xbbd04293	-0.0063555925
55	0xbca1783e	-0.019710656
56	0x3c685aa4	0.014181767
57	0xbadc7e48	-0.0016822303
58	0x3aa4a04c	0.0012559979
59	0xbc860331	-0.016358944
60	0x3b95b1ad	0.0045682997
61	0x397c657e	0.00024070402
62	0x3c321755	0.010869821
63	0xbc8ac45d	-0.016939336

actor.0.weight f4 [3, 64]
0	0x3c2c447e	0.010514377
1	0xbd89d796	-0.06730573
2	0xba943df1	-0.0011309964
3	0xbc419ec4	-0.011817638
4	0xbcdcd170	-0.026955336
5	0x3bdc61da	0.006725532
6	0x3c1effda	0.009704554
7	0x3b684bd5	0.003544559
8	0xbb80eedd	-0.0039347247
9	0x3c109c27	0.008826292
10	0xbd6014db	-0.05470739
11	0xbd232169	-0.039826784
12	0x39cce7c8	0.00039082603
13	0xbba6f773	-0.005095416
14	0xbb886aef	-0.004163138
15	0xbc440609	-0.0119643295
16	0xbd529b40	-0.05141759
17	0xb49611aa	-2.795253e-07
18	0xbbfd6afc	-0.007733701
19	0xbb96592c	-0.004588267
20	0xbcbfa522	-0.023394171
21	0xbce3ef25	-0.027823994
22	0xbc07e8fa	-0.008295292
23	0xbd0c4be8	-0.034252077
24	0xbc0b65d4	-0.008508164
25	0xbbd744a7	-0.0065694633
26	0x392a1524	0.00016220339
27	0xbd349dc2	-0.044095762
28	0xbbcb2df6	-0.0062005473
29	0x3c9f5f92	0.019454751
30	0x3b7150ed	0.0036821917
31	0xba591e70	-0.00082824286
32	0xbb2f058e	-0.0026706192
33	0xbd2800d9	-0.041016433
34	0xb9c3d3dc	-0.00037351146
35	0x391b66b8	0.00014820218
36	0xbc083eed	-0.008315784
37	0xba93384c	-0.0011231988
38	0xbd04835e	-0.032351844
39	0xbd30e7b6	-0.043189727
40	0xbc1ab63c	-0.009442862
41	0xbd55e412	-0.052219458
42	0xbc225835	-0.0099087255
43	0xbd278747	-0.040900495
44	0xbc335dd2	-0.0109476615
45	0xbc2f9e26	-0.010718858
46	0x3cd24268	0.02566643
47	0xbd818cef	-0.06325709
48	0x3d0f74f9	0.035023663
49	0xbc802354	-0.015641846
50	0x3c9a6a19	0.01884942
51	0xbc8edbf0	-0.017438859
52	0x39df3039	0.00042569803
53	0xbc61d251	-0.0137830535
54	0x3b98b410	0.004660137
55	0x3cf2cdba	0.029639114
56	0xba7b679c	-0.0009590329
57	0x3d39cd5f	0.045361873
58	0xbbea653b	-0.007153181
59	0x3c6ca610	0.014443889
60	0xbd1bdd07	-0.038052585
61	0xbd503723	-0.050833832
62	0xbd60041a	-0.05469141
63	0x3cb7efef	0.022453276
64	0xb9cb6b7c	-0.0003879926
65	0xbc5a2ea6	-0.013316786
66	0x3d7a9a22	0.06118215
67	0x3c275cd9	0.010215008
68	0x3c88ebd8	0.016714022
69	0x3cb6c726	0.022311758
70	0x3ccd4199	0.025055693
71	0x3a3b4711	0.00071440736
72	0x3c46865a	0.012116993
73	0x3cb287ab	0.021793207
74	0x3cd6ca26	0.026219439
75	0x3cf6bca6	0.030119251
76	0x3d297220	0.041368604
77	0x3ce4d581	0.027933838
78	0xbbb7b944	-0.005606802
79	0x3ce42bb5	0.027852872
80	0x3bd99842	0.006640465
81	0xb9d8905d	-0.0004130629
82	0xbb0b9bd2	-0.0021302593
83	0x3cab9410	0.020944625
84	0xbbcdbea3	-0.006278829
85	0xbc4ce54b	-0.01250584
86	0x3d5cae21	0.053877
87	0x3cd296b2	0.025706623
88	0xbd3d01ac	-0.046144173
89	0x3cbac1b4	0.022797443
90	0x3c570238	0.013123088
91	0xbcd9cd87	-0.02658726
92	0x3c081268	0.00830517
93	0x3d98619e	0.07440494
94	0x3b751dce	0.0037401798
95	0x3c840c76	0.016119223
96	0x3cc44570	0.023958892
97	0x3c97953c	0.018503778
98	0x39da7788	0.00041669258
99	0x3d0f1817	0.034935083
100	0x3c1a5f56	0.009422144
101	0x3bc39320	0.0059684664
102	0x3cfa7090	0.030571252
103	0x3c9bfc22	0.019041125
104	0x3cd4b0fc	0.025963299
105	0x3d50ded5	0.05099376
106	0xbd092043	-0.033478033
107	0xbc1be9b9	-0.009516173
108	0xbba70998	-0.005097579
109	0x3b8f8be8	0.004380692
110	0x3d565ae9	0.052332792
111	0xbc9f5dbe	-0.01945388
112	0xbceee669	-0.029162602
113	0xbccf0e97	-0.025275512
114	0xbc494409	-0.012284287
115	0x3c5e02e8	0.013550498
116	0x39da91da	0.00041688868
117	0x3bdd2d1c	0.006749762
118	0x3c431172	0.011906015
119	0x3c2bae52	0.010478573
120	0x3c1d6554	0.009606678
121	0x3d8b3428	0.067970574
122	0x3c94d8e0	0.01816982
123	0x3c9254a5	0.017862627
124	0x3d4ddb40	0.05025792
125	0x3c3704c3	0.011170569
126	0x3b336254	0.002737184
127	0xbb3609b9	-0.0027776791
128	0x36a6e11e	4.9733926e-06
129	0xbd5b01dd	-0.053468574
130	0x3ca33781	0.019923927
131	0xbcfcb6b0	-0.030848831
132	0xbd8c1cb8	-0.06841415
133	0x3c6f72ad	0.014614743
134	0xbba08b76	-0.0048994375
135	0xbce7931f	-0.028268395
136	0xbbbed0cf	-0.005823232
137	0xbc15d28e	-0.009144438
138	0x3cb7519d	0.022377783
139	0xbce5b236	-0.02803908
140	0x3ce370a1	0.027763667
141	0x3c015593	0.007893938
142	0x3b136eeb	0.0022496532
143	0xbc99a834	-0.018756963
144	0x3d2f616f	0.04281753
145	0x3add8d51	0.0016903077
146	0xbc75a04a	-0.014991829
147	0xbcee60a2	-0.029098812
148	0x3c63608e	0.013878001
149	0xbcbaca41	-0.02280152
150	0x3d1633d5	0.036670525
151	0xbcf36880	-0.029712915
152	0xbd2ca5ef	-0.042150434
153	0xbcce8cbe	-0.025213595
154	0x3bd82d48	0.006597195
155	0xbcde9913	-0.0271726
156	0x3c9ed09b	0.01938658
157	0x3d17f76d	0.037101198
158	0xbbf87461	-0.007582233
159	0xbb7e4b76	-0.0038802302
160	0xbc89bba0	-0.0168131
161	0x3bcb95e2	0.006212936
162	0x3ba7e5ea	0.0051238434
163	0xbce600d0	-0.02807656
164	0xbc05f075	-0.008175005
165	0xbc243a1f	-0.010023623
166	0xbc9089cd	-0.017643834
167	0x3c92182b	0.01783379
168	0xbc814be0	-0.01578325
169	0xbd47d66e	-0.04878848
170	0x3c540dc2	0.012942733
171	0xbc897972	-0.016781542
172	0xbcd0dc57	-0.025495691
173	0x3c416af4	0.011805285
174	0x3c4fa344	0.012673203
175	0xbd950218	-0.0727579
176	0x3d06124f	0.032732304
177	0xbbd4ebc2	-0.006497831
178	0xbb2bfeeb	-0.0026244472
179	0xbca9ca9a	-0.02072649
180	0x3ceb67c3	0.028736
181	0xbaf47d4b	-0.0018653063
182	0x3b8dd9cd	0.0043289424
183	0x3ca643c4	0.020295985
184	0x3c06043b	0.00817972
185	0x3d942767	0.07234078
186	0xbce9fc9c	-0.028562836
187	0xbc54d0d6	-0.0129892435
188	0xbc36006d	-0.0111085
189	0xbd8188b0	-0.06324899
190	0xb9aefbd5	-0.00033375496
191	0xbad47898	-0.0016210256

actor.0.bias f4 [3]
0	0x3c0b90b7	0.008518389
1	0xbc3272f4	-0.010891665
2	0xbccadbb8	-0.024762973

critic.0.weight f4 [1, 64]
0	0x3c3b1edb	0.011420931
1	0xbde2f328	-0.110815346
2	0xbd50fd41	-0.05102277
3	0xbda77da5	-0.08178262
4	0xbdade1fe	-0.0849037
5	0xbda2faf5	-0.079580225
6	0x3d99f92d	0.0751823
7	0x3d70b411	0.058765475
8	0xbc0b9b2e	-0.008520884
9	0xbda15394	-0.078772694
10	0xbd283798	-0.041068643
11	0xbdd89220	-0.10574746
12	0xbd838406	-0.06421666
13	0xb988f596	-0.00026122917
14	0xbc37c5ef	-0.011216625
15	0x3d948fd4	0.072539955
16	0xbdc4312c	-0.09579691
17	0xbc3b9c46	-0.011450833
18	0x3d0e30da	0.034714557
19	0x3de46c66	0.11153488
20	0x3d2edff0	0.042694032
21	0x3d86a81d	0.06575034
22	0xbdb6273f	-0.08894204
23	0xbdf9885c	-0.121842116
24	0x3d8acd7d	0.06777475
25	0x3dd03ce1	0.10167862
26	0x3d9f9cc5	0.07793573
27	0xbe0e1959	-0.13876857
28	0xbcfd640d	-0.030931497
29	0xbb15cf7b	-0.0022859264
30	0x3d062bb1	0.03275651
31	0x3d066e03	0.03281976
32	0x3d6e3902	0.058159836
33	0xbd6dc7aa	-0.058051743
34	0x3d1abc01	0.03777695
35	0x3d9eb811	0.07749952
36	0x3d1d88c1	0.038460497
37	0x3d8347ec	0.064102024
38	0xbde76ee8	-0.113004506
39	0xbd6a33ab	-0.05717818
40	0x3d851693	0.06498446
41	0xbd4e4161	-0.05035532
42	0x3d7da3d8	0.06192383
43	0x3a84a84b	0.0010120956
44	0xbdd9c30e	-0.10632907
45	0x3dc427fc	0.09577939
46	0x3c9de279	0.01927303
47	0xbd3e31b1	-0.04643411
48	0x3da8d0f3	0.08242979
49	0x3d6bacb1	0.05753774
50	0xbd53dfa6	-0.05172696
51	0x3d5fb1fa	0.05461309
52	0x3d0f72bc	0.03502153
53	0x3d32a1c4	0.043611303
54	0x3cccd3eb	0.025003394
55	0x3c00775d	0.007840958
56	0x3d0b9c93	0.034084868
57	0xbdea8132	-0.11450423
58	0x3d50ca3e	0.050974123
59	0x3b27bd49	0.0025595
60	0x3c96cb53	0.0184075
61	0xbd463948	-0.04839447
62	0xbddfdadd	-0.10930417
63	0x3d8afcaa	0.06786473

exp_avg f4 [64, 20]
0	0xb9e665eb	-0.00043944953
1	0xb9a91c29	-0.00032255173
2	0xb917c385	-0.00014473319
3	0x38e8546e	0.00011078348
4	0x38465749	4.728817e-05
5	0xb7af11d3	-2.0869926e-05
6	0xb93c6a3c	-0.00017968653
7	0xb9bdeea8	-0.00036226702
8	0xb99f511b	-0.00030387272
9	0xb9c4e894	-0.00037557317
10	0xbbc5ab04	-0.0060323495
11	0xb9c48242	-0.00037481083
12	0xb921091f	-0.00015357554
13	0xb912665f	-0.00013961781
14	0xb8dddeca	-0.00010579599
15	0x39f97f6e	0.00047587923
16	0xba11c448	-0.0005560559
17	0xbc02abc9	-0.007975527
18	0xbc041651	-0.008061961
19	0x3a384b22	0.00070302386
20	0x3a794917	0.00095094874
21	0x362a6fdb	2.5397082e-06
22	0x3a18c606	0.00058278476
23	0x3a16d433	0.0005753666
24	0xb7a21ec0	-1.9326224e-05
25	0xb7676586	-1.3792311e-05
26	0x3736103b	1.0851824e-05
27	0xb6dd67ab	-6.598382e-06
28	0x3a3d2d0c	0.00072164903
29	0x357a3481	9.320866e-07
30	0x3af9a9ce	0.0019047798
31	0xb6fe4bac	-7.5785993e-06
32	0xb903ff5f	-0.00012588267
33	0x33671e6d	5.381155e-08
34	0xb8e4bd26	-0.00010907119
35	0x377102f0	1.4365403e-05
36	0x35edded7	1.7722731e-06
37	0x3a91ae22	0.0011114518
38	0xb85e7e0b	-5.304631e-05
39	0x393336c6	0.00017091175
40	0x37bac6c1	2.226548e-05
41	0xb919de70	-0.00014674081
42	0xba813bee	-0.0009859779
43	0x3a7278fb	0.0009249595
44	0x38dac91a	0.00010432508
45	0xb9ede094	-0.00045371486
46	0x39f2cb7b	0.00046309442
47	0xb9bf24e6	-0.0003645785
48	0x384d624b	4.896735e-05
49	0x387db9c1	6.0492897e-05
50	0x3a0ffe75	0.0005492934
51	0x387d2eac	6.0363367e-05
52	0xb697e268	-4.526508e-06
53	0xba1c722c	-0.00059679407
54	0x38c7e1c6	9.531113e-05
55	0x3900d74c	0.00012287236
56	0x3a7b91f0	0.00095966365
57	0xb9845066	-0.00025236903
58	0xb994d686	-0.00028388592
59	0x3a3aba0f	0.0007123062
60	0xa5248f78	-1.4273342e-16
61	0xba4aa8f9	-0.00077308674
62	0x3883df5d	6.2881714e-05
63	0xb875f46d	-5.864019e-05
64	0xb8d45143	-0.00010124084
65	0x37cc1356	2.4327699e-05
66	0x38befe05	9.107221e-05
67	0x39c8c5d5	0.0003829437
68	0x389d24ae	7.4931755e-05
69	0x397e8460	0.00024272641
70	0x3bde8186	0.0067903427
71	0x3a369cc6	0.000696611
72	0x391878f3	0.00014540907
73	0x3a54ffe7	0.00081252906
74	0x3a81cf99	0.0009903788
75	0xb6da091e	-6.4979677e-06
76	0xb99a9e40	-0.00029491074
77	0x3b05410b	0.0020332958
78	0x3c1241f1	0.0089268545
79	0x397df8ab	0.00024220596
80	0xba7da59e	-0.0009675863
81	0xb6b63850	-5.4305783e-06
82	0xba410aba	-0.0007363964
83	0x3a2d785c	0.0006617361
84	0x380ee2b9	3.406659e-05
85	0xb9ec93d1	-0.0004512356
86	0x377138bc	1.4377929e-05
87	0x37b91fa6	2.2068456e-05
88	0x37ea7298	2.7948336e-05
89	0x3806636d	3.2040687e-05
90	0x39ad6308	0.00033070915
91	0x3a7935f5	0.00095066364
92	0x3a8257b5	0.0009944352
93	0x39aa74fc	0.00032512087
94	0x391d463b	0.0001499885
95	0x3a4222d4	0.00074057025
96	0x3806d25f	3.2144013e-05
97	0x3933a808	0.00017133367
98	0x39f4b96b	0.00046677454
99	0x381a1c70	3.6742946e-05
100	0xb756602b	-1.2777785e-05
101	0x39b09679	0.00033681447
102	0x3a722678	0.00092372997
103	0x3a70235a	0.0009160541
104	0x3a0da060	0.0005402621
105	0xb87689b9	-5.8779235e-05
106	0xb933891d	-0.00017121849
107	0xb8b7efc2	-8.7707784e-05
108	0x3865e58d	5.481164e-05
109	0xb923d011	-0.00015622402
110	0x39dbbbb6	0.0004191079
111	0x38b44b16	8.597055e-05
112	0xb83fbfe3	-4.5716657e-05
113	0xb9a524da	-0.0003149871
114	0xb912e01f	-0.00014007137
115	0x39f45a19	0.00046606435
116	0x39896cc8	0.00026211725
117	0xbaf6f5c7	-0.0018841558
118	0x3a0cb7c0	0.0005367957
119	0x3a6dc548	0.000907023
120	0x38cdd24d	9.814333e-05
121	0x388256e7	6.21507e-05
122	0x3925a510	0.00015797117
123	0xb9feb64c	-0.00048582477
124	0xba3da839	-0.0007234845
125	0x389cbe2e	7.4740834e-05
126	0xba264ea9	-0.0006344119
127	0x399f6e9e	0.0003040926
128	0x3a567f44	0.0008182416
129	0xb9c55926	-0.0003764119
130	0x3c12c750	0.008958653
131	0x3a3e5321	0.0007260312
132	0x3a513a27	0.00079813827
133	0xb88d8d4c	-6.7497225e-05
134	0x376510f0	1.3653407e-05
135	0x39ab99fc	0.0003273039
136	0xb980e823	-0.00024587018
137	0x3b83573c	0.004008202
138	0x3bf31fc7	0.0074195596
139	0x381e79c3	3.7783535e-05
140	0x37b264a1	2.1266113e-05
141	0xb69f6c58	-4.751182e-06
142	0xb68e6178	-4.2432766e-06
143	0x39c52f2b	0.0003760991
144	0xb8bf551a	-9.123441e-05
145	0x3a5d8533	0.0008450329
146	0xb9dfebde	-0.0004270961
147	0x3a06f206	0.00051477586
148	0xb9db7a55	-0.0004186208
149	0x3a38f28f	0.0007055187
150	0x39c917c2	0.00038355408
151	0x38c6d963	9.481867e-05
152	0xb99156c9	-0.00027721215
153	0x385d45d2	5.275553e-05
154	0xba48374e	-0.00076376356
155	0x37baea60	2.2282067e-05
156	0x39661347	0.0002194169
157	0x39f3e024	0.0004651557
158	0x3ae77d5c	0.0017661261
159	0x3a71f5bc	0.00092300377
160	0xa492dbce	-6.368977e-17
161	0xb5abeff8	-1.2810333e-06
162	0x39c1a69b	0.0003693596
163	0x39129444	0.00013978878
164	0x37186624	9.0836875e-06
165	0xb9f3737e	-0.0004643462
166	0xba671587	-0.00088151585
167	0xba2b5753	-0.00065361446
168	0x38c70fd5	9.4920084e-05
169	0x3999949d	0.0002929316
170	0xb9725e6b	-0.00023114092
171	0x37b5488f	2.161067e-05
172	0xb9864a7e	-0.00025613973
173	0xb92c77c6	-0.00016447817
174	0xb7e7b33c	-2.7620808e-05
175	0x3790cf30	1.7262617e-05
176	0xb8b5f828	-8.676975e-05
177	0x3a1b1ffa	0.00059175456
178	0x3a2954da	0.0006459482
179	0x379331cf	1.754696e-05
180	0x3920f3ac	0.00015349564
181	0x36d1f376	6.257028e-06
182	0x38deea91	0.00010629476
183	0x3a204d8e	0.0006115072
184	0xb9c517ce	-0.00037592504
185	0x39cef02d	0.00039470327
186	0x38c4a5b0	9.37687e-05
187	0x39250185	0.00015736192
188	0xb91909f5	-0.00014594926
189	0x3a9c82a4	0.0011940789
190	0xb90f842d	-0.00013686782
191	0x3a8bdbd2	0.001067037
192	0xb9fee3b9	-0.00048616322
193	0xba4da02f	-0.00078439986
194	0x39fa23d7	0.0004771042
195	0xb810282d	-3.4369692e-05
196	0x39331fe2	0.00017082648
197	0x3b71f148	0.0036917496
198	0xbabd803c	-0.0014457772
199	0xba68e9a4	-0.0008884913
200	0x39ee63ea	0.0004546934
201	0x3a4421e8	0.0007481859
202	0xba52bb52	-0.0008038777
203	0xba76dc40	-0.0009416975
204	0xba1a89a1	-0.0005895142
205	0x392017f4	0.00015267712
206	0x397292a4	0.00023133546
207	0xb89dd999	-7.526874e-05
208	0x379ad84f	1.8458957e-05
209	0x39a384aa	0.00031188625
210	0x3814fcf8	3.5521545e-05
211	0x3a9243d9	0.0011159136
212	0x3a7f0a42	0.00097290066
213	0xb9f5513e	-0.00046790572
214	0x3a0be37b	0.00053363264
215	0x3a6ab43e	0.000895325
216	0xba3a10f0	-0.0007097861
217	0xba1b60a2	-0.000592718
218	0xbb09127b	-0.0020915556
219	0xb9c013e7	-0.00036635922
220	0x39732963	0.00023189704
221	0x38087291	3.2531625e-05
222	0xba6fda6b	-0.0009149673
223	0x3a02bc4c	0.0004987165
224	0xb91fb525	-0.00015230903
225	0xb8972788	-7.207604e-05
226	0xb88cd0f5	-6.7146415e-05
227	0x39276c3a	0.00015966679
228	0x3a2e554d	0.0006650284
229	0xba33a877	-0.00068534113
230	0x3aa6309f	0.0012679285
231	0xb99871a4	-0.00029076368
232	0xbaab9ace	-0.00130924
233	0xba5fc952	-0.0008536774
234	0x393c8829	0.00017979801
235	0xba8f3168	-0.0010924758
236	0xba94bfc7	-0.0011348658
237	0xbbe388a4	-0.006943779
238	0x37af8c5f	2.0926991e-05
239	0x3a296b0a	0.00064627884
240	0xba6e03d6	-0.0009079551
241	0xb67aa70d	-3.735014e-06
242	0xba7053ce	-0.00091677613
243	0xb86b712d	-5.613377e-05
244	0x39bcf4a0	0.00036040414
245	0xba22bffb	-0.0006208417
246	0xb8718a23	-5.7587527e-05
247	0x3a30f74e	0.00067507185
248	0x37ebb99d	2.8100616e-05
249	0xb926c352	-0.00015903756
250	0xba2b05d6	-0.0006524002
251	0x3a3e09ba	0.0007249374
252	0x3a56a988	0.0008188714
253	0x3936bf9a	0.0001742825
254	0xb88e9f80	-6.800797e-05
255	0x3a201c9d	0.00061077793

exp_avg_sq f4 [64, 20]
0	0x34b9c7b8	3.460425e-07
1	0x3499496c	2.8551892e-07
2	0x344c91e9	1.9052062e-07
3	0x32f23444	2.8196276e-08
4	0x3221efe8	9.425982e-09
5	0x3209acde	8.013755e-09
6	0x329ff705	1.8622368e-08
7	0x33ca3f96	9.417924e-08
8	0x33467b7c	4.6212776e-08
9	0x33048e1b	3.086289e-08
10	0x36bec62c	5.6855115e-06
11	0x340b1384	1.2952484e-07
12	0x33f8fa03	1.1593877e-07
13	0x33fc8ff5	1.176085e-07
14	0x33fcb612	1.1767783e-07
15	0x3548b19e	7.4764273e-07
16	0x3414b964	1.3851019e-07
17	0x36dbd3aa	6.5513495e-06
18	0x3696eb90	4.4977714e-06
19	0x350c4ca3	5.2265585e-07
20	0x35703c2f	8.9494546e-07
21	0x3248fdf6	1.1699276e-08
22	0x3503ee8e	4.9148446e-07
23	0x35032fab	4.887067e-07
24	0x330d0e00	3.2841854e-08
25	0x32ab01d2	1.9907848e-08
26	0x3317e5a5	3.5366288e-08
27	0x333122bd	4.1242618e-08
28	0x352f8ea8	6.540017e-07
29	0x333f08a6	4.447852e-08
30	0x3736ef37	1.0903742e-05
31	0x3317f627	3.53813e-08
32	0x33fa7f32	1.1664669e-07
33	0x31ec9904	6.8859e-09
34	0x33de8ae2	1.0362943e-07
35	0x3279ac13	1.4532833e-08
36	0x333e6f2c	4.4338933e-08
37	0x3715d58e	8.930814e-06
38	0x3675b952	3.6615716e-06
39	0x3423149d	1.5188057e-07
40	0x3321ff57	3.7717964e-08
41	0x3401bb25	1.2082144e-07
42	0x357bdf6e	9.382992e-07
43	0x3565cb75	8.5605217e-07
44	0x33c407c1	9.128372e-08
45	0x34c96693	3.75138e-07
46	0x34b96d69	3.4538542e-07
47	0x34b26eea	3.3235784e-07
48	0x32e6e809	2.6881041e-08
49	0x32e336f5	2.645127e-08
50	0x35f41799	1.8186284e-06
51	0x331895ed	3.5526615e-08
52	0x337efe38	5.9370194e-08
53	0x35044e43	4.928772e-07
54	0x33ddb87d	1.0324673e-07
55	0x339ad7dc	7.2104484e-08
56	0x3559a894	8.1084113e-07
57	0x36d926c2	6.471616e-06
58	0x355dd058	8.2632096e-07
59	0x35305c3e	6.569934e-07
60	0x2ddd05cf	2.512737e-11
61	0x354e1c97	7.6782584e-07
62	0x332f6a3d	4.0841986e-08
63	0x33b7b022	8.55364e-08
64	0x340479ae	1.2337725e-07
65	0x33cea9ac	9.623486e-08
66	0x3416cafb	1.4043682e-07
67	0x34a06838	2.9878152e-07
68	0x3486c9c8	2.510626e-07
69	0x345919d9	2.0219103e-07
70	0x37b94807	2.2087259e-05
71	0x349d82e0	2.9338753e-07
72	0x33d3da7d	9.865196e-08
73	0x3542de6a	7.2594287e-07
74	0x356870a1	8.659063e-07
75	0x3486ac78	2.5084933e-07
76	0x3527f9cb	6.2575845e-07
77	0x381241b5	3.4870307e-05
78	0x381c3a15	3.724739e-05
79	0x348e5bba	2.65163e-07
80	0x3575f691	9.1628414e-07
81	0x2ecb09d2	9.233116e-11
82	0x352a238a	6.338165e-07
83	0x3514fe9d	5.550481e-07
84	0x3339a9a7	4.3227967e-08
85	0x34c0870f	3.5861055e-07
86	0x3101382e	1.8803905e-09
87	0x3122eb18	2.3707738e-09
88	0x31b210ed	5.182406e-09
89	0x32157df0	8.701576e-09
90	0x351689fb	5.608014e-07
91	0x356b8f24	8.775262e-07
92	0x357b1410	9.353398e-07
93	0x3486f40e	2.5137018e-07
94	0x33ff537a	1.1889547e-07
95	0x35276dfd	6.23724e-07
96	0x321d1d3d	9.145251e-09
97	0x353641fa	6.789629e-07
98	0x34eea319	4.4449624e-07
99	0x334bb8fd	4.7432867e-08
100	0x32fbe363	2.932365e-08
101	0x3497bde6	2.826411e-07
102	0x356e4fba	8.8777927e-07
103	0x356ece1a	8.8961826e-07
104	0x35059d61	4.977538e-07
105	0x32b05231	2.0526473e-08
106	0x33def7e8	1.03827745e-07
107	0x3351e668	4.8871158e-08
108	0x3410310b	1.3428887e-07
109	0x33b94660	8.627535e-08
110	0x363b7469	2.793293e-06
111	0x3439f0c9	1.7317065e-07
112	0x32aabb52	1.9875788e-08
113	0x3482b40e	2.4345394e-07
114	0x343e4d9d	1.7723364e-07
115	0x34e6a5be	4.2961432e-07
116	0x34aae50a	3.1831615e-07
117	0x371e5777	9.437898e-06
118	0x368ea311	4.250913e-06
119	0x3563f1d2	8.4915985e-07
120	0x33c1c203	9.0225534e-08
121	0x33e12634	1.0484328e-07
122	0x33bbe019	8.748629e-08
123	0x353b70d5	6.982712e-07
124	0x358c9eec	1.0477065e-06
125	0x34804cc3	2.389771e-07
126	0x357d7e35	9.44335e-07
127	0x3495335a	2.7790776e-07
128	0x3524d65c	6.1406695e-07
129	0x355f0357	8.3078834e-07
130	0x38798e68	5.9498852e-05
131	0x34f523cf	4.566086e-07
132	0x35342116	6.710337e-07
133	0x339654c0	7.000335e-08
134	0x34494673	1.8745213e-07
135	0x34910d36	2.7017967e-07
136	0x353bde08	6.9986027e-07
137	0x38906ff1	6.887306e-05
138	0x3801a14f	3.0906227e-05
139	0x34fb8a74	4.685313e-07
140	0x331e75cf	3.6894388e-08
141	0x326f5358	1.3930581e-08
142	0x322da570	1.01075415e-08
143	0x349b43be	2.892029e-07
144	0x33c588ad	9.1983885e-08
145	0x354b9db5	7.5852887e-07
146	0x34bbdc29	3.4991652e-07
147	0x34d7743e	4.0131448e-07
148	0x34bd419e	3.5251736e-07
149	0x351d94da	5.8703665e-07
150	0x35bd3edb	1.4099891e-06
151	0x33ad13e3	8.0595576e-08
152	0x3471f11b	2.2532588e-07
153	0x3380f806	6.00558e-08
154	0x35374e27	6.828654e-07
155	0x32305afe	1.02652375e-08
156	0x342ecf25	1.6280372e-07
157	0x35d46f55	1.5827633e-06
158	0x3685e097	3.9898546e-06
159	0x3567b2c5	8.631435e-07
160	0x2d1c219a	8.875034e-12
161	0x328a35cb	1.6089777e-08
162	0x349c0e8c	2.9067849e-07
163	0x33f5922d	1.1435291e-07
164	0x3172245a	3.5236298e-09
165	0x34c80f05	3.726383e-07
166	0x355c114e	8.198157e-07
167	0x3518e1e5	5.695313e-07
168	0x33a065da	7.469107e-08
169	0x345f2b31	2.0784206e-07
170	0x3559684b	8.0990566e-07
171	0x3257cb1a	1.2560827e-08
172	0x34635bae	2.1174375e-07
173	0x341037b8	1.3431315e-07
174	0x33606e37	5.2254304e-08
175	0x30b2be12	1.3005226e-09
176	0x33dc6193	1.0262297e-07
177	0x356bd6da	8.785697e-07
178	0x3555ae05	7.9601915e-07
179	0x31826ff1	3.7962242e-09
180	0x34084165	1.2689777e-07
181	0x33d6f78a	1.00101786e-07
182	0x334158fd	4.501725e-08
183	0x34a35fff	3.0430962e-07
184	0x35324b7d	6.642002e-07
185	0x34095ba2	1.2792455e-07
186	0x3492692a	2.7271136e-07
187	0x341ff0c4	1.4895619e-07
188	0x34ecef93	4.413274e-07
189	0x3572ceb9	9.0452846e-07
190	0x3827b0f1	3.9980692e-05
191	0x358ddc3e	1.0569418e-06
192	0x350fc663	5.356034e-07
193	0x353a2655	6.934618e-07
194	0x350887aa	5.0861365e-07
195	0x33cf2408	9.645743e-08
196	0x34b34d83	3.3397745e-07
197	0x382e2a4e	4.1524232e-05
198	0x380178df	3.0868567e-05
199	0x34337e70	1.6716672e-07
200	0x34c0f69d	3.5942222e-07
201	0x3519b071	5.72537e-07
202	0x3553fbbb	7.896994e-07
203	0x35847e87	9.871591e-07
204	0x3526b02e	6.2096194e-07
205	0x343c0fa9	1.7514562e-07
206	0x3482ef21	2.4388376e-07
207	0x34a7f442	3.1283895e-07
208	0x349b89ca	2.8971255e-07
209	0x348d2691	2.6291357e-07
210	0x37a42879	1.956917e-05
211	0x3574b85c	9.116536e-07
212	0x35519cca	7.8086725e-07
213	0x34c7449c	3.7116558e-07
214	0x35256683	6.1616464e-07
215	0x3534c5a2	6.734282e-07
216	0x358ea84a	1.0628803e-06
217	0x382e4c4d	4.1555893e-05
218	0x38151f91	3.5553767e-05
219	0x34e2d6d6	4.2252094e-07
220	0x3442b57e	1.8133684e-07
221	0x32292058	9.844449e-09
222	0x3581c90e	9.669764e-07
223	0x34d2a2d2	3.9234016e-07
224	0x34348c7d	1.6814916e-07
225	0x33d03594	9.6955006e-08
226	0x33af62de	8.1670564e-08
227	0x3494a2ac	2.7685508e-07
228	0x357a52c5	9.3252703e-07
229	0x3477fb00	2.3094981e-07
230	0x37a01146	1.908153e-05
231	0x33dac5a1	1.01873646e-07
232	0x3583788a	9.795342e-07
233	0x354fed83	7.7459134e-07
234	0x3368b9ef	5.4185815e-08
235	0x3516daf6	5.6197985e-07
236	0x3528be57	6.286186e-07
237	0x377942d7	1.4857119e-05
238	0x379738cb	1.8027049e-05
239	0x33ca3963	9.4167966e-08
240	0x3561b4d7	8.408219e-07
241	0x31440fb3	2.8530678e-09
242	0x3563181d	8.459918e-07
243	0x338dac39	6.597151e-08
244	0x349417c7	2.7584449e-07
245	0x350bf4eb	5.213794e-07
246	0x3397c34a	7.067008e-08
247	0x35164259	5.5975903e-07
248	0x322c9247	1.0044977e-08
249	0x34204e9e	1.4929762e-07
250	0x35a8929b	1.2559643e-06
251	0x35238588	6.0916545e-07
252	0x3540b291	7.178542e-07
253	0x341761bb	1.4098525e-07
254	0x33a84e74	7.83738e-08
255	0x3502fad6	4.879379e-07

exp_avg f4 [64]
0	0xbc3afe5b	-0.011413182
1	0xb8a8d560	-8.0506084e-05
2	0xba1a9495	-0.0005896774
3	0x3c3adee6	0.011405682
4	0xba3cd010	-0.00072026346
5	0x3a45d0d5	0.0007546072
6	0x3c39a7ad	0.011331481
7	0xba7620fb	-0.000938907
8	0x39e36e72	0.00043379102
9	0xbb4be38d	-0.0031110973
10	0xbafd8f89	-0.0019345145
11	0x3b65517d	0.0034991198
12	0x3a3d8439	0.00072294805
13	0xbb8a9a5f	-0.0042298282
14	0x3b9d180d	0.004794127
15	0xba194aeb	-0.00058476505
16	0xb9a572e9	-0.00031556867
17	0x391c9a02	0.00014934692
18	0xbb0d7a54	-0.0021587806
19	0x3be16951	0.00687901
20	0x3ae48f93	0.0017437808
21	0xbbc88554	-0.0061194096
22	0x39093380	0.00013084523
23	0xba2dc347	-0.0006628525
24	0x3c7a642c	0.015282672
25	0xbb4c0713	-0.0031132146
26	0x3b1bd526	0.002377817
27	0xb9cd0b7e	-0.0003910921
28	0x3aeffc8c	0.0018309518
29	0xbc6e5839	-0.014547401
30	0xbcb1f574	-0.021723486
31	0xba4f29e8	-0.0007902668
32	0x3b7b723e	0.0038367654
33	0xbb847e54	-0.00404338
34	0xba56d667	-0.00081954006
35	0x3c71dec5	0.014762585
36	0xb98edc41	-0.00027248453
37	0xb8b02396	-8.3989624e-05
38	0xbabcb32f	-0.0014396663
39	0xbb7b7fc7	-0.0038375722
40	0x3b783a49	0.0037876538
41	0xbc700336	-0.014649203
42	0x3bf69e0e	0.007526166
43	0x3a9d9333	0.0012022018
44	0xb7cd863e	-2.4500416e-05
45	0xbb247236	-0.002509249
46	0x3a4d5597	0.0007832883
47	0x3bdcc211	0.0067370017
48	0x38cef26e	9.8680015e-05
49	0xb8c3a9a4	-9.3299226e-05
50	0xba88f8a3	-0.0010450076
51	0xba33d316	-0.00068597624
52	0x3c25acca	0.010111997
53	0xbbcfc9b9	-0.006341186
54	0x3c148bac	0.0090665035
55	0x3aad33a8	0.0013214247
56	0x37b040aa	2.1010947e-05
57	0xb9c29fab	-0.00037121525
58	0x39ecc08c	0.00045156886
59	0xb8b7a4c8	-8.756813e-05
60	0xba3e8987	-0.0007268418
61	0xb9f8fd9f	-0.00047491209
62	0xbbb7c7ee	-0.0056085503
63	0x3b930fdb	0.004487974

exp_avg_sq f4 [64]
0	0x374ddbea	1.2270155e-05
1	0x37920610	1.740738e-05
2	0x3716bd6a	8.984798e-06
3	0x38d72883	0.00010259545
4	0x360f6210	2.136574e-06
5	0x379f7580	1.9008992e-05
6	0x39371cac	0.00017462921
7	0x369aef2f	4.6174023e-06
8	0x35c3d639	1.4590979e-06
9	0x38f9294d	0.00011880938
10	0x38e15f45	0.000107465814
11	0x3857054e	5.1264935e-05
12	0x35bcaf5e	1.405813e-06
13	0x394889c6	0.00019124811
14	0x387da6a6	6.0475104e-05
15	0x36019b61	1.931294e-06
16	0x35dc2f52	1.6405049e-06
17	0x36f8a30b	7.4099567e-06
18	0x388b114d	6.631259e-05
19	0x38869135	6.416665e-05
20	0x389dcea1	7.524831e-05
21	0x384d9911	4.9018363e-05
22	0x364e1720	3.0709853e-06
23	0x360d6d31	2.1074195e-06
24	0x38bb0272	8.91731e-05
25	0x37307988	1.0518714e-05
26	0x388ff212	6.8638605e-05
27	0x35e6c3d9	1.7193335e-06
28	0x3764069b	1.3591397e-05
29	0x39162eb9	0.0001432252
30	0x39b81842	0.00035113288
31	0x3615e8f4	2.2338327e-06
32	0x37d2736a	2.5087695e-05
33	0x39240f00	0.00015645847
34	0x361d1587	2.3407354e-06
35	0x392abcfd	0.00016282867
36	0x36e644b3	6.862532e-06
37	0x35e76e6f	1.7242982e-06
38	0x38eb8231	0.00011229923
39	0x391159ba	0.00013861703
40	0x38725030	5.7771977e-05
41	0x387c91e8	6.0217368e-05
42	0x385b03ab	5.2217085e-05
43	0x385d80ee	5.281058e-05
44	0x35c12ed2	1.4393247e-06
45	0x3856fd7f	5.1257663e-05
46	0x36ccfc01	6.109011e-06
47	0x385d707e	5.2795272e-05
48	0x35a85924	1.2542919e-06
49	0x35b87772	1.3743831e-06
50	0x37b3e7f4	2.1446474e-05
51	0x3608a2b2	2.036028e-06
52	0x3935079d	0.00017264341
53	0x374c919d	1.2193251e-05
54	0x38865787	6.405921e-05
55	0x382bc45e	4.095246e-05
56	0x35b9103e	1.3788301e-06
57	0x35eb306a	1.7522955e-06
58	0x35a834dc	1.253236e-06
59	0x370d11d8	8.4084095e-06
60	0x36250acf	2.4593207e-06
61	0x398b247a	0.00026539323
62	0x39328170	0.00017023622
63	0x38b0b7a6	8.426541e-05
