models/AMZN.pth (torch, 84074 bytes, 33 tensors)

shared.0.weight f4 [64, 20]
000000 17 a1 73 34 71 45 04 be 64 d1 ad bc 54 f1 c1 3c
       2.2689743e-07 -0.12917115 -0.02121801 0.023674645
000010 0e 60 27 3d 5b 12 c9 bd b0 5b 75 bd 82 f5 fe bd
       0.04086309 -0.09817954 -0.059901893 -0.12449171
000020 3f ec 19 3e b9 c9 03 be 8f 8a d2 ba 43 de f7 bb
       0.15031527 -0.1286992 -0.0016063022 -0.0075643375
000030 2a 03 6c bc 88 9f 8d bd 20 19 fa 3d 5f 82 2a bd
       -0.014405051 -0.06915194 0.122118235 -0.041628238
000040 56 9b 19 be 7b 08 94 bd 04 68 b3 3c b6 0e 90 bd
       -0.15000662 -0.0722818 0.021900184 -0.07034056
000050 68 93 14 3e b7 d0 19 3e 9f 3e 55 3a e6 20 99 39
       0.14509356 0.15021025 0.00081346364 0.00029206945
000060 a9 67 1b bc 8a df 2b 3d b5 b8 7a bb 12 2e 93 bb
       -0.009485164 0.04196123 -0.0038257067 -0.004491576
000070 63 d7 82 bd 76 5e a8 bc 4f 9f 46 bd 99 ad e6 3c
       -0.06388738 -0.020552855 -0.048491772 0.02815895
000080 47 a7 0a 3a 8c 36 4c 3c 46 20 e1 37 7a 83 9b 3d
       0.00052892085 0.012464177 2.6837119e-05 0.075934365
000090 47 71 4e 3b af 28 ab bd ba eb f1 3c 13 79 99 bb
       0.0031500624 -0.08357369 0.029531348 -0.0046836226
0000a0 be a3 e6 bd 94 96 23 bd ea db 0c 3e 31 f2 84 3d
       -0.112617 -0.039938524 0.13755766 0.06491507
0000b0 43 28 d9 3d b5 e1 0e 3e 66 77 b9 bd 29 80 08 3e
       0.106033824 0.13953288 -0.090559766 0.13330139
0000c0 72 81 05 be e3 0b f2 3d a4 b5 0a 3d 27 7a 8c 3d
       -0.1303766 0.118186735 0.033864632 0.06859236
0000d0 4e 3e ec bd 8d c2 b6 3c 18 4e 42 3d b5 00 94 3d
       -0.11535321 0.022309566 0.047437757 0.07226697
0000e0 20 2f 63 3d 3f f8 e7 3d 89 53 a9 bd 57 06 7e 3b
       0.055464864 0.11326646 -0.08267886 0.0038761103
0000f0 79 ad cd 3d 44 37 bf 3a fe 58 81 bd b6 14 d5 bd
       0.10042853 0.0014588614 -0.06315802 -0.10404341
000100 e6 dc 95 3c 83 50 de 3d 70 63 e3 39 40 32 16 3e
       0.01829381 0.108552 0.000433709 0.14667606
000110 27 e2 af 3a cd 4c 00 be 04 3b 0d 3e f6 78 9f 3b
       0.0013418839 -0.12529297 0.13792044 0.0048667146
000120 9a 88 ee bd 78 8d 09 3e f9 42 85 bd ba 36 1f 3d
       -0.116471484 0.13432872 -0.06506915 0.03887055
000130 42 85 a4 bd ff 6b 08 3e 05 78 27 3d d9 2d 3e 3b
       -0.080332294 0.13322447 0.040885944 0.0029019027
000140 c1 e5 8a 3d bf 54 8c 3a 5e a0 a1 3d cd 24 d4 3d
       0.06782103 0.0010706409 0.07891916 0.10358582
000150 e9 2c b2 3d fa 4d 05 be 0f bb 15 be c7 f5 17 3e
       0.08699972 -0.13018027 -0.14622138 0.1483985
000160 77 d1 b6 3b 30 7b c2 bd 0b 33 cb bc 91 b0 b6 3d
       0.0055791694 -0.094961524 -0.024804613 0.08920396
000170 09 25 e7 bb e1 92 de 3d 0c 0c 07 3e 23 9d 71 3b
       -0.0070539755 0.10867859 0.1318819 0.0036867342
000180 c6 35 c1 3d 61 80 1f 3e 33 92 d1 bd e3 d7 aa ba
       0.094340846 0.15576316 -0.102329634 -0.001303431
000190 0a db 8e 3c db c3 c7 3c bd fd a0 3d 66 3b 09 be
       0.01743843 0.024385383 0.07860897 -0.13401565
0001a0 c2 5a 55 bd 84 d7 cf 3d 08 28 c1 3d c4 50 5e b9
       -0.052088507 0.10148528 0.094314635 -0.00021201657
0001b0 13 38 82 3a f0 9e 8f bd 91 d0 ee bd ef ce f2 3d
       0.0009934924 -0.07012737 -0.11660875 0.11855876
0001c0 6d e7 01 3e c1 b7 16 bd 0e fb af ba de b2 02 3e
       0.12685938 -0.036796335 -0.001342626 0.12763545
0001d0 39 c2 83 bd 7e bc 9a bd 2c 24 19 3c 1b 24 01 3e
       -0.064335294 -0.07555483 0.009347003 0.1261143
0001e0 f1 6a 71 b5 b3 12 ca 3a 1c a4 1a 3e 98 f7 0a 3b
       -8.9935116e-07 0.001541695 0.15101665 0.0021204706
0001f0 4a 67 ef 3d 7a 8f 02 3e 3f a0 ad 3d ca b0 56 3b
       0.11689623 0.12750044 0.0847783 0.0032759183
000200 61 cd a3 3d d0 02 ed 3d 4e 32 f9 3d c5 3f 2d bd
       0.07998157 0.11572802 0.12167798 -0.042297143
000210 79 56 ea bd ec 85 7c bd 38 6c 58 bd 40 04 b0 3d
       -0.114422746 -0.061651155 -0.05283758 0.085945606
000220 09 f7 86 3b 72 2c 1e 3e d0 47 bc bc a1 31 1f 3c
       0.0041188044 0.15446642 -0.022983462 0.009716422
000230 6f 95 e4 bd 08 67 7a ba 60 1f 10 3e c5 16 b4 bb
       -0.11161315 -0.0009552096 0.14074469 -0.0054958784
000240 16 60 26 b9 e7 8a 78 bd 68 ae 18 3e 07 fe 13 3e
       -0.00015866788 -0.060679343 0.1491028 0.14452372
000250 60 bd 1b bc 79 af 17 be 82 65 8b bb 0f b7 1d 3d
       -0.0095056 -0.14813031 -0.004254044 0.038504656
000260 20 21 8a 3d 58 df 55 b3 2f f6 00 be e8 27 2a bd
       0.06744599 -4.9796057e-08 -0.12593912 -0.041541964
000270 e4 1e 6f bb 34 78 e5 3d 60 82 6f 3d 2e d4 af 3d
       -0.0036486918 0.112045676 0.058473945 0.08585392
000280 0f 8a 12 3e 6e 9e ca bc 27 b4 cc 3c 40 7f be 3d
       0.14310478 -0.024733748 0.024988247 0.09301615
000290 4a 1b 1c be 8f 36 94 3b 86 61 86 3d 07 03 c5 bd
       -0.15244785 0.0045231055 0.0656157 -0.09619718
0002a0 06 ac e7 bd fb 73 59 3b f9 d5 1d 3e b3 85 30 bd
       -0.11312108 0.0033180702 0.15413655 -0.043096256
0002b0 4c a5 43 3d 17 6c 1a 37 3b 6b 02 bc 98 48 f5 bd
       0.04776506 9.204282e-06 -0.007960136 -0.11976737
0002c0 43 81 4c bc 3a 58 1d be 69 44 a2 3d 9c 52 5e 3d
       -0.01248199 -0.15365687 0.079232045 0.054278
0002d0 56 62 e4 3d 81 bf 9e 3d f9 d3 9a bd 9a 29 9e bc
       0.111515686 0.0775137 -0.07559962 -0.019306947
0002e0 fd f2 e2 3c 11 1a ea bd 0b 5b 85 bc 62 08 97 3d
       0.027703756 -0.11430753 -0.016278764 0.07374646
0002f0 15 01 ee 3d a2 7f 93 bc b9 9d 0b 3e 0d f1 10 bd
       0.116213 -0.018005196 0.13634385 -0.035386134
000300 17 20 a3 ba a4 ef cb 3d dd 1a ea 3d 2d 3a b1 3d
       -0.0012445477 0.09957817 0.11430905 0.08653674
000310 b8 c4 4a 3b d0 b1 96 bd 32 64 eb bd c9 db af 3c
       0.0030940007 -0.07358134 -0.1149372 0.021467106
000320 9e 33 6a b3 40 1a 6c 3c 94 d6 5a 3c 9a 4e 08 3a
       -5.4529316e-08 0.014410555 0.0133568235 0.0005199701
000330 90 b0 34 bd 2e c1 00 bd 52 32 bd bd 79 9d 6f 3d
       -0.044113696 -0.03143423 -0.092381135 0.058499787
000340 a9 04 2b bc 4c 90 5e bc a8 bd f0 bd 66 65 a9 bd
       -0.010438123 -0.013584208 -0.11754924 -0.08271293
000350 d7 a5 5f bd 4e 1c fe bd 30 0f cd 3c 89 b1 09 be
       -0.054601517 -0.124077424 0.025031656 -0.1344663
000360 45 14 41 3d b8 68 5e be 15 0b 40 3e 9a be 6e bd
       0.04713847 -0.21719635 0.18754227 -0.05828724
000370 ff 7f 24 3a a9 ce 25 ba bd 3c 84 bd 5c 34 d2 3d
       0.00062751764 -0.0006325045 -0.064568974 0.10263893
000380 0e e8 17 bd 86 35 b4 bd f3 0d ce 3b e3 2e de 3d
       -0.03708654 -0.08799271 0.006288284 0.10848787
000390 85 f3 07 be 2e ae 69 bc 59 2a b4 bb 63 2c fe 3c
       -0.13276489 -0.014262719 -0.0054982123 0.031027025
0003a0 1b 4c 10 3d 46 af 13 3d 5e aa 26 bd 4c 98 73 3d
       0.03522883 0.036055826 -0.04068982 0.059471413
0003b0 24 e6 b6 3d 85 46 3f be 4c 0c 84 bd 29 10 be bb
       0.089306146 -0.18679245 -0.06447658 -0.0058002663
0003c0 e5 77 26 3c 23 56 60 3d 2f 14 16 3c a6 84 ce 3d
       0.010160421 0.054769646 0.009160086 0.100838944
0003d0 df 99 89 bd df ce a8 bd 37 d8 a5 bd 47 4b 03 bd
       -0.06718802 -0.082425825 -0.0809788 -0.032054212
0003e0 da 88 2a be 46 ba 95 bd f0 88 3a be 4f fa 50 bd
       -0.16653767 -0.073109195 -0.182163 -0.051019963
0003f0 c9 2f 0b be 3e c1 87 bd 86 22 1f be e3 ce cd 3d
       -0.13592447 -0.06628655 -0.15540513 0.10049226

shared.0.bias f4 [64]
000000 ce 87 6c 3d 6b 89 db bd 0f 4f 07 3e fe 9b e5 bd
       0.0577467 -0.1071957 0.13213752 -0.11211394
000010 d6 eb de bd 33 a5 11 be d9 2e 32 be 42 da d2 3b
       -0.10884826 -0.14223175 -0.17400683 0.0064347098
000020 52 e4 4b bd 7f dd 0d be 56 75 1b bd cb 97 ab bc
       -0.04977829 -0.13854025 -0.037953697 -0.020946404
000030 27 e1 7d 3e d3 9b 98 3d 09 a2 0d bd 5f ea c6 bd
       0.2479292 0.07451596 -0.034578357 -0.097126715
000040 6e fe 0d be d3 75 e0 3b 0a 44 b6 bd 58 ef cc bd
       -0.13866588 0.0068499832 -0.08899696 -0.10006589
000050 30 1b 30 be 96 f5 31 3e 3f c2 5b 3e 1d 33 58 bd
       -0.17197871 0.1737884 0.21460818 -0.05278312
000060 3f 69 b9 3d 86 b8 f5 bd a3 1f 2a 3e 1c dd 0b 3e
       0.09053277 -0.11998086 0.16613631 0.13658565
000070 ca a2 b9 3c 38 fa 5a bd e7 af c5 bd b8 e1 70 bd
       0.022660632 -0.053461283 -0.09652691 -0.058809012
000080 f4 92 69 bd 9c 0b e1 3c fd 41 59 bd 1d 9a da bc
       -0.05702491 0.027471356 -0.053041447 -0.026684815
000090 c5 41 14 3e 08 3b 61 3e 08 37 b4 bd da cc db bd
       0.14478214 0.21995175 -0.08799559 -0.10732432
0000a0 41 0b 21 be b8 36 af bc 65 37 22 be 4a 7d 3d 3d
       -0.1572695 -0.021388397 -0.15841444 0.046262063
0000b0 f9 60 ae 3d 8b 58 25 3e ef 76 cf 3d 2e 3e 17 3e
       0.0851459 0.16147058 0.10130107 0.14769813
0000c0 23 af 2b 3d 5e b5 02 be 07 e5 0f be fa 1b ca 3c
       0.04191507 -0.12764499 -0.14052211 0.024671543
0000d0 a4 5c 3a bd 68 48 ef 3d be bd 47 3e d0 c2 7b 3c
       -0.045498505 0.11683732 0.19505975 0.015366271
0000e0 cc 3f 35 3e a4 ea 90 bd c2 46 12 3d c8 eb dc bd
       0.17700118 -0.07076004 0.03571201 -0.10787159
0000f0 7a 39 b1 bd 32 ea 19 be 71 d6 27 3d 82 c8 a3 3d
       -0.08653541 -0.15030745 0.04097599 0.07997228

shared.1.weight f4 [64]
000000 a6 cd 6c 3f 4c bc 6c 3f 5c a7 6e 3f e0 a8 6c 3f
       0.92501295 0.9247482 0.9322412 0.9244518
000010 b5 bf 6c 3f 12 bc 6c 3f f1 c3 6c 3f 07 c2 6c 3f
       0.9248002 0.9247447 0.9248648 0.9248356
000020 9b b5 6c 3f f2 b9 6c 3f 4f 8b 6c 3f aa ba 6c 3f
       0.9246461 0.9247123 0.9240007 0.92472327
000030 11 d0 6c 3f fd a0 6c 3f 5c ac 6c 3f 3a e8 6c 3f
       0.92504984 0.9243315 0.924505 0.9254185
000040 59 e4 6c 3f dc ba 6c 3f 4e e4 6c 3f 7b 10 6d 3f
       0.9253593 0.92472625 0.92535865 0.9260327
000050 64 ad 6c 3f ff 16 6d 3f 0c cc 6d 3f 4a bc 6c 3f
       0.92452073 0.92613214 0.92889476 0.92474806
000060 73 0b 6d 3f 0f bc 6c 3f 99 8a 6d 3f f4 2c 6d 3f
       0.92595595 0.92474455 0.9278961 0.9264672
000070 b0 c1 6c 3f 2a 54 6e 3f e7 54 6d 3f 1e bd 6c 3f
       0.92483044 0.93097174 0.92707676 0.9247607
000080 5a bf 6c 3f 48 f6 6c 3f 8f c0 6c 3f bf cd 6c 3f
       0.9247948 0.92563295 0.9248132 0.92501444
000090 4d a5 6d 3f 03 e1 6c 3f 0f be 6c 3f c1 bd 6c 3f
       0.92830354 0.9253084 0.92477506 0.9247704
0000a0 7f bc 6c 3f b5 5e 6d 3f 07 bc 6c 3f 6e 3b 6d 3f
       0.9247512 0.92722636 0.92474407 0.9266881
0000b0 15 b3 6c 3f d8 e8 6c 3f 04 a5 6d 3f ba 2a 6e 3f
       0.9246076 0.9254279 0.9282992 0.93033946
0000c0 b9 ca 6c 3f 12 bc 6c 3f 12 bc 6c 3f df 1b 6d 3f
       0.9249683 0.9247447 0.9247447 0.9262065
0000d0 12 bc 6c 3f af 98 6d 3f bf 1f 6e 3f 8a b7 6d 3f
       0.9247447 0.928111 0.9301719 0.92858183
0000e0 31 38 6c 3f 79 bc 6c 3f b6 dd 70 3f 1d cc 6c 3f
       0.9227324 0.92475086 0.94088304 0.9249895
0000f0 b7 b9 6c 3f 12 bc 6c 3f fd 63 6c 3f fe e9 6c 3f
       0.9247088 0.9247447 0.9234007 0.92544544

shared.1.bias f4 [64]
000000 ad 0e 86 3c 39 b7 78 b5 fe bf c5 bc 4a 2d a2 3a
       0.01636442 -9.2653823e-07 -0.0241394 0.0012373116
000010 d6 92 ce 3b 00 00 00 00 a5 d8 93 3b a2 d4 66 bc
       0.0063041253 0.0 0.00451191 -0.014088782
000020 ff 7b b4 3b 59 55 23 3b 21 a8 45 3c 90 f3 85 3b
       0.0055079455 0.0024922697 0.012064011 0.004087873
000030 33 31 eb 3c 05 1a c0 3c a0 c6 71 3c 93 97 08 bc
       0.028709983 0.023449907 0.014756829 -0.008336919
000040 1e 69 89 3b 68 1e 74 bb 09 a8 34 bc 28 b1 5b bc
       0.004193439 -0.003724957 -0.011026391 -0.013408937
000050 39 c4 c5 3b 09 d7 89 3c 37 cf 92 3c e5 ad 85 3a
       0.0060353545 0.01682617 0.017921073 0.0010198919
000060 c0 82 65 bb 8f b7 0e 32 9a b5 8f 3b 7c 8e 78 bb
       -0.003502056 8.307224e-09 0.0043856623 -0.0037926724
000070 34 4a 7f bc d6 13 8b bc d4 a7 23 3c 03 04 79 b9
       -0.015581656 -0.016977232 0.009988744 -0.00023747985
000080 1a fa fd 3b 34 c5 85 bc 58 4d 99 3b a7 e5 5e bc
       0.0077507617 -0.016329385 0.0046784095 -0.013604558
000090 a0 61 a2 3c 6d 16 b7 3c a3 f1 b7 3a ce 3f 04 3c
       0.019821942 0.02234956 0.0014033805 0.008071853
0000a0 2b 9a b7 35 22 73 28 bc c0 4e 12 32 32 cc a6 3c
       1.3679431e-06 -0.010281356 8.516224e-09 0.02036104
0000b0 35 0d 64 3c e2 7f 08 3c 5d da ac bc 2a 8e be bc
       0.013919164 0.008331271 -0.021100217 -0.023261148
0000c0 53 fb 78 bb 00 00 00 00 00 00 00 00 b4 0a 65 bc
       -0.0037991598 0.0 0.0 -0.013979603
0000d0 00 00 00 00 92 06 21 3c 6b 87 bc 3c e2 2a 74 bc
       0.0 0.009828227 0.023013791 -0.014902802
0000e0 94 c3 1c 3c a0 ce d7 b8 73 c0 b7 bc fc 5e 82 3b
       0.009568114 -0.00010290486 -0.022430634 0.003978608
0000f0 f6 fb 82 3a 00 00 00 00 c0 1d 8b bb 47 64 62 bc
       0.0009993303 0.0 -0.00424549 -0.013817853

shared.4.weight f4 [64, 64]
000000 f9 94 f9 3d 80 b1 61 bd de 33 ec bb 8f 3e 1f bd
       0.121866174 -0.055100918 -0.0072083315 -0.03887802
000010 0a de 45 3d 98 2d 06 bc 2d 48 10 bd 10 b6 f3 3d
       0.048307456 -0.008189581 -0.035225082 0.1189996
000020 59 9d 06 bd 72 d2 5a 3d db b2 84 3d 38 3a b3 3d
       -0.032864902 0.053423353 0.064794265 0.08751339
000030 04 95 d8 bc 23 a3 2c 3d 4f 6e 43 3d 40 b6 93 3d
       -0.026438244 0.042147767 0.04771262 0.07212496
000040 09 ca 01 3d 7d 1b ba 3c 61 bd a9 bc 69 65 97 bd
       0.031686816 0.022718186 -0.020720186 -0.07392389
000050 5d b7 4c 3c a4 c5 05 3d 49 36 92 bb d0 b0 92 3c
       0.012494889 0.032659188 -0.0044620377 0.017906576
000060 27 29 4e bd 2a 07 17 bd 0e d1 e9 3d f1 6f 4a 3d
       -0.050332215 -0.036872067 0.11416827 0.049423162
000070 26 bf 60 3d 66 8e 2e bc 77 7e c3 3d e8 11 61 bd
       0.054869793 -0.010654068 0.09545606 -0.054948717
000080 0e 4a 0d bc d9 72 8f 3b f0 48 97 bc 7d 5b 8d bc
       -0.008623613 0.0043777046 -0.018467396 -0.01725554
000090 62 df a1 3d 94 e8 75 3d 76 16 83 3d cb 06 80 3c
       0.07903935 0.060036257 0.064007685 0.01562824
0000a0 55 b7 3b bc b0 75 e7 3d 74 09 f7 bc e7 f0 9c 3d
       -0.011457284 0.11301744 -0.030155875 0.07663136
0000b0 69 3a b1 3c 6f 49 dc bc c3 78 b6 bc 07 ac 29 bd
       0.021634297 -0.026890485 -0.02227438 -0.041423824
0000c0 18 fc 55 bb be b3 d3 b3 61 23 ca bb d9 49 67 bc
       -0.003265148 -9.858148e-08 -0.0061687683 -0.014116728
0000d0 55 94 1c b1 96 13 bd bd 0a 8d e7 3d d6 2f 16 3d
       -2.2785305e-09 -0.09232251 0.11306198 0.036666714
0000e0 e1 2e af bc 90 0d e1 bc ca 3e 43 bc 97 2e 06 bd
       -0.021384658 -0.027472287 -0.011916826 -0.032759275
0000f0 16 cd af 3c ce 94 31 38 73 62 8a bd c4 10 8b bd
       0.021460097 4.2338674e-05 -0.06757059 -0.06790307
000100 00 eb 1f 3d 10 e1 18 3d 16 05 4f bc 09 02 44 3c
       0.039042473 0.03732401 -0.01263549 0.011963376
000110 93 1b a4 3c 79 c0 0d b9 6a 85 68 bb b3 34 15 3d
       0.02003268 -0.0001351851 -0.0035479912 0.03642721
000120 d7 a4 66 3d da 2b 67 3d 1c 47 00 bb e0 83 6f 3d
       0.056309547 0.056438304 -0.0019573634 0.058475375
000130 bd 48 4f 3d 14 2f da 3c 3e d7 32 3b dc a9 7d bb
       0.050606478 0.026633777 0.002728894 -0.003870598
000140 87 79 4d 3b ae 40 2a 3d 92 cf 27 3c d4 99 27 bd
       0.0031352954 0.04156559 0.01024236 -0.040918186
000150 27 dd 62 bc 3a dd d7 3b e9 03 b5 ba 20 d9 b5 3b
       -0.013846672 0.0065876516 -0.001381037 0.005549565
000160 b6 b3 46 bc 93 69 51 bd 6d f7 7a bd 14 17 c9 3a
       -0.012127807 -0.051126074 -0.06127112 0.0015341961
000170 85 44 b1 bc 12 c0 8a 3d 3a 7c 84 bb bb fc 28 36
       -0.021639118 0.06774916 -0.0040431293 2.518106e-06
000180 ea b0 09 3d c7 a3 19 bd 37 00 35 bb 40 1d 82 bb
       0.033615984 -0.037509706 -0.0027618536 -0.003970772
000190 ab 7d 23 bd 1f aa e5 bc bd fc 25 3c 24 fc 5a bb
       -0.03991477 -0.028035222 0.010131058 -0.0033414448
0001a0 09 51 49 bd 2e 6a b5 3c 5e 86 de 3a cf 29 2d bd
       -0.049149547 0.022145357 0.00169773 -0.0422762
0001b0 6f 43 90 3c a1 53 7b 3d fc e1 8b 3c f1 61 32 3d
       0.01761028 0.06135905 0.017075531 0.043550435
0001c0 78 0c 1c 3d 56 42 59 bc 2c de 2c 3c a8 c5 29 3d
       0.03809783 -0.013260445 0.010551017 0.041448265
0001d0 11 00 97 3c 64 a6 90 bd c2 f0 19 bb e0 5e 31 3d
       0.018432649 -0.070629865 -0.002348945 0.04330337
0001e0 f1 77 8c bd 11 72 f7 b5 82 f1 37 3d db b5 41 bb
       -0.068588145 -1.8436132e-06 0.044908054 -0.0029557857
0001f0 7a 7f 52 bb 13 7c 6f 3b 89 38 8b bd 70 7f ca 3b
       -0.003211944 0.003654246 -0.067978926 0.0061797425
000200 4c 08 10 3d 66 e5 de 3c 03 2b dc bb f1 fd 91 3d
       0.035164163 0.027208995 -0.0067189946 0.071285136
000210 6c ae 0e 3d 37 de 39 3d 85 9a 92 bc be 98 d3 3d
       0.03483431 0.045377936 -0.017895946 0.10331868
000220 26 c2 d5 bc 43 74 a5 b8 a4 ba ea bc 50 c8 4a 3d
       -0.026093554 -7.8894685e-05 -0.02865345 0.04950744
000230 55 ca b9 3d 72 68 59 3d 47 41 92 3d e7 b4 31 bd
       0.09071795 0.053078122 0.07141357 -0.043385413
000240 f3 5c 75 bd cd d9 16 3d ef 10 6e 3c 9d 81 5f bc
       -0.059903096 0.036828805 0.0145304045 -0.013641742
000250 e5 d9 c4 3a 72 f6 42 3d 23 bd e6 3d 6b 56 4e bd
       0.0015018551 0.04759831 0.11266544 -0.050375383
000260 a1 af b4 bc 70 ab 08 33 8c 52 8f bd 7e 31 3b bd
       -0.022056403 3.182089e-08 -0.069981664 -0.045701496
000270 b8 ff df 3d 01 4e 6b bd 16 c2 5f 3d c6 da 3e 3d
       0.10937446 -0.057447437 0.054628454 0.046595357
000280 e6 65 11 bd 93 09 b1 bd ce 0c a0 ba 31 f7 19 bc
       -0.03549757 -0.08644404 -0.0012210847 -0.009397314
000290 f8 4a b7 3d e5 be 43 3c 14 42 cf 3c 0b 0e 81 bd
       0.08949846 0.011947368 0.025300063 -0.063015066
0002a0 b8 9c 12 3d ed 17 5c 3d e7 f1 6e bd 62 1e a7 bd
       0.03579399 0.053733755 -0.058336165 -0.08160092
0002b0 73 a0 b2 3d df 1b 76 3c b9 16 e6 bc 69 92 eb 3d
       0.087220095 0.015021293 -0.028087007 0.11502535
0002c0 91 20 c9 bc fd 1f a7 b6 db 52 9b b2 a6 ce 19 bd
       -0.024551662 -4.9807118e-06 -1.8082053e-08 -0.03755059
0002d0 26 dd 0a 3d e3 ca 56 3d 53 64 9d 3d 68 fe dc bc
       0.03390231 0.05243958 0.07685151 -0.02697678
0002e0 56 ae 8c 3d b0 63 d0 3c e1 e9 86 3d 8b 30 02 3c
       0.068691894 0.02543816 0.065875776 0.007946144
0002f0 3f 4d d9 3c 20 09 4e bd 36 42 f8 3d 6e 9f 8e 3b
       0.026526092 -0.05030167 0.12122004 0.0043525016
000300 48 06 e3 3c 5c cb 48 3b af 59 04 bd 15 02 87 bb
       0.027712956 0.003063879 -0.03231209 -0.0041201212
000310 0a 81 47 bd a9 51 b4 3c 01 9f 20 3d 79 d5 94 3c
       -0.048707046 0.022011595 0.039214138 0.018168198
000320 a0 64 9b bd 77 95 70 bd af 96 e2 bc 88 ea 28 bb
       -0.07587552 -0.05873629 -0.027659742 -0.0025774557
000330 5e 37 bd 3c 75 f3 4f bd 61 4f 50 3c a4 0b 30 3c
       0.02309769 -0.050769288 0.012714238 0.010744963
000340 3a 9c 6c 3d 99 98 64 3b 5f 02 41 ba 96 59 e6 bc
       0.057766177 0.0034880994 -0.0007362719 -0.02811889
000350 23 0b 6d 3a 40 67 5d 3d b8 82 e7 3c b8 9c 36 3a
       0.0009042492 0.054053545 0.028260574 0.0006966102
000360 1e 67 64 bd cd 97 45 38 09 f7 b2 bd d7 f2 aa 3d
       -0.055762403 4.7109836e-05 -0.087385245 0.08347099
000370 05 d2 bc bc 26 49 94 bd c3 d9 03 bd b9 da a5 bc
       -0.023049364 -0.072405145 -0.032190096 -0.020245897
000380 4a a6 9e b9 0c fe 2f 3d 0e c4 ee 3b 83 a9 2e bb
       -0.00030260003 0.042966887 0.007286555 -0.002665133
000390 ed 3c 9f bc e9 df 9a 3d 67 a5 57 3d 0c e1 ef 3c
       -0.019438231 0.07562239 0.052647974 0.029282115
0003a0 10 1b f5 3a e7 ee a0 bb c5 bd af b1 ab 15 82 bc
       0.0018700082 -0.004911292 -5.1147446e-09 -0.015879473
0003b0 a6 a5 2f 3d 7b f4 4b bd d7 8e 31 3b a9 e4 a9 3c
       0.042882584 -0.0497937 0.0027093196 0.020738916
0003c0 be 61 8f 3a d4 ab 6b bd f6 fe b0 3c b1 37 10 bd
       0.0010939164 -0.057536915 0.02160595 -0.03520936
0003d0 47 7b 43 ba 78 70 e5 3c 1f fb 9d 3d fd 25 7e 3d
       -0.00074570294 0.02800773 0.07713913 0.062047947
0003e0 79 4c ae 3d 9e 6b 9a b6 b6 60 40 bc ba ca 82 3d
       0.0851068 -4.602086e-06 -0.011741808 0.06386323
0003f0 44 12 0b 3d 8b 17 9d 3c 37 42 9b 3d 37 c7 0b 3d
       0.033952966 0.019176265 0.07580989 0.034125533

shared.4.bias f4 [64]
000000 56 79 6c bc 0b 74 f3 bc e4 3e 8f bd a5 e7 b7 bd
       -0.014433226 -0.02971842 -0.06994417 -0.089797296
000010 3a 97 1f bd c0 ee 9d 3d b3 2c d4 bc 00 e1 67 bc
       -0.03896258 0.077115536 -0.02590022 -0.014152765
000020 5b 7e bf bd d0 28 e1 3c cf 0d 86 3d 14 3b 02 bc
       -0.09350272 0.027485281 0.065456025 -0.007948656
000030 5b be ba bd 9c 7e 45 bc 8a c8 36 ba dc 61 b5 3d
       -0.09118339 -0.012054112 -0.00069726317 0.08856556
000040 c2 17 1f 3c ce d3 d6 bc 68 04 88 3d 7e d6 98 bd
       0.009710254 -0.026224043 0.066414654 -0.07462786
000050 ce 66 a2 bd f7 39 a4 bd fe 43 03 be 16 d1 2d 3b
       -0.07929765 -0.080188684 -0.12818906 0.002652233
000060 3f 76 b3 3d e5 09 a5 3b 3f ab 18 bc 19 f7 34 3c
       0.08762788 0.00503658 -0.009318172 0.011045241
000070 24 9d de bd 8e b7 9b 3d ba ab 05 bc fe 6f 01 be
       -0.10869816 0.0760337 -0.008158619 -0.12640378
000080 ce d1 1f bd ea ff b4 3d 7b 62 83 bd 62 3d 05 bc
       -0.039018445 0.08837874 -0.06415268 -0.008132311
000090 84 b4 87 bc a5 c7 09 bd 31 8c 86 bd df 0f eb bc
       -0.016565569 -0.03363766 -0.06569708 -0.028694091
0000a0 d1 5d b6 bd de 87 f5 bc 6f e4 bf 3d d7 8a 87 bd
       -0.08904613 -0.029972013 0.09369742 -0.066182785
0000b0 3d 3d 27 bd 2e b6 c8 3c 3e ea 03 3e 66 36 80 3d
       -0.040829886 0.024500933 0.12882325 0.06260376
0000c0 a0 7d 9d bd 1b 36 8d 3d e0 4c e1 bc 42 51 a9 3c
       -0.07689977 0.068950854 -0.027502477 0.02066863
0000d0 d2 ef 90 bd 15 14 2a bd 60 35 b8 bd fe fd 3b 3c
       -0.07076992 -0.041523058 -0.089945555 0.011474131
0000e0 53 61 a5 3c 4b 48 cb 3c ef ba 6c bd 06 89 75 bd
       0.02018801 0.024814745 -0.05779546 -0.05994513
0000f0 62 b5 5d bd 7a 99 4f bc a9 4b cd 3d de 3a 11 bd
       -0.05412806 -0.012670869 0.10024197 -0.03545653

shared.5.weight f4 [64]
000000 e0 78 6f 3f 80 aa 6c 3f 87 61 6d 3f 80 e1 6c 3f
       0.93543816 0.9244766 0.9272694 0.92531586
000010 89 2c 6d 3f c0 e1 6e 3f 75 d3 6c 3f 12 bc 6c 3f
       0.9264608 0.9331322 0.9251016 0.9247447
000020 53 fe 6c 3f cf 6d 6e 3f e8 b9 70 3f be c0 6c 3f
       0.9257557 0.93136305 0.9403367 0.924816
000030 ab 19 6d 3f 5a c8 6c 3f 3c ac 6d 3f a3 d5 6c 3f
       0.9261729 0.9249321 0.92840934 0.92513484
000040 f8 c4 6c 3f 95 25 6d 3f 00 e1 6c 3f e8 96 6d 3f
       0.9248805 0.9263547 0.9253082 0.9280839
000050 65 c8 6c 3f 50 05 6d 3f 80 89 6d 3f 87 09 6f 3f
       0.9249328 0.9258623 0.92787933 0.9337391
000060 e9 e5 6d 3f 74 bb 6c 3f 3b bd 6c 3f 95 5a 6f 3f
       0.9292894 0.9247353 0.9247624 0.9349759
000070 89 82 6d 3f 78 01 6d 3f 4f f2 71 3f f7 68 6e 3f
       0.92777306 0.92580366 0.9451036 0.93128914
000080 72 c5 6c 3f 33 e7 6d 3f 7f c8 6c 3f 24 96 71 3f
       0.9248878 0.92930907 0.9249343 0.9436972
000090 50 d5 6c 3f a8 3b 6e 3f 56 e4 6c 3f 89 da 6c 3f
       0.9251299 0.9305978 0.92535913 0.9252096
0000a0 2a 21 6d 3f 93 9b 6d 3f cd 8d 6d 3f 8f bc 6c 3f
       0.9262873 0.9281551 0.92794496 0.9247522
0000b0 a2 fd 6c 3f 08 f6 72 3f 37 21 71 3f 3d 7b 6e 3f
       0.9257451 0.94906664 0.94191307 0.93156797
0000c0 a7 ce 6c 3f 69 08 6f 3f 55 fa 70 3f 14 e1 6c 3f
       0.92502826 0.9337221 0.94131976 0.9253094
0000d0 be 9c 6d 3f ba 37 6d 3f f6 cc 6c 3f f0 c9 6e 3f
       0.92817295 0.92663157 0.92500246 0.9327688
0000e0 46 75 6f 3f ad 2c 6e 3f 11 d0 6c 3f 23 d8 6d 3f
       0.9353832 0.9303692 0.92504984 0.92907923
0000f0 cc 39 6d 3f e3 a6 6e 3f 8b d6 6c 3f 86 c4 6c 3f
       0.92666316 0.932234 0.92514867 0.9248737

shared.5.bias f4 [64]
000000 57 1e a6 3c 96 61 2a 3c 1a 5d c0 3c fa d5 df 3b
       0.020278139 0.010399243 0.023481894 0.006830928
000010 ce 16 46 bc 76 ed ae bc d2 0d 6c 3c 24 a7 cc b7
       -0.012090398 -0.021353465 0.014407592 -2.4396526e-05
000020 91 7b 1a bc 6d cf 93 3c 5e ed 8d 3c cf 58 15 bb
       -0.009428875 0.018043244 0.0173251 -0.002278853
000030 7a ba 44 bc 16 27 71 b8 b1 21 45 bc 2c 09 a2 3c
       -0.01200735 -5.749528e-05 -0.012031958 0.019779764
000040 a7 dd f5 ba cd 9f 3b bc d3 ca e9 bb 77 f4 88 bc
       -0.0018758074 -0.011451674 -0.0071347742 -0.016718132
000050 f5 b2 7e bb 20 64 0f bc fc 6f 7c bc 25 99 b5 3c
       -0.003886399 -0.008751899 -0.0154075585 0.022167752
000060 32 ce 72 bc d8 d0 0e 3c d9 fa 03 39 50 01 b1 3c
       -0.014819669 0.008716784 0.00012586582 0.021607071
000070 6d 0b 7f bc a2 95 dd bb 64 65 9f 3c 65 e2 94 bc
       -0.015566689 -0.0067622224 0.019457527 -0.01817436
000080 af af 8b 3c 21 bc 8c bc 22 11 06 bc 15 56 7a 3c
       0.017051546 -0.01717955 -0.008182796 0.015279313
000090 e6 93 c0 bb 11 3b b5 3c 55 31 19 bc f2 15 d1 bb
       -0.005877006 0.022122892 -0.009350141 -0.00638079
0000a0 fb ec 46 bc 72 26 8b bc 7c 5d 4d bc f7 cb 69 3b
       -0.0121414615 -0.016986106 -0.012534495 0.003567455
0000b0 15 be ba 3c 94 6d 7c 3c d6 fc 86 3c e1 5a 7a bc
       0.022795716 0.015406985 0.016477983 -0.015280456
0000c0 d6 4e 77 39 d9 f9 9b 3c f6 34 b6 bc 81 f5 ef bb
       0.00023585124 0.019040035 -0.02224205 -0.0073229675
0000d0 8d 29 57 bc 60 67 92 3c cb 2e 39 3c 4b 0e 98 3c
       -0.013132465 0.017871559 0.01130266 0.018561503
0000e0 87 21 a1 3c d0 e4 9d bc d2 1e a4 bb 8f 23 97 3c
       0.019669307 -0.019274145 -0.005008557 0.018449573
0000f0 20 4b dd bb 70 92 88 bc cc 4c 72 3c 70 9b 83 bb
       -0.0067533404 -0.01667139 0.014788818 -0.0040163323

actor.0.weight f4 [3, 64]
000000 5d 9a 26 3d 69 7a 05 bc 3a a5 97 bc dd ba 67 3d
       0.040674556 -0.008146861 -0.018511403 0.05657469
000010 15 bb 53 bc bf f6 3d 3c 7a 90 19 bd a6 06 87 b9
       -0.012923022 0.011594473 -0.0374913 -0.0002575416
000020 06 27 42 3b 8b 9b 30 bc 8f 2e a1 bd 5a 80 69 3d
       0.002962531 -0.010779272 -0.078702085 0.05700717
000030 c2 1c 47 3d 46 59 a7 bb 7b 39 b6 3c 00 e7 72 b9
       0.04861141 -0.005107078 0.022244206 -0.00023164973
000040 82 c0 42 bb 61 71 7e 3d 54 bd 2a bd 80 cf f1 3c
       -0.0029716794 0.062119845 -0.041684464 0.029517889
000050 d5 d6 a7 3c 7e b2 48 3d 0c 6c 55 bd 6a 78 ae bd
       0.020488182 0.04899835 -0.052104995 -0.08519061
000060 e7 f0 e8 3c ac 60 1a ba 63 ad 21 bd 2f cb 82 bd
       0.028435184 -0.0005889039 -0.039471995 -0.063864104
000070 38 63 20 3d 73 2c a8 bc a6 05 40 bd 53 bd 9b bc
       0.039157122 -0.020529008 -0.046880387 -0.019011175
000080 8b f2 cb 3c 86 b4 5f bc 72 e0 b7 ba ee 46 2b bc
       0.024895927 -0.01365388 -0.0014028682 -0.010453923
000090 af 8a 77 3d e5 2d 86 bd 33 ea 80 bc f0 ed 5f 3b
       0.060434993 -0.065517224 -0.015736675 0.0034168921
0000a0 16 3d 2e bc a0 f8 0c 3d 17 42 87 bd 80 da b2 bc
       -0.010634681 0.034416795 -0.066044025 -0.021832705
0000b0 da b7 ad bc 75 1b cc 3c 24 b4 5b 3d 64 2b 43 3d
       -0.021205831 0.024915436 0.053638592 0.047648802
0000c0 f4 ba 2d 3a ad 95 66 bd 87 78 19 3c 31 70 d4 3b
       0.00066272845 -0.056295086 0.009367115 0.006483101
0000d0 14 ae a4 bd f8 7a bc bc 05 43 82 3d 52 5e 73 3d
       -0.08041015 -0.023007855 0.06360439 0.059416123
0000e0 ac f1 81 bc 52 26 23 3d a6 9d 29 3d 80 38 ac 3c
       -0.015862308 0.039831467 0.04141011 0.021023035
0000f0 76 c1 19 3d a4 60 cc bc 69 1e 7c 3c e2 7d 09 3d
       0.037538014 -0.024948426 0.01538811 0.033567317
000100 ec b5 82 3c 45 56 2c 3b 87 38 24 3c 06 1a 28 3c
       0.015955888 0.0026296538 0.010023243 0.010260111
000110 a9 0a 1b 3d e9 78 93 bb 7e d8 35 bd 09 d5 fc bb
       0.037851963 -0.0045004976 -0.044395916 -0.0077158255
000120 f2 55 d4 bc ad 05 5e 3c e8 d6 5b bd 89 b1 3c bd
       -0.025919888 0.013551158 -0.053671747 -0.04606775
000130 98 13 7a 3c 40 b1 fc bb a7 6e 41 3d f0 b7 7b 3d
       0.015263461 -0.0077115595 0.047224667 0.061454713
000140 79 62 b5 b9 72 d6 25 3c 47 e5 35 bb 51 fe 90 3c
       -0.00034596378 0.0101219285 -0.0027755068 0.017699393
000150 f2 8d 25 bd f2 24 0f bc 69 50 03 3a 4e 7a 42 bb
       -0.040418573 -0.008736836 0.00050092355 -0.002967495
000160 bf 29 26 bc b4 7a a6 3b bb b3 1e bd af b7 29 3d
       -0.010141789 0.0050805453 -0.038745623 0.04143494
000170 dc 8f bc bc b6 17 35 3d 55 b5 f4 3c ac c9 32 bc
       -0.023017816 0.044212066 0.029871622 -0.01091234
000180 89 48 93 3b 25 51 b3 bc ac 38 d1 3a 80 c3 b1 bc
       0.004494731 -0.021889279 0.0015962324 -0.021699667
000190 62 a5 41 3d bf 4b ff 3c 7d ed c7 bc 93 53 50 bd
       0.047276862 0.031164048 -0.024405235 -0.050860953
0001a0 6f 55 09 3c 0c 9c 30 3c d6 42 62 bc 61 1e c4 3c
       0.008382185 0.010779392 -0.01380988 0.023940267
0001b0 85 b0 76 3c bb f0 b7 bc 93 81 b0 3d f5 7c 78 3d
       0.015056734 -0.022453656 0.08618464 0.060666043
0001c0 12 bf 80 3d 87 f4 6e 3d 76 ac 8f bd 74 3f 91 3a
       0.06286444 0.05833867 -0.07015316 0.0011081533
0001d0 a5 36 f5 bc 8b 5d 10 3c ac 9c ac 3c 1a 50 4c 3d
       -0.029933283 0.008811365 0.0210708 0.04988108
0001e0 18 e1 47 3d 42 c2 04 3d 2f 13 fc bc 57 ab 1d bd
       0.04879865 0.03241182 -0.030770866 -0.03849348
0001f0 7d 7f 8e bd e8 7f 39 bd f9 3c 43 3d cd 45 43 3d
       -0.0695791 -0.045287997 0.04766557 0.04767399
000200 6b 68 15 3c 47 67 81 3b 82 00 08 bd 0f d0 a0 3d
       0.009119133 0.003949079 -0.03320361 0.07852184
000210 4d 7e 21 bc bd 4e 59 3d d1 bf d4 3c 32 14 cb bc
       -0.009856773 0.053053606 0.025970371 -0.024789903
000220 22 0f cd 3c d9 c8 04 3b 87 34 80 bd 7d 69 d4 ba
       0.02503163 0.0020261316 -0.06260019 -0.0016205754
000230 50 6d b8 3b a3 3b 78 bd 13 86 59 3d 43 dc ed bc
       0.0056282654 -0.06060375 0.05310638 -0.029035693
000240 77 7c 46 3d 90 1c 03 bd f8 05 74 bd 48 96 71 bd
       0.048458543 -0.03200966 -0.059576005 -0.05898121
000250 37 5c 4e bc b2 e4 47 3c 5b 7d a7 3c f6 91 0e bd
       -0.012595228 0.012200521 0.020445516 -0.034807168
000260 79 52 3c 3c 82 c4 81 bb e2 bb 01 bd 4d 27 35 3d
       0.011494272 -0.003960193 -0.03167332 0.044226933
000270 d8 36 83 3d 10 9b fd ba 4e 63 ba 3c 3d 99 a5 3b
       0.06406945 -0.001934858 0.02275243 0.005053668
000280 52 99 00 3c 59 09 a8 3b 66 77 03 bc ab 5f c6 bc
       0.007849054 0.0051280675 -0.008024072 -0.02421554
000290 90 2a 8e 3c ec 2a 00 3d a5 39 59 3b 19 a8 9a 3a
       0.01735428 0.031290933 0.003314593 0.0011799365
0002a0 6d 38 11 3d 30 6f 64 bd 62 d8 89 bc fc 43 aa 3c
       0.035454202 -0.0557701 -0.016826812 0.02078437
0002b0 97 5d 97 bc 82 43 dc 3c 55 c3 79 3d 53 d8 5c 3d
       -0.018477244 0.026887659 0.0609773 0.05391724
0002c0 a5 c3 6a 3d 01 53 06 3d b8 e2 be 3c 6e 9a 28 3b
       0.057315487 0.032794002 0.023301467 0.0025726813
0002d0 b1 4a 6d 3d 58 de 82 bd 9a c8 c7 3c b8 7e b1 3b
       0.05793256 -0.06390065 0.024387646 0.0054167174
0002e0 43 96 b8 bc 2d ca d4 3c 2e e7 5d 3a fc 06 69 bd
       -0.022532588 0.025975311 0.00084649294 -0.056891426
0002f0 7b 53 99 bd 64 90 87 3c fc b8 62 bd f5 15 75 bd
       -0.07486626 0.016548343 -0.055352196 -0.059835393

actor.0.bias f4 [3]
000000 49 11 b9 bd fe 5a 43 3d 74 d8 15 3c
       -0.090365 0.0476942 0.009145845

critic.0.weight f4 [1, 64]
000000 55 e6 03 be a3 61 02 bd 8e 7a b3 bd 5f 41 a8 bc
       -0.12880833 -0.031831395 -0.0876361 -0.020538984
000010 5e 94 61 3d c2 57 40 3d d1 be cb bc 85 f9 c1 ba
       0.055073135 0.046958692 -0.024871262 -0.0014799094
000020 fa 99 fe 3b 4c cb d2 bd b8 6e b3 bd 94 0c ab 3c
       0.0077698203 -0.10292682 -0.08761352 0.020880021
000030 8f 93 70 3d 02 46 31 ba d0 3c 8c 3d d9 ad 76 bd
       0.058734473 -0.0006762446 0.068475366 -0.060224388
000040 ed b9 5e 3c 33 3f 14 3c e7 a7 03 3d b6 b6 d4 3d
       0.013594133 0.009048271 0.032142546 0.10386412
000050 e1 8f 98 3c cb 0b 42 3b cd bc c9 3d 02 e1 8f bd
       0.018623294 0.002960908 0.09850464 -0.07025339
000060 ff e7 39 3d c4 98 58 bd 94 2c 96 bb 6e 21 09 be
       0.045387264 -0.052880064 -0.004582951 -0.13391659
000070 79 19 71 3c 07 1a 54 3b 21 44 da bd bb 66 b5 3d
       0.014715546 0.0032364146 -0.10657526 0.08857485
000080 31 ca 2c bd c4 db 8b 3d 76 cb 4d 3d 79 d9 c2 bd
       -0.042185012 0.06829026 0.050242864 -0.09514136
000090 ca 94 f8 3c 40 ed 86 bd 74 e3 40 3d f7 c0 a8 3d
       0.030344386 -0.065882206 0.047091916 0.0823993
0000a0 23 4c ed 3c 06 63 74 3d 20 6f 34 3d 5a 04 4f 3d
       0.028966969 0.05966475 0.04405129 0.05054126
0000b0 df d6 83 bd b2 a8 10 be 39 8c d4 bd f0 85 5c 3d
       -0.06437468 -0.14126852 -0.10378308 0.05383867
0000c0 60 86 a2 bb 4c f2 05 be e4 d5 ce 3d ec 25 20 3d
       -0.0049598664 -0.1308071 0.1009939 0.039098665
0000d0 81 06 63 3c 8c 9f dc bd 5a 64 b2 bc e1 92 bf bd
       0.013856531 -0.10772619 -0.021776367 -0.09354187
0000e0 1c 5f ef bd 78 83 48 3d f2 6b cb 39 bb 16 a0 bd
       -0.116880625 0.048953503 0.00038799603 -0.078168355
0000f0 19 71 2e bb 82 fb cc 3d b3 c9 23 bd 68 9c dc 3c
       -0.0026617704 0.10008909 -0.039987277 0.026930049

exp_avg f4 [64, 20]
000000 82 fb 43 b0 2d fb a3 ba cf 42 04 b9 21 38 1c 3a
       -7.1298e-10 -0.0012510769 -0.00012613389 0.00059592916
000010 61 dd 5a 3a c3 3f f5 b9 14 8e 58 39 fc aa 95 b9
       0.0008349028 -0.00046777548 0.00020652293 -0.00028546888
000020 e2 a5 2c 3b 74 27 08 b9 3b c9 63 3a 18 4c 69 3a
       0.002634399 -0.00012984668 0.00086893485 0.00088995835
000030 ec 8d 06 3a f5 ed 3a ba 06 b0 4b 3a 01 29 8a 39
       0.00051328423 -0.0007130795 0.0007770065 0.0002635196
000040 dd 77 b4 b9 f0 54 03 3c 0f a5 83 b9 cd 05 97 ba
       -0.0003442158 0.008015856 -0.00025109245 -0.0011522115
000050 cb 72 c1 3a e8 68 c7 3a 09 02 87 b5 74 53 44 b7
       0.0014758942 0.001521376 -1.0058876e-06 -1.1701941e-05
000060 06 d6 06 b9 19 dc d5 39 8f 1e 9f b8 d1 60 c1 b8
       -0.00012858966 0.0004079051 -7.587403e-05 -9.2209906e-05
000070 c5 ad 3a ba 88 60 92 b9 78 b0 64 ba 94 83 8c 39
       -0.00071212306 -0.0002791921 -0.00087238057 0.00026800914
000080 7c ee ce b7 65 da 0e 39 09 ae 72 b7 e1 b6 44 3a
       -2.4668167e-05 0.00013623534 -1.4464845e-05 0.0007504058
000090 0d f9 c6 b7 ed 16 bb ba 79 68 2d b9 e5 bf 94 37
       -2.3719413e-05 -0.00142738 -0.00016537485 1.7732333e-05
0000a0 96 be 96 ba d3 3c c1 b9 f9 c9 b3 3a bd 4d 03 3a
       -0.0011500891 -0.00036857146 0.0013716809 0.00050088373
0000b0 a4 4a 66 3a 65 e0 94 3a 3f e9 a5 ba 93 ad 87 3a
       0.0008784926 0.0011358379 -0.0012658014 0.0010351412
0000c0 c7 4d d7 ba 05 1c 57 3a 53 e3 cc 3a 6a 6e eb 39
       -0.0016426378 0.00082057744 0.0015631713 0.00044904958
0000d0 cb ff b1 ba c7 9e 79 39 9a f0 37 3a 01 0a 28 3a
       -0.001358026 0.0002380564 0.00070167484 0.0006410182
0000e0 24 ac 43 39 99 05 24 bb 3a c9 a9 3a ca d7 2b 39
       0.00018660777 -0.002502775 0.0012953647 0.00016388219
0000f0 9a b3 86 3a 92 d9 9f b8 28 79 5a ba 0d 34 b0 ba
       0.0010276914 -7.6222364e-05 -0.0008334094 -0.0013443247
000100 13 03 f8 b8 95 50 62 3a e4 1f 89 b9 f8 75 aa 3a
       -0.00011826134 0.00086332235 -0.00026154437 0.0013005128
000110 b8 74 d5 b8 ec a8 a8 ba fa 4b e0 3a f2 1f c3 38
       -0.00010178372 -0.0012867725 0.0017112487 9.304275e-05
000120 3a eb 8b ba 93 4c b3 3a 00 6d 3d ba 04 21 2a 3a
       -0.0010674961 0.0013679437 -0.000722602 0.0006489905
000130 f1 ad 5a ba a5 b8 47 3b af da 40 ba 56 a1 c9 b8
       -0.00083419593 0.0030475047 -0.0007356805 -9.614478e-05
000140 e8 69 37 3a 22 67 89 35 a2 4f 4f 3a ad 90 86 3a
       0.0006996677 1.0237311e-06 0.00079082896 0.0010266505
000150 37 5e 5d 3a 77 4b b4 ba bd 01 c9 ba e5 7b be 3a
       0.000844452 -0.00137554 -0.0015335601 0.0014532773
000160 04 1e 1e b7 79 ae 88 ba 3d af fa b9 a9 97 65 3a
       -9.424522e-06 -0.0010427973 -0.00047814279 0.0008758256
000170 3a 80 e3 b8 d2 8f 91 3a 66 32 b1 3a 1d d5 92 37
       -0.000108480875 0.0011105484 0.0013519048 1.7503795e-05
000180 e2 c7 6a 3a a9 1c 86 3a ef 92 ba ba 6b 22 5f 38
       0.00089561765 0.001023193 -0.0014234463 5.3199397e-05
000190 df 02 45 39 71 e9 83 39 9a 00 50 3a 63 4e b5 ba
       0.00018788454 0.00025160194 0.000793466 -0.0013832565
0001a0 b3 78 15 ba e4 3f 83 3a 85 8a 73 3a 8b 09 5e b8
       -0.00057018845 0.0010013548 0.00092903554 -5.2937812e-05
0001b0 69 c0 65 b8 dc f7 4e ba e5 d6 cd ba ee e1 99 3a
       -5.477705e-05 -0.00078952103 -0.0015704302 0.0011740306
0001c0 a1 45 a5 3a e3 57 ca b9 4a 74 c5 b7 5c 3f a6 3a
       0.0012609252 -0.00038593923 -2.3538381e-05 0.0012683677
0001d0 18 ac 3f ba 2c ab b9 ba f3 3e cf b9 d2 b7 b2 3a
       -0.0007311716 -0.0014165393 -0.00039529018 0.0013635105
0001e0 e7 4d 7d 32 9c 25 59 37 13 e6 ca 3a d9 4c 81 38
       1.4744251e-08 1.29429645e-05 0.0015479944 6.165513e-05
0001f0 23 88 a1 3a f3 d9 ae 3a 2e c0 6c 3a 0b cf 43 38
       0.0012323897 0.00133401 0.00090313226 4.6684447e-05
000200 ab 31 5a 3a 80 17 a4 3a b9 2b 20 3b f6 d2 b4 b9
       0.0008323441 0.001251921 0.0024440123 -0.00034489454
000210 25 1c 92 ba ef 1a 27 ba 71 9a f4 b9 f6 1e 71 3a
       -0.0011147304 -0.0006374558 -0.00046654374 0.0009198034
000220 e2 9d f9 38 92 ee 30 3b 4f 93 a6 b9 4b 23 a8 38
       0.00011902653 0.0026997668 -0.0003177174 8.017438e-05
000230 6f 6c 95 ba a2 f8 27 b8 b7 ff c4 3a 3c ea ee 38
       -0.0011400114 -4.004746e-05 0.0015029822 0.00011392354
000240 36 45 41 39 77 37 04 ba 5e c5 d6 3a bd 38 cb 3a
       0.00018431697 -0.00050436653 0.0016385724 0.001550458
000250 c5 7f c6 38 9b 4f ae ba 4e 03 2f 3b da 33 11 3a
       9.465175e-05 -0.0013298871 0.002670485 0.00055390375
000260 4f 84 48 3a 0b 2e 81 2c 31 4d 94 ba c4 37 c6 b9
       0.000764911 3.6715123e-12 -0.0011314509 -0.00037807052
000270 dc b3 16 39 51 4e 53 3b ae 97 79 3a 1f f4 46 3a
       0.00014372118 0.0032242725 0.0009521198 0.00075894775
000280 ad d5 be 3a e9 f9 81 b9 d3 52 d2 39 d2 a2 88 3a
       0.001455953 -0.00024790995 0.0004011603 0.0010424501
000290 46 a1 b0 ba b8 7b d5 39 de 37 85 3a bf 08 32 ba
       -0.0013475798 0.00040718704 0.0010163744 -0.00067914644
0002a0 1e 69 62 ba 05 4c 57 39 c6 a2 c4 3a 14 49 29 ba
       -0.00086368795 0.00020532317 0.0015002124 -0.0006457728
0002b0 26 92 f9 39 a2 ae 66 34 6e 84 af 37 9b 1c b5 ba
       0.0004760187 2.148395e-07 2.0923293e-05 -0.0013817729
0002c0 72 28 18 38 46 1b 44 bb e9 bb cb 3a 6e 00 9d 38
       3.627729e-05 -0.0029923483 0.0015543672 7.4864234e-05
0002d0 9c 4b 95 3a 4c a1 50 3a 5a 2a 4e ba 89 b7 68 b9
       0.0011390331 0.00079586054 -0.0007864587 -0.00022193616
0002e0 e8 3d 8a 39 46 39 9d ba 65 fb 5a b9 0a 43 3b 3a
       0.00026367535 -0.0011995218 -0.00020883752 0.00071434735
0002f0 d8 d7 93 3a a6 6d 87 b9 06 13 84 3a 56 89 d6 b9
       0.0011279536 -0.000258309 0.001007647 -0.00040919584
000300 44 61 50 b8 f2 94 85 3a 11 8c 98 3a 3a 1f 5f 3a
       -4.968165e-05 0.0010191484 0.0011638423 0.0008511428
000310 ff 80 0a b8 af 4c ac ba 5c ee d4 ba 1b 4e 9b 39
       -3.30219e-05 -0.0013145412 -0.0016245353 0.00029622097
000320 84 f4 5d af c0 db d5 39 26 eb 07 3a f4 aa 0d 3a
       -2.0186702e-10 0.00040790252 0.0005184881 0.0005404197
000330 f4 45 a5 39 8b 32 ee 39 3d ff 46 b9 47 cd aa 3a
       0.00031523372 0.00045432555 -0.00018977835 0.0013031148
000340 21 a6 0f 3a bf 08 c6 39 95 02 e1 3a 76 5f 32 ba
       0.0005479772 0.0003777202 0.0017166907 -0.0006804386
000350 39 16 0e ba f1 d1 a5 ba 06 82 de 39 fb 70 cf ba
       -0.00054201816 -0.0012651068 0.00042440015 -0.0015826517
000360 a6 17 83 3a 71 3c 48 3a cb d2 12 3c 34 4b b5 ba
       0.0010001555 0.0007638401 0.00896139 -0.0013831616
000370 6a 36 0a 37 d8 31 8e b8 2a 9e 4c ba ed 86 83 3a
       8.23811e-06 -6.780372e-05 -0.00078055507 0.0010034718
000380 e4 fc a1 b9 55 2e 52 ba b1 10 92 39 7c 26 a7 3a
       -0.0003089673 -0.0008017768 0.00027859726 0.0012752558
000390 59 95 a2 ba 06 c8 68 b8 0d ae 25 ba 9c 2b c8 39
       -0.0012404128 -5.5499397e-05 -0.0006320186 0.00038179464
0003a0 ea 58 d3 39 ad 65 c6 39 79 05 03 ba d1 d1 1f 3a
       0.00040311302 0.00037841257 -0.0004998069 0.0006096634
0003b0 d2 fd 83 3a d4 9e da ba 17 ea 8a b8 07 1e 98 38
       0.0010070151 -0.0016679415 -6.6239554e-05 7.253518e-05
0003c0 6c 19 eb 38 2f b6 29 3a 45 21 8b 39 c0 ed 8f 3a
       0.000112104084 0.0006473986 0.00026536934 0.0010980889
0003d0 a5 b0 e9 b9 fc dd 39 ba 42 74 46 ba 3d 0f 21 b9
       -0.00044572834 -0.0007090268 -0.00075704243 -0.00015359833
0003e0 1e 78 b2 ba 85 21 77 b9 38 06 95 bb 0b 2a 90 b8
       -0.001361612 -0.00023568243 -0.0045478605 -6.874286e-05
0003f0 48 79 86 ba f3 5b 33 ba 15 ff fc ba 2e c7 bc 3a
       -0.0010259533 -0.00068420096 -0.0019302095 0.0014402622

exp_avg_sq f4 [64, 20]
000000 88 05 7e 30 8d 2d 1e 35 0d f6 8b 33 ab b5 b6 33
       9.241252e-10 5.892587e-07 6.517448e-08 8.5080806e-08
000010 b7 48 1f 34 e8 8d ec 34 d1 fa 8a 34 03 50 26 35
       1.4834482e-07 4.4061676e-07 2.5886996e-07 6.195625e-07
000020 64 1a 76 35 50 7a 24 35 ac 5a 0f 37 ce 1b c4 33
       9.1680545e-07 6.127275e-07 8.544575e-06 9.132019e-08
000030 35 03 5d 33 0f 05 76 34 89 b8 03 35 15 bb 05 34
       5.145849e-08 2.2912376e-07 4.9069837e-07 1.245465e-07
000040 c0 e2 4e 35 3d 32 08 37 d2 4a 4c 37 b2 57 b3 34
       7.7070945e-07 8.117929e-06 1.2176768e-05 3.3405155e-07
000050 b7 6e 41 35 17 33 4d 35 2d a2 f7 31 be 10 c7 2f
       7.2059214e-07 7.6442797e-07 7.2070834e-09 3.6209785e-10
000060 29 7f c9 32 01 13 01 34 10 38 40 32 24 43 60 32
       2.3457305e-08 1.2020975e-07 1.1188618e-08 1.3053782e-08
000070 4c 9b 59 34 ec 37 5e 33 9f fb 69 34 73 6e 9e 33
       2.0266197e-07 5.1739264e-08 2.1791355e-07 7.377539e-08
000080 4e 1e 3f 31 bb 3b 07 33 55 38 a6 30 e4 31 8b 34
       2.7811384e-09 3.148646e-08 1.20941e-09 2.5927068e-07
000090 79 b2 52 32 69 90 e6 34 7f fd 36 34 7a 0e 4e 32
       1.2264189e-08 4.294591e-07 1.7042292e-07 1.199407e-08
0000a0 58 77 00 35 d6 69 dd 33 07 04 4d 35 80 32 ae 34
       4.7857384e-07 1.0310366e-07 7.637431e-07 3.244677e-07
0000b0 05 0c 2f 35 fc e8 86 35 1a 97 d1 34 0f fa 86 35
       6.521007e-07 1.0051585e-06 3.9039224e-07 1.0056555e-06
0000c0 48 63 33 35 2f 18 76 35 c1 d0 1d 38 f7 53 00 35
       6.682717e-07 9.1677333e-07 3.7626134e-05 4.78059e-07
0000d0 ca dc 11 35 1c ef 6e 33 d8 c2 1d 35 50 ed 9d 34
       5.4338e-07 5.5631162e-08 5.877059e-07 2.9416196e-07
0000e0 f4 53 0a 35 c3 3f 08 38 ed e5 81 37 b8 57 06 34
       5.1531174e-07 3.248431e-05 1.5485066e-05 1.2511634e-07
0000f0 85 c2 d6 34 bb 89 4e 31 f4 cb 68 34 cf fb ec 34
       4.0002138e-07 3.0055236e-09 2.1680881e-07 4.414164e-07
000100 f3 11 69 33 f0 16 f0 34 dd 3e fc 32 5d 49 3f 35
       5.4265865e-08 4.4720173e-07 2.9365248e-08 7.12598e-07
000110 a5 11 10 33 30 f6 24 35 de 16 8d 36 81 7e 00 33
       3.354366e-08 6.145301e-07 4.2047895e-06 2.9917377e-08
000120 d3 ac 09 35 d2 7b 2a 35 5a 94 75 34 77 6f 04 34
       5.128797e-07 6.351012e-07 2.2871373e-07 1.2334009e-07
000130 76 1f af 34 b9 f3 98 36 f5 f8 a2 36 11 7f ac 32
       3.261918e-07 4.558326e-06 4.8569586e-06 2.0081218e-08
000140 51 43 6f 34 fd 91 9c 31 b5 e5 93 34 f5 e0 dc 34
       2.2283099e-07 4.5567945e-09 2.7548018e-07 4.114187e-07
000150 f3 43 a6 34 53 41 29 35 ca 33 4d 35 ba 05 41 35
       3.096935e-07 6.3052465e-07 7.6443814e-07 7.1906436e-07
000160 d0 b8 83 32 5b 24 e6 34 64 6b 92 35 8e d6 a5 34
       1.533445e-08 4.286729e-07 1.0909102e-06 3.0889754e-07
000170 82 1e 06 33 70 e9 f2 34 42 0a 23 35 88 4e 56 32
       3.1227053e-08 4.524586e-07 6.073716e-07 1.2474295e-08
000180 bf 41 b3 34 63 b5 fa 35 b8 5c 15 35 13 2a 98 31
       3.3389185e-07 1.8679242e-06 5.564175e-07 4.4285655e-09
000190 d2 7a 39 33 5c 60 84 33 08 72 95 34 26 81 28 35
       4.3185373e-08 6.164257e-08 2.783638e-07 6.277281e-07
0001a0 0f f5 22 34 9f 40 dd 34 24 99 c6 34 84 1f 4d 31
       1.5176578e-07 4.1211476e-07 3.6991798e-07 2.984934e-09
0001b0 17 00 67 30 0c 8b 7c 34 6c d4 20 35 80 97 0b 35
       8.403744e-10 2.3519914e-07 5.991376e-07 5.2001997e-07
0001c0 3a 3f 1a 35 32 1e d4 33 d5 01 ae 31 82 19 1b 35
       5.746148e-07 9.877512e-08 5.0642748e-09 5.777912e-07
0001d0 e3 6d 5f 34 fb 53 c9 34 60 ba 13 34 6c f1 1c 35
       2.080847e-07 3.750027e-07 1.3758245e-07 5.8465844e-07
0001e0 1d a9 e2 30 2f 78 f6 30 0e 5c 4c 35 92 08 85 31
       1.6491729e-09 1.7933014e-09 7.612988e-07 3.871784e-09
0001f0 98 ee 05 35 32 e2 1a 35 d8 53 a5 34 f6 50 75 32
       4.989356e-07 5.769863e-07 3.079465e-07 1.4279285e-08
000200 7c e9 93 34 da e7 01 35 3b 3b e2 35 99 30 1b 34
       2.7550766e-07 4.8393633e-07 1.685555e-06 1.445318e-07
000210 7d f3 09 35 86 0f 51 34 bd e7 33 34 06 f1 a3 34
       5.13908e-07 1.9470289e-07 1.675498e-07 3.0536484e-07
000220 22 e6 b9 32 d8 32 17 36 0e 79 2e 35 49 41 00 33
       2.1641487e-08 2.2530348e-06 6.499621e-07 2.98617e-08
000230 a7 52 fd 34 34 65 ce 31 7a bd 3d 35 13 73 c3 32
       4.718506e-07 6.0068945e-09 7.068371e-07 2.2753317e-08
000240 b8 92 ea 32 3b b6 4b 34 68 59 63 35 6f af 58 35
       2.7307905e-08 1.8972143e-07 8.4694193e-07 8.072156e-07
000250 45 d3 22 33 24 c5 40 35 3a 00 c8 36 d5 f7 20 34
       3.7910713e-08 7.181245e-07 5.960491e-06 1.4991322e-07
000260 45 39 84 34 6f 39 b8 2f 8a de 13 35 e9 50 01 34
       2.4628585e-07 3.3510214e-10 5.5085604e-07 1.2043496e-07
000270 2f 48 48 33 5f c8 aa 36 3f 9e e4 36 0e 9b a2 34
       4.663178e-08 5.089721e-06 6.813352e-06 3.0287669e-07
000280 50 16 3d 35 56 24 90 33 73 22 97 33 eb e8 bf 34
       7.0440456e-07 6.712132e-08 7.037752e-08 3.5745992e-07
000290 13 38 5a 35 1d 23 1c 33 24 3a 76 34 d5 0f eb 34
       8.129293e-07 3.6353516e-08 2.2931687e-07 4.378368e-07
0002a0 f4 75 0f 35 57 20 34 33 7d a2 93 36 d0 03 39 34
       5.3443296e-07 4.193893e-08 4.3998575e-06 1.7230855e-07
0002b0 21 7e 21 34 16 d6 10 31 44 47 c2 33 82 e6 11 35
       1.5040179e-07 2.1076452e-09 9.046792e-08 5.435214e-07
0002c0 b8 e2 8a 33 18 d0 91 36 df ee 17 37 85 2a 3f 34
       6.467366e-08 4.345562e-06 9.055918e-06 1.780373e-07
0002d0 49 f9 fc 34 27 fc 92 34 21 d2 87 34 17 77 44 33
       4.7120037e-07 2.7378084e-07 2.5298598e-07 4.5743118e-08
0002e0 72 f1 ab 33 a0 29 fe 34 63 ca 2b 33 c4 f8 94 34
       8.006727e-08 4.7341473e-07 3.999811e-08 2.774815e-07
0002f0 df 2f 12 35 4e 49 71 33 35 56 77 35 de 5f cf 33
       5.44589e-07 5.6178855e-08 9.214012e-07 9.656627e-08
000300 fc c0 56 32 b3 f3 d3 34 94 2b 02 35 53 b8 b0 34
       1.2500319e-08 3.9479127e-07 4.849219e-07 3.2916668e-07
000310 86 a2 2b 33 80 43 1a 36 6a 81 2f 35 8f 19 81 33
       3.9961854e-08 2.2987078e-06 6.53809e-07 6.01168e-08
000320 b5 aa af 2f 4b b3 32 33 d1 f7 50 33 a9 cc 7f 33
       3.195361e-10 4.160692e-08 4.865416e-08 5.955795e-08
000330 65 fb 53 34 70 c1 39 34 73 8a ec 34 9a 66 b1 34
       1.9742363e-07 1.729984e-07 4.405916e-07 3.3043472e-07
000340 ae 13 48 34 86 5c 5b 34 bf 36 01 37 e7 a0 cb 34
       1.8633611e-07 2.0429624e-07 7.701746e-06 3.7928768e-07
000350 2c 4a 2a 34 0c ef 15 35 c1 61 60 34 b3 c5 19 35
       1.5859467e-07 5.5854684e-07 2.0897188e-07 5.728463e-07
000360 fa da cc 34 9e f2 92 37 6c 8a 86 37 e3 8a b2 34
       3.8157287e-07 1.7517534e-05 1.6038503e-05 3.3256137e-07
000370 5f d7 ba 31 35 22 52 31 a6 a8 57 34 8f b5 ef 34
       5.4377973e-09 3.0578466e-09 2.008479e-07 4.464932e-07
000380 86 27 c4 33 05 3b a7 34 ba 12 45 33 b4 27 0a 35
       9.1341505e-08 3.1149116e-07 4.588467e-08 5.146678e-07
000390 47 bd 20 35 a2 b0 49 33 cc 30 57 35 2b 5c 04 34
       5.988008e-07 4.6959606e-08 8.016475e-07 1.2326988e-07
0003a0 fa 7e f1 33 58 e5 ce 33 b5 b5 10 34 40 3d 60 34
       1.1245534e-07 9.63434e-08 1.347715e-07 2.0883908e-07
0003b0 c2 b9 d8 34 5b c7 65 36 83 06 dc 35 0b 77 af 32
       4.0368292e-07 3.42397e-06 1.6393172e-06 2.0426816e-08
0003c0 73 a5 e2 32 0a f5 23 34 95 a7 47 33 9d 34 d9 34
       2.63851e-08 1.5269703e-07 4.6485713e-08 4.045768e-07
0003d0 4a 0c d9 34 5e 90 13 35 5c 6d 1a 35 84 7f d6 34
       4.042834e-07 5.497185e-07 5.752861e-07 3.9953386e-07
0003e0 3e 86 a7 35 eb c7 30 35 b4 fe 0e 38 87 8a 0f 35
       1.2481539e-06 6.585603e-07 3.409265e-05 5.3473235e-07
0003f0 aa e3 2d 35 3e 94 67 34 9c 88 e1 35 2a 91 4d 35
       6.4778817e-07 2.1567482e-07 1.6803565e-06 7.657969e-07

exp_avg f4 [64]
000000 78 58 0d bb 86 26 e2 ba a6 53 65 3b e8 1f fe 38
       -0.0021567624 -0.0017253913 0.0034992485 0.00012117607
000010 b3 d0 ae ba d9 8a 07 bb 79 8a 9b 39 cf 26 83 3b
       -0.0013337344 -0.0020682125 0.00029667074 0.004002429
000020 95 e2 89 39 18 77 05 bb c3 b9 2f 3b 54 fa d5 ba
       0.00026299493 -0.0020365175 0.0026813603 -0.0016325214
000030 c3 cc 94 bb ce ba f5 3b 4c f9 08 3a 1e 79 90 b9
       -0.004541011 0.0074990755 0.00052251364 -0.0002755606
000040 37 11 4c bb 21 02 b0 ba 15 9b ad 3a 33 2f 8f 3b
       -0.003113819 -0.0013428369 0.0013245071 0.0043696403
000050 94 d0 32 bb 59 21 e5 3b 77 68 4e 3b 4a 5d b3 ba
       -0.0027284967 0.0069925007 0.0031495371 -0.0013684419
000060 81 26 ee bb 91 fe e5 ba 40 0d 73 3b e5 b8 09 3c
       -0.0072677736 -0.001754718 0.0037086755 0.008405899
000070 99 17 4d 3b 30 6d b8 ba 14 42 36 3b a7 74 9e ba
       0.0031294583 -0.0014070626 0.0027810382 -0.0012089208
000080 39 e3 9b b9 be 07 8f 3b fc fb 23 bb b8 f6 c0 3a
       -0.00029733198 0.0043649366 -0.002502202 0.0014721965
000090 66 4c f0 3a 94 4f 5a 3b e9 02 ce ba 56 45 c3 ba
       0.0018333315 0.0033311592 -0.001571742 -0.0014897983
0000a0 a0 09 0d bb fd c4 db bb 76 56 09 bb de 18 97 bb
       -0.002152063 -0.0067068324 -0.0020956076 -0.0046111187
0000b0 9b 39 89 3a 2b bb de b9 ab 1d 87 ba d4 a1 c9 3b
       0.0010469438 -0.0004248259 -0.0010308524 0.0061533246
0000c0 74 19 29 3a 2a ae ea ba b9 58 00 bb fb b0 4d bb
       0.0006450631 -0.0017904688 -0.0019584133 -0.0031386006
0000d0 52 51 85 ba 99 4f 42 bc d0 1a 17 bc f9 66 26 3c
       -0.001017133 -0.011859798 -0.009222701 0.0101563865
0000e0 2c 7e ff ba af ad a7 ba 4b 4a 88 3b 25 28 89 bb
       -0.0019492558 -0.0012792851 0.004159247 -0.004185694
0000f0 c3 6b 6a ba c3 4a 03 bb 3f fa d8 3b e9 99 09 3b
       -0.00089424493 -0.0020033575 0.0066216285 0.0020996279
