models/GOOGL.pth (torch, 84126 bytes, 33 tensors)

shared.0.weight f4 [64, 20]
0	0xbc8d185a	-0.017223526
1	0xbdac25e1	-0.08405662
2	0x3ce83ae5	0.028348396
3	0x3e044e72	0.1292055
4	0xbb02e187	-0.001997085
5	0x3e05e91c	0.13077205
6	0xbd83a06e	-0.06427084
7	0xba6c3456	-0.0009010484
8	0xbe043867	-0.12912141
9	0x3b8d0c5d	0.0043044523
10	0x3db9eadc	0.09077999
11	0xb9cec1d6	-0.000394358
12	0xba368752	-0.00069629133
13	0x39762409	0.00023473812
14	0x3aac7447	0.0013157212
15	0x3dafdf38	0.085874975
16	0xbe05f3a4	-0.13081223
17	0xba94a2bc	-0.0011340003
18	0xbc1c5ecc	-0.009544086
19	0x3e0dbe15	0.13842042
20	0x3cebee64	0.028800197
21	0x3df041e8	0.117313206
22	0x3b8eeb8c	0.0043615755
23	0x3e03e2a8	0.12879431
24	0xbd741d83	-0.059598457
25	0x3d524998	0.051339716
26	0x3db6b189	0.08920581
27	0x3d5dc490	0.054142535
28	0xbdaf6815	-0.08564774
29	0xbddfff50	-0.10937369
30	0xbe381545	-0.17976864
31	0xbdab8ac9	-0.083760805
32	0xbb913b5f	-0.0044321264
33	0x3e11b1fb	0.1422805
34	0xbdc8cc4a	-0.0980459
35	0x3e052615	0.13002808
36	0xbde6c1db	-0.11267444
37	0xbe41daab	-0.18931071
38	0x3ceac85f	0.028659998
39	0x3d2ca9d5	0.042154152
40	0x3dcb6916	0.09932153
41	0xbe18fe19	-0.1494068
42	0x3db05b05	0.086111106
43	0x3da8cbc3	0.082419895
44	0x3e1b0c22	0.15141347
45	0xbde87b32	-0.11351623
46	0xbd95f510	-0.073221326
47	0x3b221626	0.002473244
48	0x3d4f8c17	0.05067071
49	0x3dbb6154	0.09149423
50	0xbe0e97a2	-0.13925031
51	0xbcca4ad2	-0.02469388
52	0x3da1b7b7	0.07896369
53	0xbe145a93	-0.14487676
54	0x3d9869e3	0.07442071
55	0xbdf799d4	-0.12089887
56	0xbc4d7943	-0.012541118
57	0xbe2127b2	-0.15737799
58	0xbe07c7cb	-0.13259809
59	0x3c968249	0.018372672
60	0x3e105f0d	0.14098759
61	0xbad1d5a5	-0.0016009106
62	0xbd3e95b1	-0.046529476
63	0x3e09bb3b	0.13450329
64	0xbb42a897	-0.0029702538
65	0xbc3fe04f	-0.011711194
66	0xbc0f5b9e	-0.008749871
67	0xbe1a6b7d	-0.15080066
68	0x3c369447	0.0111437505
69	0xbdc144c4	-0.09436944
70	0xbe050d2e	-0.12993309
71	0xbd8598a3	-0.06523254
72	0x3de86a05	0.113483466
73	0x3d29ae79	0.041426156
74	0xbb13af23	-0.002253481
75	0xbdf48d8b	-0.1194106
76	0x3df683bd	0.12036846
77	0xbe14316f	-0.14471982
78	0xbd909f59	-0.07061643
79	0xbd8c722a	-0.068577126
80	0xbe10e864	-0.1415115
81	0x3cbf8082	0.023376707
82	0x3e170b56	0.14750418
83	0xba8056b6	-0.0009791467
84	0x3d097831	0.03356189
85	0xbd9d6ed8	-0.076871574
86	0xbd2f9557	-0.04286703
87	0xbd0c940b	-0.034320872
88	0xbaf96911	-0.0019028505
89	0xbe0b076f	-0.13577054
90	0x3e07a0c4	0.13244921
91	0x3dec5816	0.115402386
92	0x3e08062e	0.13283607
93	0xbd6fd275	-0.058550317
94	0x3d41e84b	0.047340672
95	0x3d55b484	0.052174106
96	0xbdaf0d11	-0.08547414
97	0xbd33b492	-0.043873377
98	0xbe14697f	-0.14493369
99	0xbe069b14	-0.13145095
100	0x3d6bccb6	0.057568274
101	0x3d015ed9	0.031584594
102	0x3d0fa1c3	0.035066377
103	0x3d51529f	0.051104184
104	0xbb0f020e	-0.0021821293
105	0xbe1de133	-0.15417938
106	0x3e18ed9c	0.14934391
107	0x3c58e923	0.013239178
108	0x3c163f7e	0.009170411
109	0x3b59123a	0.0033122436
110	0x3e2db49c	0.16963428
111	0xbdcf9204	-0.10135272
112	0x3c0d88f2	0.008638607
113	0xb49906ac	-2.8503325e-07
114	0x3dacf0b0	0.08444345
115	0xbb56e0d9	-0.0032787828
116	0x3d94b387	0.072608046
117	0xbdfb4376	-0.122687265
118	0xbdb842a8	-0.08997089
119	0xbcdda152	-0.027054463
120	0xbe15fb37	-0.14646612
121	0x3cd5380f	0.026027707
122	0xbad42cbb	-0.0016187647
123	0xbdb36503	-0.08759501
124	0x3d950236	0.07275812
125	0xbd2f6a10	-0.04282576
126	0x3c07eff8	0.008296959
127	0x3b62e4ce	0.0034621242
128	0x3db4354c	0.08799228
129	0x3de3f5c8	0.111308634
130	0x3d34727b	0.04405449
131	0xbdc5f172	-0.09665193
132	0xbde1f61b	-0.11033269
133	0x3796600d	1.792612e-05
134	0x3c1c32bd	0.009533581
135	0x3c6392a5	0.013889943
136	0x3d8c71fb	0.068576775
137	0xbcbee798	-0.023303792
138	0xbdfb2973	-0.12263765
139	0x3babc4ab	0.0052419505
140	0x3e0a964d	0.13533898
141	0x3b7dec82	0.0038745706
142	0xba0852b4	-0.0005200312
143	0x3d6e6574	0.058202222
144	0xbe120078	-0.14257991
145	0xbe041e1a	-0.12902108
146	0xbd1f029a	-0.03882084
147	0xbda6a142	-0.08136226
148	0x3c30011b	0.010742451
149	0xbdff562f	-0.1246761
150	0xbe1a869c	-0.15090412
151	0xbe181805	-0.14852913
152	0xbbf200a2	-0.0073853293
153	0xbd37c7ab	-0.044868153
154	0x3de2bb7d	0.11070917
155	0xbc0f35cc	-0.0087408535
156	0x3c35645f	0.011071294
157	0xbe132250	-0.14368558
158	0x3d2fae3d	0.042890776
159	0x3e1bc0a5	0.15210207
160	0xbe075eed	-0.13219805
161	0x3da79804	0.081832916
162	0xbdc320e7	-0.0952776
163	0xbcdcbf11	-0.026946576
164	0x3e0ee0c4	0.13952929
165	0xbb6bc333	-0.0035974502
166	0xbdba0839	-0.090835996
167	0x3e12ad0a	0.14323822
168	0x3b96dda0	0.0046040565
169	0xbcdca4f1	-0.026934119
170	0x3e083cc0	0.13304424
171	0xbb87f93f	-0.0041495855
172	0xba6f99e7	-0.00091400597
173	0xbac90127	-0.0015335426
174	0x3c9a0e03	0.01880551
175	0x3dd7409f	0.10510372
176	0x3d5cce33	0.053907584
177	0xbe0ca460	-0.13734579
178	0xbdd3f179	-0.10348792
179	0xbdc1f4d4	-0.094705254
180	0x3e130da6	0.14360675
181	0x3de0dd8a	0.10979755
182	0xbdcb47a3	-0.09925773
183	0x3daada5a	0.083424285
184	0xbdf1c204	-0.11804584
185	0x3c9d4201	0.019196512
186	0x3d71990b	0.058983844
187	0x3dab15ae	0.083537444
188	0xbada4aed	-0.001665441
189	0x3e144743	0.14480309
190	0xbe12dfe2	-0.14343217
191	0xba955baa	-0.0011395116
192	0x3dc99958	0.09843701
193	0xb5c72b75	-1.4839303e-06
194	0xbbe68b0b	-0.007035618
195	0x3c858df7	0.016303046
196	0xbaebe8a7	-0.0017998413
197	0x3dd65b73	0.10466661
198	0xbe0cea73	-0.1376131
199	0x3b063775	0.0020479832
200	0xbc03cd3d	-0.008044538
201	0x3e0e6b3d	0.13908096
202	0xbd090d35	-0.03345986
203	0x3d04fc12	0.032466955
204	0x3da41462	0.080117
205	0x3d5b9837	0.05361196
206	0xbde84e82	-0.11343099
207	0x3c331239	0.010929638
208	0xbae73461	-0.0017639511
209	0xbe07239f	-0.13197182
210	0x3d455f7a	0.048186757
211	0xbab1053e	-0.0013505591
212	0x3d8d4a1f	0.06898903
213	0x3d8ec3f2	0.06970967
214	0xbcb210a9	-0.02173646
215	0xbd2b1d16	-0.041775785
216	0xbb952404	-0.0045514125
217	0x3d4a3f54	0.0493768
218	0xbda173d9	-0.07883424
219	0x3dadeb39	0.08492131
220	0x3c3615e5	0.0111136185
221	0x39e7d9d7	0.00044222057
222	0xbd7b645e	-0.061375014
223	0xbd79e5ae	-0.061010055
224	0x3d0b2ba1	0.033977155
225	0xbcf98913	-0.03046087
226	0xbcbded78	-0.023184523
227	0x3d93c489	0.072152205
228	0x3e03d13d	0.12872787
229	0x3ccc0280	0.024903536
230	0x3c06d2c6	0.008228963
231	0x3d6b10d2	0.057389088
232	0x3d55e44e	0.05221968
233	0xbd9e022c	-0.07715258
234	0x3c94dc4a	0.018171448
235	0x3dbb2aa9	0.09138996
236	0xbaf7b5f4	-0.0018898831
237	0xbd81476b	-0.0631245
238	0xbd8d223f	-0.068912975
239	0x3b373bba	0.0027959184
240	0x2fde9081	4.048424e-10
241	0x3b0b1bd3	0.0021226301
242	0x3b1e0651	0.0024112652
243	0xbe02e5bb	-0.12782948
244	0xbab21ea6	-0.0013589456
245	0xbc61dee0	-0.013786048
246	0x3e14529d	0.1448464
247	0xba89d74f	-0.0010516437
248	0xbd4216fd	-0.047385205
249	0x3d9f2aa6	0.077718064
250	0x3cfdd421	0.03098494
251	0x3dea3c2e	0.114372596
252	0xbe0b50cc	-0.1360504
253	0xbdd3bf34	-0.103392035
254	0xb9859fd6	-0.00025486824
255	0x37a51f8a	1.968422e-05

shared.0.bias f4 [64]
0	0xbdde3f5c	-0.108519286
1	0x3cbb8f1b	0.022895386
2	0xbcb0cc2c	-0.021581732
3	0x3dbefcfa	0.09325595
4	0xbdb241d4	-0.08703962
5	0x3d7fb072	0.06242413
6	0x3dd7cc3d	0.10537002
7	0x3d834ddb	0.06411334
8	0xbc8a7185	-0.016899833
9	0xbd33bf80	-0.0438838
10	0xbd8d27c1	-0.06892348
11	0xbd82fad6	-0.063954994
12	0xbdabf224	-0.08395794
13	0x3d911dd5	0.07085768
14	0x3e40df74	0.1883524
15	0x3e208a29	0.15677704
16	0xbd8e5d9b	-0.069514476
17	0x3e242da5	0.16033037
18	0x3e30cd27	0.1726576
19	0x3e273a50	0.16330838
20	0xbced1eef	-0.028945414
21	0x3d608336	0.054812633
22	0xbbbc9703	-0.0057553067
23	0xbc6924da	-0.0142299775
24	0xbe108b5f	-0.14115666
25	0x3e30345c	0.17207474
26	0xbb3b93af	-0.0028621962
27	0x3cf64dad	0.030066336
28	0xbd8648b1	-0.065568335
29	0x3b7f5d49	0.0038965514
30	0xbd29bb24	-0.041438237
31	0x3dc964c4	0.09833673
32	0x3e557235	0.20844348
33	0x3dbe74ad	0.09299598
34	0x3e430291	0.19043948
35	0x3d77abd3	0.0604666
36	0xbb09dd36	-0.0021036393
37	0xbd861f34	-0.0654892
38	0xbd8671cc	-0.06564674
39	0x3e167e06	0.14696512
40	0x3e0059ab	0.12534206
41	0xbe0a1add	-0.1348681
42	0x3d9db97c	0.07701394
43	0x3d9deaee	0.07710825
44	0x3e4881c5	0.19580753
45	0x3b87a40e	0.00413943
46	0x3e4ca819	0.19985999
47	0xbda9ae6b	-0.08285221
48	0x3e118154	0.14209491
49	0x3d5fd8c4	0.054650083
50	0xbe08350a	-0.13301483
51	0x3df70a79	0.120625444
52	0xbcdfa996	-0.027302545
53	0xbd2e491f	-0.042550202
54	0x3e6375c3	0.22212891
55	0x3dc9a508	0.0984593
56	0xbd76d05a	-0.060257293
57	0x3da1d3ec	0.07901749
58	0x3d929e9b	0.07159158
59	0x3dc6fd0b	0.09716233
60	0xbdfc6f0d	-0.12325869
61	0xbde8c1de	-0.11365102
62	0xbd81fd64	-0.063471586
63	0xbd85f6d7	-0.065412216

shared.1.weight f4 [64]
0	0x3f6cbc12	0.9247447
1	0x3f6d071e	0.92588985
2	0x3f6cb702	0.9246675
3	0x3f6cb8fc	0.92469764
4	0x3f6cbc12	0.9247447
5	0x3f6cf5fc	0.9256284
6	0x3f6ce64c	0.92538905
7	0x3f6dde4e	0.92917335
8	0x3f6ce597	0.92537826
9	0x3f6cbc15	0.9247449
10	0x3f6cba63	0.92471904
11	0x3f6cbc12	0.9247447
12	0x3f6cbb18	0.9247298
13	0x3f6cd744	0.9251597
14	0x3f705ea3	0.93894404
15	0x3f6e5860	0.931036
16	0x3f6cbc12	0.9247447
17	0x3f6f88df	0.93568224
18	0x3f6ccf8e	0.92504203
19	0x3f6c85ef	0.92391866
20	0x3f6cc3f3	0.92486495
21	0x3f6cc510	0.92488194
22	0x3f6cc7a5	0.92492133
23	0x3f6cc27b	0.92484254
24	0x3f6cbc12	0.9247447
25	0x3f6c3dd7	0.9228186
26	0x3f6d0b0f	0.92595
27	0x3f6ebae6	0.93253934
28	0x3f6d1872	0.92615426
29	0x3f6cc82a	0.92492926
30	0x3f6cdac1	0.9252129
31	0x3f6d30fe	0.9265288
32	0x3f6d5e73	0.92722243
33	0x3f6cb633	0.92465514
34	0x3f6e1156	0.929952
35	0x3f6d5b31	0.9271727
36	0x3f6cda6b	0.9252078
37	0x3f6cbbfe	0.92474353
38	0x3f6cbc12	0.9247447
39	0x3f6d77a5	0.9276069
40	0x3f6d6754	0.9273579
41	0x3f6cbc3e	0.92474735
42	0x3f6dfb91	0.92961985
43	0x3f6d3018	0.9265151
44	0x3f6e5889	0.93103844
45	0x3f6cbc0e	0.9247445
46	0x3f6d1e1c	0.9262407
47	0x3f6d2dc4	0.9264796
48	0x3f6e5c97	0.9311003
49	0x3f6cecaa	0.9254862
50	0x3f6cc175	0.9248269
51	0x3f6d3e12	0.92672837
52	0x3f6cbcfa	0.92475855
53	0x3f6ce723	0.92540187
54	0x3f6d2b35	0.92644054
55	0x3f6d6cde	0.92744243
56	0x3f6cbc12	0.9247447
57	0x3f6d78a2	0.92762196
58	0x3f6f48c4	0.93470407
59	0x3f6d1362	0.926077
60	0x3f6cbc12	0.9247447
61	0x3f6cbc12	0.9247447
62	0x3f6d0507	0.92585796
63	0x3f6d4046	0.926762

shared.1.bias f4 [64]
0	0x00000000	0.0
1	0x3c4cdcbd	0.0125038
2	0x39e545ae	0.000437302
3	0xbb8fe94c	-0.004391825
4	0x336c3674	5.4997557e-08
5	0xbc72a8d8	-0.014810763
6	0xbba75695	-0.005106757
7	0x3ab8aa64	0.0014088866
8	0x3b4b3d60	0.0031011924
9	0xb4adce50	-3.2373873e-07
10	0xbadfbceb	-0.0017069852
11	0x00000000	0.0
12	0x39e238b6	0.00043148332
13	0x3c97d19c	0.018532567
14	0xbc3d473c	-0.011552628
15	0x3b3bb4de	0.002864174
16	0x00000000	0.0
17	0xbacbfb1d	-0.0015562508
18	0xbc5f4765	-0.013627862
19	0xbcae5ef5	-0.021285513
20	0xbabf8e4d	-0.0014614552
21	0x3c0cf152	0.008602457
22	0x3c92d242	0.017922524
23	0xba8720cf	-0.001030946
24	0x00000000	0.0
25	0xb9c8db78	-0.0003831049
26	0xbc316a52	-0.010828571
27	0x3b890880	0.0041819215
28	0x3c93149e	0.017954167
29	0x3c956446	0.01823629
30	0x3c901942	0.017590169
31	0xbbd6769f	-0.0065449025
32	0xbb489804	-0.0030608186
33	0xbc272c65	-0.010203456
34	0xbbe4c92c	-0.0069819894
35	0xbb0e79f7	-0.0021740177
36	0xbb5c9f47	-0.0033664273
37	0xb91557f1	-0.00014242508
38	0x00000000	0.0
39	0xbc430ac0	-0.0119044185
40	0xbc85dcd2	-0.016340647
41	0x3c11514b	0.008869479
42	0x39c1e27e	0.00036980578
43	0x3cc33cb0	0.023832649
44	0x3c9e27ff	0.019306181
45	0xb1866108	-3.9109445e-09
46	0x3b969be0	0.0045962185
47	0x3bb50acc	0.0055249687
48	0xbc13cb1a	-0.009020591
49	0x3cacc442	0.021089677
50	0xbb970bfa	-0.004609582
51	0x3c23265f	0.009957879
52	0xbaa41df1	-0.001252113
53	0xbbb5112e	-0.0055257296
54	0x3ca41e53	0.020033991
55	0xbc50761f	-0.012723475
56	0x00000000	0.0
57	0xbc46fea1	-0.012145669
58	0xbc30837e	-0.010773538
59	0x3bce1b6b	0.0062898896
60	0x00000000	0.0
61	0x00000000	0.0
62	0x3cf0d0b5	0.029396394
63	0x3d0a1a9d	0.033716787

shared.4.weight f4 [64, 64]
0	0xbc8705a9	-0.016482191
1	0x3d46648c	0.048435733
2	0x3b4cc4e8	0.0031245295
3	0xbd742560	-0.059605956
4	0x3bb2835c	0.005447788
5	0x3d612ec2	0.054976232
6	0xbbb7d7c1	-0.0056104367
7	0xbd8b23b6	-0.06793921
8	0xbd941e66	-0.072323605
9	0x3cd638d9	0.026150154
10	0xbb44164e	-0.0029920521
11	0xbd55e13b	-0.05221675
12	0xbd5c6395	-0.053805906
13	0x3d605e8b	0.054777663
14	0xbc8efe33	-0.017455196
15	0x3df66678	0.12031263
16	0x39630bce	0.00021652805
17	0x3d35dc8b	0.04439978
18	0x3d7390c6	0.05946424
19	0x3ddd21cc	0.10797462
20	0x3c4792f4	0.012181032
21	0x3cc83579	0.02443956
22	0x3d411c7a	0.047146298
23	0xbca3c91b	-0.019993355
24	0xbd5be878	-0.053688496
25	0xbdc773c1	-0.09738875
26	0x3d4fd472	0.050739713
27	0xbda0a4ec	-0.07843956
28	0x3b91ea0a	0.0044529485
29	0xbd59a59a	-0.053136446
30	0xbcff66d1	-0.031176956
31	0xb9c7f2b0	-0.00038137054
32	0x3cf4910f	0.029854326
33	0xbd7000c6	-0.058594488
34	0x3d28e3d7	0.04123291
35	0x3de23762	0.1104572
36	0x3d0a2e02	0.033735283
37	0x3d20f7b7	0.03929874
38	0xb2aa38ad	-1.9816378e-08
39	0xbc6a1f12	-0.014289634
40	0xbdcf851e	-0.10132812
41	0xbd447d07	-0.047970798
42	0xbd96ccf2	-0.07363309
43	0x3d80aaa4	0.06282547
44	0x3d075dc0	0.03304839
45	0x3d3005e5	0.04297437
46	0xbcdb6f43	-0.026786452
47	0x3db20520	0.08692384
48	0x3d66631c	0.05624686
49	0x3d66c633	0.05634136
50	0x3d66cfa3	0.05635036
51	0xbc4ddac2	-0.012564363
52	0x3ba1dfab	0.0049399934
53	0xbd302709	-0.043005977
54	0xbd84c964	-0.06483725
55	0x3db00ebb	0.085965596
56	0xbd2cbe8e	-0.042173915
57	0xbb0aeb97	-0.0021197551
58	0x3c4bc038	0.012435965
59	0xbdc412d5	-0.095739044
60	0x3b065425	0.0020496931
61	0x32ad904a	2.0205466e-08
62	0xbd2a783b	-0.041618567
63	0x3d69ce4e	0.057081513
64	0x3c0d82e6	0.008637166
65	0xbd2749f2	-0.040842004
66	0x3d753271	0.059862558
67	0xbc4b35b4	-0.012402941
68	0x3d7023a7	0.05862775
69	0x3dcd66a2	0.10029341
70	0xbcb0499f	-0.02151948
71	0xbda70671	-0.081555255
72	0x3d2f1d56	0.042752586
73	0xbcb8768c	-0.022517465
74	0x3d32696f	0.04355758
75	0x39908745	0.00027566604
76	0x3d579336	0.052630626
77	0x3db043a8	0.086066544
78	0x3aed62d1	0.0018111115
79	0xbc170b31	-0.009218977
80	0xbc7d7ab5	-0.01547115
81	0x3cba1106	0.022713196
82	0x3d939125	0.072054185
83	0x3d316be6	0.04331579
84	0x3c9a5196	0.018837731
85	0x3d12b444	0.035816446
86	0x3c7f3020	0.015575439
87	0x3d26af78	0.040694684
88	0xbd532338	-0.05154726
89	0x3de26aea	0.110555485
90	0xbcaa560f	-0.020792989
91	0xbd59c503	-0.0531664
92	0xbc10362a	-0.008801976
93	0x3d0b1d73	0.03396363
94	0x3c19f492	0.009396689
95	0xbcbba513	-0.022905862
96	0x3d316a71	0.0433144
97	0x3ba5c83e	0.005059271
98	0x3da387fd	0.07984922
99	0x3decdf86	0.11566071
100	0x3a81edb5	0.0009912761
101	0x3c1189bc	0.008882936
102	0xbc1c4bc0	-0.009539545
103	0xbdace466	-0.08442001
104	0xbd86b33b	-0.06577154
105	0x3db9511c	0.090486735
106	0xbd5ba1ad	-0.053620983
107	0x3c9ad17b	0.018898716
108	0x3d37d46c	0.044880316
109	0xb48bc8cd	-2.603687e-07
110	0xbd8b7294	-0.068089634
111	0x3ceb28b2	0.028705928
112	0xbc1feb46	-0.009760683
113	0x3d473469	0.048633967
114	0xb9126eed	-0.00013964968
115	0x3d8be9d9	0.06831712
116	0xbcbc0f1e	-0.022956427
117	0xbd751f26	-0.05984416
118	0x3dc81e3e	0.09771393
119	0x3dd04dc4	0.101710826
120	0x3a468c1a	0.00075739773
121	0xbd9bc007	-0.07604986
122	0xbdc96979	-0.098345704
123	0x3d382b70	0.0449633
124	0xbb2de3a2	-0.0026533385
125	0x3c2e2d9e	0.010630993
126	0xbd3b1e1a	-0.045683004
127	0x3cc14724	0.023593493
128	0x316e99c4	3.4720964e-09
129	0x3d5395a5	0.051656384
130	0x3c73761e	0.014859704
131	0xbc805bed	-0.015668834
132	0x3c43fc69	0.011962035
133	0xbc121179	-0.008915299
134	0xbd52f004	-0.051498428
135	0xbd168220	-0.03674519
136	0xbb161e92	-0.0022906405
137	0x3bbeb214	0.0058195684
138	0xb6e0bb25	-6.6975067e-06
139	0x3d06a260	0.032869697
140	0x3afaa2ce	0.0019122006
141	0x3d841fa7	0.0645135
142	0x3cba13c2	0.0227145
143	0x3d89391d	0.067003466
144	0x3cb316fd	0.021861548
145	0x3c0a69d4	0.008448083
146	0x3c447499	0.01199069
147	0xbb512e88	-0.0031918604
148	0xbd33ee4f	-0.04392844
149	0xbcbe3a00	-0.023221016
150	0xba11a4ba	-0.0005555857
151	0xbd38c47c	-0.045109257
152	0xb4481eaa	-1.8637607e-07
153	0xbc53dc7c	-0.012930986
154	0xbd7d0ca0	-0.06177962
155	0xbcd562a4	-0.026048012
156	0xba63b2bc	-0.0008685996
157	0x3b150ce4	0.002274328
158	0xbc9e4146	-0.019318234
159	0xbc874ddb	-0.016516617
160	0xbd3bda7b	-0.045862656
161	0x3d1a5da1	0.037686948
162	0xbc631520	-0.013860017
163	0xbb8fd47c	-0.004389344
164	0xbc8e515d	-0.017372781
165	0x3b1519f8	0.0022751074
166	0xb3183196	-3.5435356e-08
167	0x3d9b0396	0.07569043
168	0xbc28eaac	-0.010309856
169	0x3ae522a5	0.0017481638
170	0xbd6f214e	-0.05838137
171	0xbceaccee	-0.028662171
172	0xbd7e43f3	-0.06207652
173	0xb8a4d519	-7.859822e-05
174	0x3d6825ea	0.056676783
175	0x3c744b86	0.014910584
176	0xbd4a3e86	-0.049376033
177	0x39701fd6	0.00022900043
178	0x3d70f53e	0.05882763
179	0xbbe3751f	-0.006941452
180	0xbd1e5494	-0.03865488
181	0xbb6a3c48	-0.0035741497
182	0xbd5cd897	-0.053917494
183	0xbc0f01e3	-0.008728477
184	0x3c299ab4	0.0103518255
185	0x3c1cbca6	0.009566462
186	0x3c16ff03	0.009216073
187	0x3c1de104	0.009636167
188	0x3d6237bb	0.05522893
189	0xb20759b2	-7.878429e-09
190	0x3cdeba31	0.027188392
191	0xbcb832c9	-0.022485154
192	0x3315bc4f	3.486303e-08
193	0x3d43d1fb	0.047807675
194	0xbcbae322	-0.022813383
195	0x3d1b8055	0.037964184
196	0xb38b085c	-6.4742125e-08
197	0x39247bd0	0.00015686383
198	0x3d169e14	0.03677185
199	0xbd5b65d4	-0.053563908
200	0x3be3b1de	0.0069486937
201	0x38321f34	4.2467567e-05
202	0x3d402322	0.046908505
203	0x33654967	5.3384976e-08
204	0x3d1339de	0.03594386
205	0xbd4925da	-0.049108364
206	0x3d64321a	0.055711843
207	0x3d922af6	0.071371004
208	0x3b562c9d	0.00326804
209	0xbc9098e1	-0.017651023
210	0xbc0ee5f3	-0.008721816
211	0xbda93d46	-0.0826364
212	0x3d0cdd87	0.034390952
213	0xbcba0602	-0.022707943
214	0x3cd683f8	0.026185974
215	0x3c5d5d22	0.013510974
216	0x3cc0cbc1	0.023534657
217	0x3d05ae28	0.03263679
218	0xbd9825a2	-0.07429053
219	0xbd3e7fd8	-0.04650864
220	0x3ce9700f	0.028495817
221	0xbd3f16a7	-0.046652462
222	0x3bda0342	0.0066532204
223	0xbd2add57	-0.041714992
224	0x3d81f14a	0.0634485
225	0x3daae5d0	0.083446145
226	0xbd8f89b8	-0.0700869
227	0xbdc130bf	-0.09433126
228	0xbbd8160f	-0.0065944265
229	0xbb222779	-0.0024742766
230	0xbd612009	-0.05496219
231	0x3c7fe2c1	0.015618027
232	0x3ccc06b7	0.024905546
233	0x3d244a01	0.040109638
234	0xbd23aee3	-0.039961707
235	0xbc697cc2	-0.014250936
236	0xbdc96aae	-0.09834801
237	0x3d5281d2	0.051393338
238	0x3d3121ff	0.04324531
239	0xbda3b4a2	-0.07993437
240	0x3d6d1648	0.057882577
241	0xbbec294c	-0.0072070714
242	0xb98c3f91	-0.00026750242
243	0x3c1f3e92	0.009719508
244	0x3c1b1d62	0.009467455
245	0xbd7fadf8	-0.06242177
246	0xbd9b6cdc	-0.07589123
247	0x3cac3ddd	0.021025592
248	0xbc9fca99	-0.019505786
249	0xba4178f9	-0.0007380392
250	0xbcd39d92	-0.025831971
251	0xbcb9514e	-0.022621777
252	0x3c7b036e	0.015320642
253	0x2fe84e54	4.225621e-10
254	0xba5f16c9	-0.000851017
255	0xbc5448ae	-0.012956781

shared.4.bias f4 [64]
0	0xbda0d553	-0.07853188
1	0x3cd44928	0.02591379
2	0xbd08953c	-0.033345446
3	0xba6a1d63	-0.00089307706
4	0x3d949374	0.07254687
5	0x3d68b1e0	0.05681026
6	0xbdaa35b5	-0.08311025
7	0x3d0afdb9	0.033933375
8	0x3cd760bd	0.026291246
9	0xbc4f1cca	-0.012641141
10	0xbc785830	-0.015157744
11	0x3acc56ba	0.0015589811
12	0x3c1d73f4	0.009610165
13	0xbcaa049c	-0.020754151
14	0x3d6b6163	0.057465922
15	0xbd5e7ef0	-0.054320276
16	0x3c41c37d	0.011826393
17	0x3cbc4671	0.022982808
18	0x3d5b4689	0.053534064
19	0xbd8e1b9b	-0.06938859
20	0x3d4fdc35	0.050747115
21	0x3cac0cc6	0.021002185
22	0x3d87b268	0.06625825
23	0xbcda6d3e	-0.026663419
24	0xbd81e1a9	-0.063418694
25	0xbc24d1a5	-0.010059749
26	0x3d835cee	0.06414209
27	0x3b881a1b	0.0041535026
28	0xbc10a54a	-0.0088284705
29	0xbd056d3a	-0.03257487
30	0x3daab94c	0.08336124
31	0xbce31e0c	-0.027724288
32	0xbc4daa54	-0.012552816
33	0xbd807110	-0.06271565
34	0x3d299cb1	0.0414092
35	0x3dd22245	0.10260443
36	0x3d5ca1cb	0.053865235
37	0x3c4bd441	0.012440742
38	0x3c6d0b53	0.014468032
39	0x3de08099	0.10962028
40	0xbd0c9cf2	-0.034329362
41	0x3cdc660d	0.02690413
42	0x3cdb4e84	0.026770838
43	0x3dc0c230	0.09412038
44	0xbc286eae	-0.010280294
45	0xbd06ca9d	-0.03290807
46	0x3c8b39c0	0.01699531
47	0xbce5cd8f	-0.02805212
48	0x3d3dc306	0.046328567
49	0x3b9b8bbf	0.0047468836
50	0x3d91d170	0.07120025
51	0x3dae09a3	0.08497932
52	0xbaba8217	-0.0014229444
53	0x3dca5f58	0.098814666
54	0x3d48d77d	0.04903363
55	0xbd00b088	-0.031418353
56	0x3d5015f4	0.050802186
57	0x3c94acda	0.018148828
58	0x3d78e437	0.060764518
59	0xb9be9290	-0.00036348822
60	0xbd0a7f11	-0.033812586
61	0x3d746b6c	0.059672758
62	0xbda7e700	-0.08198357
63	0xbd049008	-0.03236392

shared.5.weight f4 [64]
0	0x3f6e931e	0.93193233
1	0x3f6d9cd5	0.9281743
2	0x3f6cc419	0.9248672
3	0x3f6cd31f	0.92509645
4	0x3f6d19bb	0.92617387
5	0x3f6f87cd	0.9356659
6	0x3f6d86d4	0.92783856
7	0x3f6cdf68	0.9252839
8	0x3f6d486a	0.9268862
9	0x3f7232fd	0.9460905
10	0x3f6cbb2e	0.92473114
11	0x3f6cba31	0.92471606
12	0x3f6ceb01	0.9254609
13	0x3f6d32bc	0.9265554
14	0x3f6cca81	0.92496496
15	0x3f6ceaa7	0.9254555
16	0x3f7144ca	0.9424559
17	0x3f6cd1d3	0.92507666
18	0x3f71c7a2	0.9444524
19	0x3f6cd48a	0.9251181
20	0x3f6cf425	0.92560035
21	0x3f6cbac0	0.9247246
22	0x3f6cb7c8	0.9246793
23	0x3f6ce7a2	0.92540944
24	0x3f71c603	0.94442767
25	0x3f6d14d0	0.9260988
26	0x3f6d8f0a	0.92796385
27	0x3f6ce646	0.9253887
28	0x3f6cc469	0.924872
29	0x3f6cc48b	0.924874
30	0x3f6cefd1	0.9255343
31	0x3f6cbba1	0.924738
32	0x3f6d5405	0.9270633
33	0x3f6cb82a	0.9246851
34	0x3f6ce146	0.9253124
35	0x3f729aeb	0.94767636
36	0x3f6cbaf4	0.9247277
37	0x3f6cb5ec	0.9246509
38	0x3f6eebfb	0.9332883
39	0x3f7080da	0.9394661
40	0x3f6cb822	0.92468464
41	0x3f6ca756	0.92442834
42	0x3f6f28ce	0.9342164
43	0x3f6ceb28	0.9254632
44	0x3f6d5dd2	0.92721283
45	0x3f6cc815	0.924928
46	0x3f6cbc48	0.92474794
47	0x3f6d878b	0.9278495
48	0x3f6d009d	0.9257906
49	0x3f6cbbde	0.9247416
50	0x3f71e188	0.9448476
51	0x3f6ced55	0.9254964
52	0x3f6cf885	0.9256671
53	0x3f6d1c35	0.92621166
54	0x3f6cd003	0.925049
55	0x3f6f8032	0.93554986
56	0x3f6cc90e	0.92494285
57	0x3f7081d1	0.93948084
58	0x3f6dfeb6	0.92966783
59	0x3f6cb3fe	0.92462146
60	0x3f6cb323	0.9246084
61	0x3f6d3d01	0.9267121
62	0x3f6dd014	0.9289563
63	0x3f6d2bc3	0.926449

shared.5.bias f4 [64]
0	0x3b3627d0	0.0027794726
1	0x3c26d15d	0.010181752
2	0x3b95f8ed	0.0045767934
3	0xbc14b1d1	-0.009075598
4	0xbc12e308	-0.008965261
5	0x3bbaa5c0	0.0056960285
6	0xbbc9b9ca	-0.006156181
7	0x3bc2ac78	0.00594097
8	0x3b4eb323	0.003153988
9	0x3c13a2a3	0.009010944
10	0xbb4d8adf	-0.0031363291
11	0x3bc9c59a	0.006157589
12	0xbc361073	-0.01111232
13	0xbbf42628	-0.0074508376
14	0xb8ed246c	-0.00011307825
15	0xbc114245	-0.008865898
16	0xbc350ac8	-0.011049934
17	0x3c1819a9	0.009283462
18	0x3b6d500e	0.0036211046
19	0xbb0b8cd3	-0.0021293655
20	0x3c94e1ee	0.018174138
21	0xbc221467	-0.00989256
22	0xbb6a7938	-0.0035777818
23	0xbc571bb1	-0.013129161
24	0x3b2ed4a3	0.0026677034
25	0xbc06aaac	-0.008219402
26	0x3cbb6f9b	0.022880366
27	0x3c7abe76	0.0153041985
28	0x3be4e6ee	0.006985537
29	0x3c1fa1c2	0.009743156
30	0x3c17e34d	0.009270501
31	0xba11fbd7	-0.0005568838
32	0x3c986cdf	0.018606601
33	0xbb893ec1	-0.004188389
34	0xbc275a25	-0.010214363
35	0xbc5a2c87	-0.01331628
36	0xb99da92e	-0.00030071422
37	0xbb02d472	-0.0019963053
38	0x3c4c83dc	0.01248261
39	0x3b6fb210	0.003657464
40	0xba968741	-0.0011484401
41	0xbb4d7d4e	-0.0031355205
42	0x3c10a2eb	0.008827905
43	0xbc0fb3da	-0.008770907
44	0xbb0f04c5	-0.0021822911
45	0xbbf948d3	-0.0076075583
46	0x38280d2e	4.0066596e-05
47	0x3c279f04	0.010230783
48	0x39714fda	0.00023013298
49	0xbab5766f	-0.00138445
50	0x3b9e3553	0.004828134
51	0xbc0705e0	-0.008241147
52	0xbbafe1b6	-0.005367483
53	0x3b369175	0.0027857695
54	0x3a61aa4c	0.0008608445
55	0xbc2d08df	-0.010561197
56	0x3a887978	0.0010412177
57	0xbc4d1cc8	-0.012519069
58	0xbc908bac	-0.017644726
59	0xbb006383	-0.0019590564
60	0xbba11f8f	-0.004917092
61	0xbc0cad76	-0.008586278
62	0x3c832d89	0.016012924
63	0xbb079669	-0.0020689017

actor.0.weight f4 [3, 64]
0	0xbbacb67b	-0.005270777
1	0xbbd99ec4	-0.006641241
2	0xbcd5e709	-0.026111143
3	0xbcf7a403	-0.030229574
4	0x3d5c62d0	0.053805172
5	0x3ce87a64	0.028378673
6	0xbd9b7f5d	-0.07592652
7	0xbc769fa9	-0.015052714
8	0x3ccf3828	0.025295332
9	0xbcea5931	-0.028606983
10	0x3ac18a2a	0.0014765908
11	0xbd5c58ff	-0.05379581
12	0xbd1a17f2	-0.037620492
13	0xbd9bbfb8	-0.07604927
14	0x3d14f0da	0.036362506
15	0xbd488929	-0.04895893
16	0xbd63937a	-0.055560566
17	0xbd498503	-0.049199115
18	0x3ce4faf0	0.027951688
19	0x3d55a447	0.05215862
20	0xbd0d1ccf	-0.034451302
21	0x3d66879d	0.056281675
22	0xbc8810e8	-0.016609624
23	0xbd51b183	-0.05119468
24	0xbd9f370b	-0.077741705
25	0x3d7deae7	0.0619916
26	0x3b633f59	0.003467521
27	0x3d2984f2	0.041386552
28	0xbd106b52	-0.0352586
29	0xba6035ad	-0.000855292
30	0xbc5474b7	-0.01296728
31	0xbcf0ac18	-0.029378936
32	0x3c858d7d	0.016302818
33	0xba39dbfe	-0.00070899713
34	0xbd81d46b	-0.06339344
35	0x3d1d6bc0	0.038432837
36	0xbd376459	-0.044773433
37	0xbbb03255	-0.005377094
38	0x3d1e5a2c	0.038660213
39	0x3d8be19e	0.068301424
40	0xba812ce2	-0.0009855295
41	0x3aefe9dd	0.001830395
42	0xbbb4c889	-0.0055170697
43	0xbd9a370e	-0.07530032
44	0xbc377bbf	-0.011198937
45	0xbd415f1d	-0.047209848
46	0x3bc49288	0.005998913
47	0x3d3b6fba	0.045760848
48	0x3d179952	0.037011452
49	0xba9e6b16	-0.0012086357
50	0x3bd5dab4	0.0065263156
51	0xbcda3335	-0.026635746
52	0x3c87c227	0.016572071
53	0xbd180880	-0.03711748
54	0xbc935a98	-0.017987534
55	0x3bd3d87e	0.006465017
56	0xba5f78b1	-0.00085247593
57	0xbdd71e2f	-0.10503804
58	0x3c8cde81	0.017195942
59	0x3bde4527	0.006783146
60	0xbc8f57c6	-0.017497908
61	0xbc067070	-0.008205518
62	0xbd557d19	-0.052121256
63	0xbd0c47cb	-0.034248155
64	0x3aa807de	0.0012819727
65	0xbca234e1	-0.019800605
66	0x3cbe76b6	0.023249965
67	0xbd5153cd	-0.05110531
68	0xbbb643b3	-0.0055622696
69	0xbd10c9b5	-0.035348613
70	0xbcfbecd6	-0.03075258
71	0xbd6740fa	-0.05645845
72	0x3daa0fe3	0.083038114
73	0x3a954d36	0.0011390809
74	0xbb5f2f3d	-0.0034055256
75	0x3d9ddc00	0.07707977
76	0xbbc89f93	-0.0061225384
77	0x3d2e3e21	0.04253972
78	0xbcfcceeb	-0.030860385
79	0x3d0039be	0.031305067
80	0x3d140f95	0.036147673
81	0x3cf22667	0.029559327
82	0x3da21576	0.079142496
83	0xbd67e0ec	-0.056610987
84	0x3ce94f75	0.02848027
85	0xbbf385f3	-0.0074317395
86	0xbb9d33fe	-0.0047974577
87	0xbb65fb85	-0.0035092544
88	0x3c083588	0.008313544
89	0xbd810662	-0.063000455
90	0x3ce81049	0.028328078
91	0x3de1dbce	0.110282525
92	0x3c10be5f	0.0088344505
93	0xbc6f8e70	-0.014621362
94	0x3bf91b6c	0.007602146
95	0xbbca3dfa	-0.006171939
96	0x3d34b00e	0.04411321
97	0xbc13b871	-0.009016142
98	0xbd26360b	-0.040578883
99	0xbcd29c28	-0.025709227
100	0xbc992b0a	-0.01869728
101	0x3c328e80	0.010898232
102	0x3d28f541	0.041249517
103	0x3da0ff6c	0.07861218
104	0x3b695f0b	0.0035609629
105	0xbc62ab11	-0.013834731
106	0x3c27a3b6	0.010231903
107	0x3d693136	0.056931697
108	0xbd0f79fb	-0.03502844
109	0x3d09331b	0.033496004
110	0xbc8b9d19	-0.017042683
111	0x3d45a195	0.0482498
112	0xbd1749af	-0.036935505
113	0xbcea53c3	-0.028604394
114	0x3d6be309	0.057589564
115	0x3dab4fb1	0.08364809
116	0xbc98df2c	-0.018661104
117	0xbd5445d1	-0.051824395
118	0x3d250905	0.040291805
119	0x3d8dc784	0.0692282
120	0x3b1eb354	0.0024215775
121	0xbc06ee6c	-0.008235555
122	0xbd40e831	-0.047096435
123	0xbd0413bf	-0.032245394
124	0x3ca484a5	0.020082781
125	0xbcb36ce2	-0.021902505
126	0xbc7b9a69	-0.0153566385
127	0x3bbf0c1d	0.0058303014
128	0xbd863dc3	-0.06554749
129	0xbd7b1241	-0.061296705
130	0xbc999a96	-0.01875047
131	0xbc622345	-0.013802354
132	0xbc64bbe0	-0.0139608085
133	0xbd9b449d	-0.07581446
134	0x3d3226f7	0.04349419
135	0x3cc27537	0.023737533
136	0x3c6a7c95	0.014311929
137	0xbd22fc48	-0.039791375
138	0xbd6b2c25	-0.057415146
139	0xbcf85a0a	-0.030316371
140	0xbc827ebe	-0.015929576
141	0x3d149aad	0.036280323
142	0x3c4e7009	0.012599953
143	0xbd037b6c	-0.032100126
144	0xbce7498f	-0.028233318
145	0xbd1c3611	-0.0381375
146	0x3d0e33a7	0.03471723
147	0xbd33e1f0	-0.043916643
148	0xbd83ea47	-0.06441169
149	0x3cc1cf67	0.023658467
150	0x3c948e1e	0.018134173
151	0xbc87c4f4	-0.016573407
152	0xbda5ec6e	-0.08101736
153	0x3c1f55ab	0.009725015
154	0xbd055e58	-0.032560676
155	0x3d4a6b8f	0.049418982
156	0xbc617816	-0.013761541
157	0xbd167d93	-0.03674085
158	0xbc7f6934	-0.015589047
159	0xbd0c5aac	-0.03426616
160	0xbd7e3e78	-0.062071294
161	0xbcd817fa	-0.02637862
162	0xbccd400e	-0.025054958
163	0xbd12bb9c	-0.03582345
164	0xbcc74799	-0.024326133
165	0x3ca1d855	0.019756475
166	0xbd842703	-0.064527534
167	0x3d7a3a09	0.061090503
168	0xbd6fd859	-0.058555935
169	0xbbc570ad	-0.006025395
170	0x3b2b2628	0.0026115272
171	0x3cf29942	0.029614095
172	0x3d65ab4b	0.05607156
173	0x399035ff	0.0002750605
174	0x3a2f1efa	0.0006680336
175	0xbc1447ed	-0.009050352
176	0x3b013d1d	0.0019720264
177	0xbd40e855	-0.04709657
178	0xbd51d958	-0.051232666
179	0xbd72c023	-0.059265267
180	0xbd3313dc	-0.04372011
181	0xbc9ce45f	-0.019151865
182	0x3d772259	0.06033549
183	0xbc782ce4	-0.0151474215
184	0xbd082372	-0.03323693
185	0xbd75c7b7	-0.060004916
186	0xbd971a34	-0.07378045
187	0xba35c04f	-0.0006933258
188	0xbc42f7e1	-0.011899919
189	0xbda6f009	-0.08151252
190	0xbc83f073	-0.016105866
191	0xbd899fea	-0.06719954

actor.0.bias f4 [3]
0	0x3ca4074f	0.020023016
1	0x3d0381d5	0.03210624
2	0xbd903efe	-0.07043265

critic.0.weight f4 [1, 64]
0	0x3dc94122	0.09826876
1	0x3d69cc7e	0.057079785
2	0x3d12bb2c	0.035823032
3	0xbd818413	-0.06324019
4	0xbdb6147e	-0.08890627
5	0x3d92ffa9	0.071776696
6	0xbdbfc656	-0.093640015
7	0x3cf7f5f6	0.03026865
8	0x3d1b12ab	0.0378596
9	0x3dd3519c	0.103183
10	0xbc869e73	-0.016432976
11	0x3b6cc2ae	0.003612678
12	0xbd9f3107	-0.07773023
13	0xbdb621c8	-0.08893162
14	0x3d640c0a	0.055675544
15	0xbc95be6b	-0.018279275
16	0xbdc6c159	-0.09704847
17	0x3c2cc4f7	0.010545007
18	0x3dc34469	0.095345326
19	0x3d855c2b	0.0651172
20	0x3cf2e8a5	0.02965195
21	0xbd916f7e	-0.071013436
22	0xbcc89db9	-0.02448927
23	0xbd21027d	-0.039309014
24	0x3d74aa31	0.05973262
25	0x3d58518d	0.052812148
26	0x3e04fc28	0.12986815
27	0x3c5c6a35	0.013453056
28	0x3cf937cd	0.030422116
29	0x3c5188ae	0.012788935
30	0x3dbb5cc3	0.09148552
31	0xbd0a98f5	-0.033837277
32	0x3d5a24e4	0.053257838
33	0xbcf410ce	-0.02979317
34	0xbdabc445	-0.08387045
35	0xbde7ccf3	-0.11318388
36	0xbc6cd995	-0.0144561725
37	0xbd8a3833	-0.067490004
38	0x3dd39b3c	0.10332343
39	0x3dfb8136	0.122805044
40	0xbd16019e	-0.036622636
41	0xbdd18ab0	-0.10231531
42	0x3dbc9798	0.09208602
43	0xbd4a4f8b	-0.049392264
44	0x3de6659c	0.11249849
45	0xbd297d16	-0.041379057
46	0x3b9a790d	0.0047141374
47	0x3d903438	0.0704121
48	0x3d240c9b	0.040051084
49	0xbbda9a92	-0.0066712582
50	0x3de7e2f6	0.11322586
51	0xbb5b5e8c	-0.0033473102
52	0x3cad2014	0.02113346
53	0x3d7ff234	0.062486842
54	0x3cf6a260	0.030106723
55	0xbdc69db6	-0.0969805
56	0x3da1b782	0.078963295
57	0xbdd92f4b	-0.106047235
58	0xbcba53a1	-0.022744955
59	0xbd8bcc43	-0.06826069
60	0xbd05d663	-0.03267516
61	0xbd22259d	-0.039586652
62	0x3dd2b58c	0.102885336
63	0x3d28a959	0.041177128

exp_avg f4 [64, 20]
0	0xb942ae8d	-0.00018566307
1	0xba60ad50	-0.00085707474
2	0x39a331e1	0.00031126945
3	0x3aae6d30	0.0013307687
4	0x352e90e5	6.50309e-07
5	0x3ab19008	0.0013546953
6	0xba286c3c	-0.00064248196
7	0x37625a12	1.3491621e-05
8	0xbaa9aefa	-0.0012945824
9	0x3898177b	7.2522984e-05
10	0x3a94c94c	0.0011351495
11	0x37469269	1.1835808e-05
12	0xb5374cec	-6.828475e-07
13	0x3661179f	3.3541362e-06
14	0x370b91d1	8.318996e-06
15	0x3a66bbce	0.0008801789
16	0xbaabebe8	-0.001311657
17	0x399a4628	0.0002942544
18	0x3700924a	7.663455e-06
19	0x3ab9457f	0.0014135091
20	0x399fa5b5	0.00030450305
21	0x3a999956	0.0011718671
22	0x38d7eaa6	0.000102957056
23	0x3aa1bdae	0.0012339854
24	0xba62e1f0	-0.0008654883
25	0x3954bb21	0.00020287606
26	0x3a338634	0.0006848306
27	0x39fdebc3	0.00048431577
28	0xba833994	-0.0010011666
29	0xbaa2374a	-0.0012376097
30	0x39bb413b	0.0003571602
31	0xba6b30dd	-0.000897182
32	0xb8ba7147	-8.890271e-05
33	0x3abdc05b	0.0014476882
34	0xba6ead1d	-0.00091047754
35	0x3ac6a31b	0.001515481
36	0xbaa6969a	-0.0012709678
37	0xbb2f6f8c	-0.0026769368
38	0x3b496e1b	0.0030735794
39	0x39df53af	0.00042596224
40	0x3a853e6f	0.0010165701
41	0xbac48eb1	-0.0014996139
42	0x3a6c9b95	0.0009025869
43	0x3a624721	0.0008631815
44	0x3acc7fa3	0.0015602004
45	0xba954006	-0.0011386878
46	0xba403432	-0.00073319965
47	0x385c96d5	5.259256e-05
48	0x3a0d7b1b	0.0005397067
49	0x3a78a55e	0.0009485091
50	0xba8f0b00	-0.0010913312
51	0xb98963d1	-0.00026205045
52	0x3a5485ed	0.00081071147
53	0xbac129da	-0.0014737204
54	0x3a4b5bbd	0.00077575055
55	0xbaa30911	-0.0012438615
56	0xb90236a1	-0.00012418117
57	0xbaaff598	-0.0013424633
58	0xba945543	-0.0011316914
59	0x395f4219	0.0002129156
60	0x3abc0d55	0.0014347235
61	0x370594cc	7.962062e-06
62	0xb9da1c25	-0.0004160117
63	0x3abbde7f	0.0014333277
64	0x387e6915	6.0656184e-05
65	0xb89705e3	-7.2013376e-05
66	0xb8801f6a	-6.109367e-05
67	0xbac43a3a	-0.0014970966
68	0x391cf4d3	0.00014968523
69	0xba7bcd43	-0.00096054765
70	0xba2ebda3	-0.00066658313
71	0xba305f92	-0.0006728108
72	0x3a94ffca	0.0011367735
73	0x39e2fc5c	0.00043294101
74	0xb7e0b750	-2.6788242e-05
75	0xbaa5b7bd	-0.0012643259
76	0x3aa1aa88	0.0012334147
77	0xbac1afcb	-0.0014777122
78	0xba9814cd	-0.0011602879
79	0xba345bb1	-0.0006880118
80	0xbabcbd9d	-0.0014399771
81	0x398601be	0.0002555977
82	0x3ac624ff	0.0015117227
83	0x36cf434e	6.176916e-06
84	0x39c58374	0.00037672708
85	0xba4900ce	-0.00076676614
86	0xb9de9a4f	-0.00042458109
87	0xb9b1ab32	-0.0003388762
88	0x36e7ad9c	6.9045473e-06
89	0xbab23614	-0.0013596439
90	0x3ad08a22	0.0015910307
91	0x3a9c558c	0.001192735
92	0x3ab25779	0.0013606391
93	0xba1ee6ff	-0.0006061643
94	0x3a012310	0.0004926184
95	0x3a0dc7ad	0.0005408477
96	0xba5ffdd1	-0.00085445965
97	0xb90be9d0	-0.00013343175
98	0xbaabff99	-0.0013122439
99	0xbaaec1e6	-0.0013332933
100	0x3a1c4dae	0.0005962503
101	0x399480d1	0.00028324735
102	0x39b3a0e2	0.00034261408
103	0x3a07d405	0.00051814347
104	0xb87a261b	-5.9640133e-05
105	0xbace78ca	-0.0015752551
106	0x3ac6e512	0.001517447
107	0x390abd1c	0.00013231154
108	0x38b74ab0	8.7400316e-05
109	0x3838df9c	4.407727e-05
110	0x3b5b9589	0.0033505878
111	0xba8c1afa	-0.0010689192
112	0x38e6c97d	0.00011004785
113	0x3304f1a6	3.0953423e-08
114	0x3a65b9fd	0.0008763371
115	0xb75d3c21	-1.3186626e-05
116	0x3a470f84	0.00075935596
117	0xbadc1ba7	-0.0016792909
118	0x3ad20715	0.0016023839
119	0xb9b3ec31	-0.00034317517
120	0xbac3408e	-0.0014896558
121	0x399135f1	0.00027696745
122	0x36ce6cff	6.151967e-06
123	0xba602303	-0.0008550139
124	0x3a5051c2	0.0007946753
125	0xb9bf4612	-0.00036482565
126	0x392e52a8	0.00016624725
127	0x38b2325b	8.497081e-05
128	0x3a7de5b1	0.0009685411
129	0x3a9c19a1	0.0011909493
130	0x3a179d22	0.00057836075
131	0xba7f7923	-0.0009745529
132	0xba920f00	-0.0011143386
133	0x34c1bbaa	3.6085595e-07
134	0x3893eb4e	7.053335e-05
135	0x38fe55b1	0.00012127625
136	0x3a477199	0.0007608175
137	0x394b1a31	0.00019369346
138	0xba89e872	-0.0010521545
139	0x3813d016	3.5241326e-05
140	0x3ab4a091	0.0013780763
141	0xb815997b	-3.5667308e-05
142	0xb9199d91	-0.00014649915
143	0x3a09dc69	0.0005258979
144	0xbad268c0	-0.0016052946
145	0xbabedec3	-0.0014562238
146	0xb9ed3fde	-0.00045251747
147	0xba598db9	-0.00082990114
148	0x3890f1db	6.911504e-05
149	0xbaa600af	-0.0012664999
150	0x3b6803e2	0.0035402705
151	0xbac1a65f	-0.0014774314
152	0xb8139b85	-3.519237e-05
153	0xb9f546f5	-0.0004678291
154	0x3a9d7c40	0.0012015179
155	0x388f5a2d	6.835568e-05
156	0x38eff015	0.00011441127
157	0xbb7464d7	-0.003729155
158	0x3bcb4bce	0.006204105
159	0x3adc2f8e	0.001679884
160	0xbab07f7f	-0.0013465731
161	0x3a66349a	0.0008781642
162	0xba70be18	-0.00091835996
163	0xb96b824d	-0.00022459887
164	0x3ac14e5d	0.0014748086
165	0x38e67ad9	0.00010990137
166	0xba45be68	-0.00075433264
167	0x3ad325c6	0.001610928
168	0x3962b0d3	0.00021618912
169	0xb8bac352	-8.9055524e-05
170	0x39769c81	0.0002351869
171	0x3900b352	0.00012273833
172	0x38c1ff69	9.250531e-05
173	0xb79e3957	-1.8861769e-05
174	0x38c66315	9.459831e-05
175	0x3a94395f	0.0011308602
176	0x3a448519	0.000749664
177	0x3a49112c	0.00076701003
178	0xba873815	-0.0010316396
179	0xba8e822a	-0.0010872532
180	0x3abf7e95	0.0014609868
181	0x3a93db7c	0.0011280621
182	0xba83a03e	-0.0010042263
183	0x3a64a53f	0.00087221334
184	0xba9aeafa	-0.0011819296
185	0x39720293	0.00023079877
186	0x3a25f81d	0.0006331222
187	0x3a666ac8	0.00087897154
188	0x3722014b	9.6562535e-06
189	0x3ac42814	0.0014965557
190	0xbaa21bde	-0.0012367924
191	0x364ca2db	3.0493163e-06
192	0x3a8538b4	0.0010163994
193	0xb270469b	-1.39858924e-08
194	0xb8ab99e9	-8.1825834e-05
195	0x3938a494	0.00017608918
196	0x3707c61f	8.092756e-06
197	0x3ab8b145	0.0014090916
198	0xbaa1b7cc	-0.0012338101
199	0x37c263fd	2.3173163e-05
200	0xb8bc42d5	-8.976987e-05
201	0x3aba479c	0.0014212015
202	0xb9b30890	-0.0003414792
203	0x39babdc5	0.00035618074
204	0x3a5cbf63	0.0008420853
205	0x3a16e877	0.0005756686
206	0xba95729d	-0.0011401955
207	0x39142309	0.00014127431
208	0x36914502	4.3293703e-06
209	0xbaadb208	-0.001325191
210	0x3a30c0f7	0.0006742621
211	0xb5964414	-1.1195684e-06
212	0x3a3c012c	0.00071718055
213	0x3a3c6715	0.0007186991
214	0xb975d461	-0.00023444138
215	0xb9e4cd91	-0.00043640708
216	0xb80229e2	-3.103342e-05
217	0x3a438f70	0.00074600335
218	0xba33cbf3	-0.0006858699
219	0x3a662abe	0.0008780173
220	0x39000a5c	0.0001221089
221	0x3762f891	1.3528524e-05
222	0xba234973	-0.00062289013
223	0xba2169da	-0.0006157436
224	0x39c7876c	0.00038057135
225	0xb99be229	-0.00029732406
226	0xb96af0a3	-0.00022405623
227	0x3a487d6b	0.0007648083
228	0x3aaedca2	0.00133409
229	0x3996f37c	0.0002879164
230	0x39a62830	0.0003169193
231	0x3a1fb848	0.00060928287
232	0x3a102d6a	0.0005499931
233	0xba500d2e	-0.0007936534
234	0x394b714c	0.00019401795
235	0x3a7563ce	0.00093608804
236	0x363eb0f9	2.8415218e-06
237	0xb9adf469	-0.0003317923
238	0xba12662c	-0.0005584683
239	0x3811d0b9	3.4765082e-05
240	0xaabdec37	-3.373705e-13
241	0x3807eab2	3.2405085e-05
242	0x382e08ca	4.149302e-05
243	0xbaa8c87a	-0.001287713
244	0x373ad373	1.1135696e-05
245	0xb9036a5f	-0.0001253276
246	0x3ac4016c	0.0014954037
247	0x375c4b82	1.3130602e-05
248	0xb9f6b69a	-0.00047056825
249	0x3a5780d4	0.0008220796
250	0x3a0dcc3a	0.0005409155
251	0x3a9b005c	0.0011825669
252	0xbab4865e	-0.0013772955
253	0xba8a9a71	-0.0010574592
254	0xb710bf2e	-8.627581e-06
255	0xb49db6c4	-2.9376508e-07

exp_avg_sq f4 [64, 20]
0	0x3337386d	4.2659327e-08
1	0x34a306b3	3.036599e-07
2	0x339eaead	7.389222e-08
3	0x35209c4a	5.9832075e-07
4	0x31e5fd2a	6.6935586e-09
5	0x35239094	6.093262e-07
6	0x345e5dc7	2.0709477e-07
7	0x3153fd2b	3.084845e-09
8	0x35202b97	5.9668076e-07
9	0x32806098	1.4945087e-08
10	0x34db7d47	4.088308e-07
11	0x31958b97	4.3523403e-09
12	0x2f8c45d7	2.5515476e-10
13	0x31872b26	3.9339225e-09
14	0x3146cca6	2.8929121e-09
15	0x34a886c7	3.1390502e-07
16	0x35238587	6.091654e-07
17	0x337cc263	5.8850116e-08
18	0x33b6a228	8.5045315e-08
19	0x3532d240	6.661612e-07
20	0x339e8282	7.3811876e-08
21	0x35143e53	5.522499e-07
22	0x335ac161	5.0932957e-08
23	0x35345cc6	6.719023e-07
24	0x3483675f	2.4475864e-07
25	0x3484ef0e	2.476085e-07
26	0x350dce35	5.2826664e-07
27	0x34eca2e7	4.4076953e-07
28	0x34f9c816	4.6525446e-07
29	0x3530affd	6.5821206e-07
30	0x37b94a05	2.2088187e-05
31	0x350fd78f	5.358533e-07
32	0x344b8b9d	1.8956639e-07
33	0x353b4cd4	6.977473e-07
34	0x35490989	7.489221e-07
35	0x3591d0fe	1.0864167e-06
36	0x35350bd1	6.744495e-07
37	0x38930797	7.01092e-05
38	0x38e1000c	0.00010728845
39	0x344027cd	1.7895873e-07
40	0x34d31b9c	3.93219e-07
41	0x35482e33	7.4573035e-07
42	0x34aeb6c1	3.2542997e-07
43	0x34a473f0	3.0631736e-07
44	0x35536441	7.8749514e-07
45	0x350052f7	4.7804446e-07
46	0x3484f02e	2.476167e-07
47	0x326aa198	1.3657335e-08
48	0x34297065	1.578024e-07
49	0x34bfac9d	3.5702115e-07
50	0x35614479	8.391867e-07
51	0x338b095d	6.474395e-08
52	0x3496a299	2.8057983e-07
53	0x3540f4de	7.18819e-07
54	0x348826bd	2.536016e-07
55	0x351119ff	5.405454e-07
56	0x3312d037	3.4182644e-08
57	0x35cd6533	1.5303143e-06
58	0x352ee48f	6.515265e-07
59	0x33395a78	4.315595e-08
60	0x35388392	6.87368e-07
61	0x32096988	7.998445e-09
62	0x340cfd67	1.3130703e-07
63	0x352f51f5	6.5311843e-07
64	0x31ee8f2c	6.9429884e-09
65	0x331e8844	3.6911175e-08
66	0x330917b5	3.191936e-08
67	0x354fa013	7.734645e-07
68	0x331acf9d	3.6044742e-08
69	0x34caa35c	3.7744292e-07
70	0x35ae4739	1.2984739e-06
71	0x34705897	2.238397e-07
72	0x3502272c	4.8485776e-07
73	0x33f5f73a	1.1453672e-07
74	0x322b9989	9.98842e-09
75	0x350d782e	5.270148e-07
76	0x35116864	5.416862e-07
77	0x36497602	3.0020024e-06
78	0x3630cb23	2.6344285e-06
79	0x3481e1ae	2.4192326e-07
80	0x3539a3f7	6.915647e-07
81	0x337ea3f8	5.9288112e-08
82	0x35479fc9	7.4365795e-07
83	0x30e9e83d	1.7018987e-09
84	0x33c0a0bc	8.969934e-08
85	0x348f424a	2.6684057e-07
86	0x34015a5e	1.2046937e-07
87	0x33c4efb8	9.170566e-08
88	0x2fe7fdb2	4.2198917e-10
89	0x352e13b1	6.4848706e-07
90	0x353b940e	6.9878377e-07
91	0x35054ef8	4.9661276e-07
92	0x352739c5	6.2296414e-07
93	0x344293fb	1.8121493e-07
94	0x34119c9a	1.3561149e-07
95	0x34251176	1.5373175e-07
96	0x34a8c131	3.1433004e-07
97	0x34173d32	1.4085234e-07
98	0x354492d6	7.3229364e-07
99	0x3524f79f	6.1455097e-07
100	0x343e16a8	1.7703371e-07
101	0x33b6599f	8.4913374e-08
102	0x33ed62c7	1.105414e-07
103	0x3448b212	1.8691233e-07
104	0x332c28ec	4.008409e-08
105	0x3563c77c	8.485438e-07
106	0x3550e7da	7.7823427e-07
107	0x33b094a9	8.22268e-08
108	0x33b1eb15	8.284966e-08
109	0x33c38190	9.1039624e-08
110	0x374e179a	1.2284052e-05
111	0x35081d81	5.070688e-07
112	0x330f38db	3.3346492e-08
113	0x30ebd10d	1.7157916e-09
114	0x34ad232f	3.224936e-07
115	0x33538624	4.9249266e-08
116	0x349c47f4	2.9109617e-07
117	0x376c22a5	1.40747625e-05
118	0x37a2e8d6	1.9420328e-05
119	0x34067414	1.2521951e-07
120	0x35447595	7.3186794e-07
121	0x33907faf	6.728748e-08
122	0x3224cde1	9.592868e-09
123	0x34b01ee6	3.2805036e-07
124	0x348cd204	2.6229839e-07
125	0x341805c0	1.4158195e-07
126	0x3322feef	3.7950425e-08
127	0x3326c6a6	3.8830557e-08
128	0x34b4f78f	3.3707735e-07
129	0x3505389f	4.9628756e-07
130	0x369ae332	4.6160067e-06
131	0x34e1b0ca	4.2038147e-07
132	0x3500061e	4.769262e-07
133	0x311d96b2	2.2932167e-09
134	0x32e8d2ec	2.710427e-08
135	0x333d2c4c	4.404528e-08
136	0x3488bb47	2.5468236e-07
137	0x36b9a014	5.532065e-06
138	0x369cd662	4.6741197e-06
139	0x32aebecf	2.0343036e-08
140	0x352c93eb	6.429024e-07
141	0x3268ac55	1.3543361e-08
142	0x335d7aee	5.1567376e-08
143	0x348854d9	2.539371e-07
144	0x354677bb	7.393498e-07
145	0x353bff79	7.003469e-07
146	0x34a0c165	2.9943035e-07
147	0x34f8fa5c	4.637576e-07
148	0x3517d043	5.6554944e-07
149	0x354858c8	7.4635e-07
150	0x382f8913	4.185091e-05
151	0x3577cd7f	9.2313707e-07
152	0x343bcc20	1.7489992e-07
153	0x34083c22	1.2687863e-07
154	0x35404293	7.162245e-07
155	0x346ea9c4	2.2227238e-07
156	0x352dca40	6.4741835e-07
157	0x389efa0a	7.5806005e-05
158	0x39148d30	0.00014166976
159	0x355c5b34	8.2089105e-07
160	0x35261b9d	6.188e-07
161	0x34a026cf	2.983056e-07
162	0x34c3f110	3.6496976e-07
163	0x339a7d18	7.193938e-08
164	0x35373b29	6.82589e-07
165	0x329ed15c	1.8488826e-08
166	0x34ba907e	3.4750332e-07
167	0x3543f2a1	7.299623e-07
168	0x331b67d8	3.6183195e-08
169	0x33af4b04	8.162718e-08
170	0x360cff54	2.1010246e-06
171	0x32b0bf49	2.0576083e-08
172	0x325bec05	1.2801142e-08
173	0x32082a9e	7.925932e-09
174	0x33632d0b	5.2893522e-08
175	0x34ea536d	4.3646597e-07
176	0x344aeae3	1.8898167e-07
177	0x366f714f	3.567973e-06
178	0x34ec7727	4.404512e-07
179	0x34c1da50	3.6107895e-07
180	0x353e2def	7.084736e-07
181	0x34f7fc67	4.6190982e-07
182	0x34d17327	3.9013068e-07
183	0x34a2e8be	3.0344194e-07
184	0x3509d6ba	5.1348945e-07
185	0x33508b82	4.8555655e-08
186	0x3443fe14	1.8253223e-07
187	0x34a17711	3.007522e-07
188	0x3099d1c0	1.119183e-09
189	0x354057b3	7.1653193e-07
190	0x35443aa3	7.310102e-07
191	0x303f23a7	6.953606e-10
192	0x34cfecc5	3.8729027e-07
193	0x30c42b07	1.4273106e-09
194	0x32b3b21a	2.0919334e-08
195	0x332a16ab	3.9601826e-08
196	0x308f7d71	1.0440272e-09
197	0x350bd629	5.209318e-07
198	0x35378f4f	6.8381354e-07
199	0x3118328b	2.2147641e-09
200	0x32bbaec8	2.1849146e-08
201	0x3535dd46	6.774975e-07
202	0x33b62dd7	8.483374e-08
203	0x33c05cf3	8.957604e-08
204	0x349d5f3e	2.9312827e-07
205	0x3434ccc2	1.6838297e-07
206	0x34fd5cef	4.719254e-07
207	0x3309b95e	3.206639e-08
208	0x31dbcb08	6.396821e-09
209	0x3522d9c6	6.0666605e-07
210	0x358dcb41	1.0564473e-06
211	0x31b73a93	5.33266e-09
212	0x347bd264	2.3452736e-07
213	0x3478e075	2.3178457e-07
214	0x33604965	5.2220816e-08
215	0x33f9322e	1.1604094e-07
216	0x32682130	1.3511723e-08
217	0x35bdc138	1.4137831e-06
218	0x34a53f62	3.0779762e-07
219	0x34a9b0b2	3.1607266e-07
220	0x32f495f2	2.8473526e-08
221	0x31d553f0	6.2086585e-09
222	0x344dc70a	1.9164523e-07
223	0x344ca420	1.9058689e-07
224	0x33c3967c	9.107768e-08
225	0x33a7b29b	7.8090316e-08
226	0x337a0833	5.8215118e-08
227	0x34824ba4	2.4269423e-07
228	0x351ee498	5.9192234e-07
229	0x3387197f	6.291065e-08
230	0x338a8e29	6.4519845e-08
231	0x343d4f89	1.7630931e-07
232	0x34267544	1.5502616e-07
233	0x34903945	2.686376e-07
234	0x333e63fa	4.432875e-08
235	0x34b90f30	3.4469986e-07
236	0x3200fe56	7.50841e-09
237	0x346115e1	2.0962717e-07
238	0x348e4e73	2.650664e-07
239	0x2f99eb8e	2.799791e-10
240	0x28c1c35f	2.1512033e-14
241	0x323446a5	1.0493442e-08
242	0x324d41c8	1.1947527e-08
243	0x351c3dac	5.8204273e-07
244	0x312bf141	2.5020912e-09
245	0x3310d864	3.372442e-08
246	0x3540ea87	7.1866856e-07
247	0x30e953c1	1.6976786e-09
248	0x3415982c	1.3932066e-07
249	0x3491b035	2.7136562e-07
250	0x349088cc	2.6921623e-07
251	0x3503ba0d	4.907204e-07
252	0x352eb355	6.5081014e-07
253	0x34e0aec1	4.1850402e-07
254	0x31f00bf4	6.9862782e-09
255	0x30d0a239	1.5180098e-09

exp_avg f4 [64]
0	0xba615691	-0.0008595968
1	0x3b80d6e8	0.003931869
2	0x39893ccf	0.00026175982
3	0x3aec4691	0.0018026402
4	0xba1895b8	-0.00058206497
5	0x3b72ffa5	0.0037078646
6	0x3a9c1ce3	0.0011910464
7	0x3c2b5cee	0.010459168
8	0xbb47b4b5	-0.00304727
9	0xb943ee21	-0.00018685359
10	0xba002053	-0.0004887629
11	0xb9c0883e	-0.00036722602
12	0xba17b9f8	-0.00057879044
13	0xb94857a3	-0.00019106134
14	0x3c75052a	0.0149548445
15	0xba3351bb	-0.0006840487
16	0xb9d47bd8	-0.00040528062
17	0xb9d6edf2	-0.00040994544
18	0x3b46f65d	0.0030359246
19	0x3c0825ef	0.008309825
20	0xb98a1e45	-0.00026343964
21	0x3b374c5d	0.00279691
22	0xbb968f43	-0.004594715
23	0x390e1880	0.00013551302
24	0xba90afb7	-0.0011038695
25	0x3ad52f7d	0.0016264763
26	0x3c625215	0.013813515
27	0xbc5a0a0d	-0.01330806
28	0xbc09a492	-0.008401053
29	0x3976ac9d	0.00023524692
30	0xbbe4904c	-0.0069752093
31	0x3b124624	0.002231964
32	0x3b9993d5	0.0046868124
33	0x3b886150	0.004161991
34	0x3c0a20a4	0.008430634
35	0xb9c5fd41	-0.00037763457
36	0xba1bdc0a	-0.0005945569
37	0xb9de00fa	-0.00042343867
38	0xb9dcba32	-0.00042100396
39	0xb95ac065	-0.00020861773
40	0x3cbdd7e7	0.02317424
41	0xbb48c9cc	-0.0030637858
42	0xbb49fc82	-0.0030820672
43	0xbc471292	-0.012150424
44	0x3adc251a	0.0016795725
45	0x3996712a	0.00028694543
46	0x3c171116	0.009220382
47	0xbb9042bd	-0.004402487
48	0x3bc2db9e	0.0059465906
49	0xbc2ab8a9	-0.010420003
50	0xba9091a2	-0.001102973
51	0xbc1e80d6	-0.009674272
52	0x37d87de2	2.5807825e-05
53	0xbb0efac6	-0.0021816953
54	0xbb852c8e	-0.004064149
55	0x3b85f2b1	0.004087769
56	0xb9bdb866	-0.00036186277
57	0x3a0bd682	0.00053343934
58	0x3b512d5f	0.0031917912
59	0x3ab9194b	0.0014121918
60	0xba835641	-0.0010020213
61	0xba6bc41b	-0.00089937606
62	0xba3fed74	-0.0007321455
63	0xbc90fde1	-0.017699184

exp_avg_sq f4 [64]
0	0x3515c9ef	5.580068e-07
1	0x391f4228	0.00015188067
2	0x35c3782e	1.4563609e-06
3	0x36f1ef81	7.2102416e-06
4	0x34e9c0d4	4.3539933e-07
5	0x381caa09	3.7351656e-05
6	0x3757ecf7	1.2870171e-05
7	0x3989c85a	0.0002627995
8	0x37184f92	9.078432e-06
9	0x34947ab6	2.7656432e-07
10	0x360d0740	2.1014857e-06
11	0x34ae859d	3.2507242e-07
12	0x3551985e	7.808029e-07
13	0x371bf9cc	9.29688e-06
14	0x398c2ded	0.00026737098
15	0x38b1a54b	8.470806e-05
16	0x34bef642	3.5569434e-07
17	0x38991562	7.2995914e-05
18	0x37a82ce9	2.0048074e-05
19	0x380c0f0e	3.3392622e-05
20	0x364cd88f	3.0524423e-06
21	0x38613849	5.36966e-05
22	0x37c136ba	2.3032877e-05
23	0x35d106e0	1.5573714e-06
24	0x355f351c	8.315126e-07
25	0x37e7774c	2.7592898e-05
26	0x3944a9f0	0.00018755323
27	0x3944a3c8	0.0001875303
28	0x375712fd	1.281942e-05
29	0x36d23233	6.2643317e-06
30	0x3784c492	1.5827161e-05
31	0x378c4171	1.6719774e-05
32	0x381da929	3.758926e-05
33	0x37093042	8.177072e-06
34	0x3873fbd8	5.8170262e-05
35	0x380e23a8	3.3888646e-05
36	0x3703f6ba	7.865654e-06
37	0x34bf962e	3.5685792e-07
38	0x34b09f9c	3.2898686e-07
39	0x379c6bea	1.86469e-05
40	0x394259b3	0.00018534697
41	0x36abbd03	5.118201e-06
42	0x38af8f6f	8.371367e-05
43	0x38e3f86c	0.00010870476
44	0x38487755	4.7794852e-05
45	0x3430d133	1.6467384e-07
46	0x38ec8ea9	0.000112799295
47	0x380208e4	3.1002695e-05
48	0x388317fb	6.2510335e-05
49	0x379ac6b6	1.8450763e-05
50	0x358918e0	1.0214535e-06
51	0x3856f427	5.124896e-05
52	0x34a43aa0	3.0590036e-07
53	0x369ed2a1	4.7332874e-06
54	0x38269391	3.9714916e-05
55	0x37c3f894	2.3361565e-05
56	0x34a4953d	3.0655966e-07
57	0x381c85fb	3.7318077e-05
58	0x38b3303b	8.544369e-05
59	0x38301c74	4.198817e-05
60	0x35368c43	6.800439e-07
61	0x35205b14	5.973718e-07
62	0x384202ee	4.6255933e-05
63	0x38cd2be4	9.783337e-05
