models/META.pth (torch, 84074 bytes, 33 tensors)

shared.0.weight f4 [64, 20]
0.14171092 -0.042508308 0.026317313 -0.06555202 0.015294207 0.111065015 -0.08235139 -0.14191152
0.014030632 -0.0063113943 0.15858483 -0.00074006966 0.13474941 0.14136055 -0.069437824 0.095432736
-0.13562489 0.012088756 0.14888765 -0.07176752 0.06978433 0.05380477 -0.019845968 -0.011880367
-0.020878607 0.042956725 0.10283679 -0.1096696 -0.00031960278 0.013727755 0.044545352 0.020624932
-0.019620115 0.014426532 0.023103112 0.13620894 0.05932822 0.07449233 0.013161721 0.14811835
-0.012301424 0.12891887 -0.055375222 0.10139882 0.0017906652 0.14007609 -0.0317059 0.004512482
-0.1414359 -0.045964934 0.008102293 0.07202591 -0.083657674 0.14500351 0.05914406 -0.06512259
-0.0064060297 -0.10604631 -0.022104774 0.011248008 -0.062575795 0.09281717 0.0008583084 0.09323725
0.0025428075 0.07201646 -0.124360316 -0.09880409 -0.0020962488 0.14708342 0.11254781 3.2458047e-08
-0.060130253 -0.005469123 -0.033341922 0.04320868 0.09222689 0.033395402 -0.07449241 -0.045435295
-0.06430601 -0.004647129 -0.107887276 -0.06369456 0.04365153 0.12169387 0.020088369 -0.021305833
0.083889954 -0.114668496 0.08628819 0.05590696 -0.11259843 0.11146278 -0.04398435 -0.06067981
-0.032678414 -0.09509711 -0.0716664 -0.08601043 0.05001779 -0.12582685 0.09746305 0.06270515
0.15742062 -0.01113283 -0.13082726 0.11615806 0.11125188 0.15654926 -0.028348725 0.01623408
0.05373811 0.087663904 -0.046730574 0.094870955 -0.080760166 -0.030961381 0.0037835476 -0.13694678
0.080226585 0.0045951316 -0.03880418 -0.017135326 0.0067399456 -0.020867947 -0.15468562 -0.069922455
-0.080991015 -0.1532329 -0.025638781 0.11201147 0.13687478 -3.523566e-08 -0.06253115 -0.125087
0.023242451 -0.052827835 0.15999244 0.1233569 0.07961611 -0.01930385 0.10263632 0.022724874
-0.10593627 0.13224128 -0.12296462 0.08277501 -0.034902178 0.07423853 -0.08601317 0.034798857
0.09584314 -0.085779496 -0.029235454 0.086255 -0.10269317 0.045866895 -0.028636497 0.0902477
-1.4781183e-07 0.10837308 0.11419381 -0.040543552 0.0018255668 -0.15008251 -0.14770478 -0.08871519
0.11514985 0.0982481 -0.1453308 0.010026269 0.002634943 0.018720523 -0.0934638 -0.005189128
-0.011303911 -0.027191516 -0.010428931 0.030615667 -0.004114716 -0.110404775 -0.09207626 -0.10504778
0.070465274 -0.028221179 0.031315763 -0.032796014 0.13432367 0.016101634 0.006041814 -0.01816687
0.0262673 0.11274826 -0.15106182 0.11688979 0.104742624 0.028650444 -0.08967723 -0.12920338
-0.14950372 0.10985099 -0.055024877 0.00995839 -0.012814232 -0.017137745 0.05093048 0.042205643
0.045309294 -0.046359807 0.0065278765 -0.041149847 -0.053530373 0.14200504 0.12698315 0.14434588
-0.15343478 -0.048338886 -0.12360524 -0.06698885 -1.0195181e-07 0.052915476 0.043629203 -0.13909645
0.09960951 -0.09345378 -0.12018835 0.10218416 0.098467 -0.07083773 0.15728474 -0.07483336
-0.1422976 -0.0024090607 0.008823227 -0.150034 0.09891342 -0.1415761 -0.038775843 -0.04469794
-0.03152848 -0.031345088 -0.031646945 0.0016992972 0.002219029 0.0026013756 0.005310252 -0.14143963
-0.14137305 -0.043030124 -0.008102507 0.034916703 -0.06307798 0.03528553 -0.08359058 0.07463482
00000000: ab1c 113e 311d 2ebd 6897 d73c 2340 86bd
00000010: 8e94 7a3c 0e76 e33d d8a7 a8bd 4151 11be
00000020: bce0 653c d0cf cebb 1064 223e 3c01 42ba
00000030: c0fb 093e d2c0 103e 6b35 8ebd 3d72 c33d
00000040: 40e1 0abe eb0f 463c 0176 183e d9fa 92bd
00000050: 16eb 8e3d 6462 5c3d 0394 a2bc dfa5 42bc
00000060: 9d09 abbc 64f3 2f3d 189c d23d 759a e0bd
00000070: 5c90 a7b9 61ea 603c 3075 363d 9ef5 a83c
00000080: 5dba a0bc 435d 6c3c bd42 bd3c 5b7a 0b3e
00000090: 2602 733d 6f8f 983d 42a4 573c 56ac 173e
000000a0: e98b 49bc 4f03 043e 21d1 62bd 2faa cf3d
000000b0: c1b4 ea3a 1b70 0f3e 0cde 01bd 71dd 933b
000000c0: 93d4 10be ba45 3cbd 7bbf 043c 5282 933d
000000d0: b754 abbd cd7b 143e 0b41 723d fe5e 85bd
000000e0: ace9 d1bb cf2e d9bd 1215 b5bc 9149 383c
000000f0: bd27 80bd ee16 be3d 1a00 613a 2cf3 be3d
00000100: 3ba5 263b 5e7d 933d 9fb0 febd cc59 cabd
00000110: 3861 09bb 099d 163e 777f e63d 0068 0b33
00000120: 244b 76bd 5436 b3bb 8a91 08bd 96fb 303d
00000130: 74e1 bc3d 9ec9 083d 7a8f 98bd 5c1a 3abd
00000140: dfb2 83bd f246 98bb 01f4 dcbd 4b72 82bd
00000150: f2cb 323d a33a f93d 5d90 a43c 9289 aebc
00000160: 7fce ab3d 51d7 eabd ddb7 b03d b2fe 643d
00000170: 019a e6bd 9946 e43d ef28 34bd 648b 78bd
00000180: cdd9 05bd 46c2 c2bd d5c5 92bd 3c26 b0bd
00000190: 74df 4c3d c1d8 00be b59a c73d 8f6b 803d
000001a0: df32 213e 7966 36bc 95f7 05be 47e4 ed3d
000001b0: 07d8 e33d 734e 203e 963b e8bc 55fd 843c
000001c0: 7e1c 5c3d 2289 b33d 8f68 3fbd b44b c23d
000001d0: 9665 a5bd b9a2 fdbc 65f5 773b c73b 0cbe
000001e0: d64d a43d c292 963b 22f1 1ebd 625f 8cbc
000001f0: c3da dc3b 42f3 aabc e865 1ebe 8133 8fbd
00000200: 9ede a5bd 16e9 1cbe 6c08 d2bc 4566 e53d
00000210: e728 0c3e 0556 17b3 5510 80bd ce16 00be
00000220: f466 be3c 0062 58bd 0fd5 233e 8ba2 fc3d
00000230: c50d a33d 1c23 9ebc fe32 d23d 8429 ba3c
00000240: 1df5 d8bd 426a 073e e0d4 fbbd f285 a93d
00000250: 96f5 0ebd 5f0a 983d ac27 b0bd 3f89 0e3d
00000260: 6849 c43d 29ad afbd 317f efbc 76a6 b03d
00000270: cc50 d2bd edde 3b3d 1697 eabc c9d3 b83d
00000280: 35b6 1eb4 b5f2 dd3d 72de e93d ff10 26bd
00000290: db47 ef3a 3baf 19be ec3f 17be 4fb0 b5bd
000002a0: afd3 eb3d 4d36 c93d 99d1 14be 3845 243c
000002b0: 02af 2c3b c85b 993c f369 bfbd 9009 aabb
000002c0: 0a34 39bc bec0 debc 1bde 2abc b5cd fa3c
000002d0: bdd4 86bb e61b e2bd 7a92 bcbd 4a23 d7bd
000002e0: 1950 903d 1a30 e7bc f544 003d 1d55 06bd
000002f0: 258c 093e 93e7 833c 69fa c53b b0d2 94bc
00000300: 852e d73c 8fe8 e63d f3af 1abe ea63 ef3d
00000310: 4d83 d63d 56b4 ea3c b2a8 b7bd e44d 04be
00000320: 8117 19be 8ef9 e03d c461 61bd 8428 233c
00000330: c9f2 51bc 7564 8cbc 7b9c 503d d3df 2c3d
00000340: 3d96 393d c8e3 3dbd cce7 d53b be8c 28bd
00000350: aa42 5bbd c569 113e df07 023e 68cf 133e
00000360: 021e 1dbe fffe 45bd be24 fdbd 7331 89bd
00000370: 9af0 dab3 e6bd 583d 89b4 323d 4d6f 0ebe
00000380: 1200 cc3d b264 bfbd 4f25 f6bd ee45 d13d
00000390: 11a9 c93d 5f13 91bd 400f 213e 3c42 99bd
000003a0: 76b6 11be 55e1 1dbb 4c8f 103c 83a2 19be
000003b0: 1f93 ca3d 53f9 10be 6bd3 1ebd 3015 37bd
000003c0: 0224 01bd b563 00bd 3aa0 01bd f4ba de3a
000003d0: 216d 113b d77b 2a3b 9f01 ae3b 8dd5 10be
000003e0: 19c4 10be 5b40 30bd 61c0 04bc d104 0f3d
000003f0: 072f 81bd 8f87 103d 8a31 abbd 24da 983d

shared.0.bias f4 [64]
-0.09364008 0.089831725 -0.16947775 -0.09872017 0.19974886 0.14552094 0.059693355 0.066530086
-0.08428282 -0.0009852881 0.10983853 -0.025317907 -0.15417421 -0.070608534 0.20831206 0.111673996
-0.045019247 -0.16401309 0.15409718 -0.1114765 0.18374757 0.13924241 -0.1497491 -0.025591016
-0.15519059 -0.11142315 -0.069562875 0.055057023 -0.03134648 0.082548894 0.17578554 -0.1289526
-0.0141688185 -0.106827244 0.19735126 -0.04461336 0.07382714 -0.107692085 0.14748098 -0.13587077
-0.030652154 0.2130901 0.072793365 0.22091311 0.041443687 0.04357208 0.20757768 -0.09615738
0.1519551 0.18445206 0.14990324 -0.124736264 -0.13914618 0.14709431 0.07539281 -0.082138605
-0.15483125 0.20726335 0.11910636 -0.070372455 0.14890876 0.115322284 0.21543856 -0.03286693
00000000: 5fc6 bfbd b2f9 b73d 938b 2dbe cd2d cabd
00000010: f78a 4c3e 7103 153e 0581 743d ed40 883d
00000020: 799c acbd c824 81ba 06f3 e03d 8067 cfbc
00000030: d8df 1dbe 359b 90bd c24f 553e 56b5 e43d
00000040: 1a66 38bd 0cf3 27be a7cb 1d3e cb4d e4bd
00000050: 5328 3c3e 9095 0e3e d457 19be 40a4 d1bc
00000060: 48ea 1ebe d231 e4bd fb76 8ebd 7983 613d
00000070: 2b65 00bd 650f a93d 2001 343e 260c 04be
00000080: 5524 68bc 3ec8 dabd 7316 4a3e 80bc 36bd
00000090: af32 973d ab8d dcbd 4105 173e b521 0bbe
000000a0: 3a1a fbbc 4b34 5a3e b014 953d 0c37 623e
000000b0: dbc0 293d a378 323d 3e8f 543e 29ee c4bd
000000c0: 1e9a 1b3e 00e1 3c3e 3c80 193e ba75 ffbd
000000d0: 567c 0ebe e49f 163e 8c67 9a3d 4938 a8bd
000000e0: 158c 1ebe d83c 543e 09ee f33d 6f1f 90bd
000000f0: 8a7b 183e 172e ec3d ed9b 5c3e 799f 06bd

shared.1.weight f4 [64]
0.92502826 0.923772 0.92467874 0.9248296 0.928827 0.928673 0.9259393 0.9254422
0.9247447 0.92494804 0.9260123 0.92643034 0.9247447 0.9247447 0.92477447 0.92535
0.9249589 0.9247447 0.93002224 0.9247799 0.9283056 0.9341852 0.9247795 0.92697597
0.9247447 0.9247438 0.9248441 0.9266475 0.9249744 0.9253924 0.92410725 0.92475104
0.9255831 0.9247447 0.93080807 0.92812127 0.9260018 0.924748 0.9300258 0.9249792
0.92835814 0.92503065 0.9249166 0.93154067 0.92809504 0.9248285 0.9239465 0.9247463
0.93841517 0.9265164 0.9323248 0.9247447 0.9247225 0.9295345 0.9241714 0.9234075
0.92481524 0.94883376 0.9268972 0.9247638 0.92672205 0.925021 0.9318408 0.9241893
00000000: a7ce 6c3f 527c 6c3f bfb7 6c3f a2c1 6c3f
00000010: 9bc7 6d3f 84bd 6d3f 5c0a 6d3f c8e9 6c3f
00000020: 12bc 6c3f 65c9 6c3f 240f 6d3f 8a2a 6d3f
00000030: 12bc 6c3f 12bc 6c3f 05be 6c3f bde3 6c3f
00000040: 1bca 6c3f 12bc 6c3f f015 6e3f 60be 6c3f
00000050: 70a5 6d3f c326 6f3f 59be 6c3f 4c4e 6d3f
00000060: 12bc 6c3f 02bc 6c3f 95c2 6c3f c538 6d3f
00000070: 1fcb 6c3f 84e6 6c3f 4b92 6c3f 7cbc 6c3f
00000080: 04f3 6c3f 12bc 6c3f 7049 6e3f 5b99 6d3f
00000090: 740e 6d3f 49bc 6c3f 2c16 6e3f 70cb 6c3f
000000a0: e1a8 6d3f cfce 6c3f 56c7 6c3f 7379 6e3f
000000b0: a397 6d3f 90c1 6c3f c287 6c3f 2cbc 6c3f
000000c0: fa3b 703f 2e30 6d3f d7ac 6e3f 12bc 6c3f
000000d0: 9dba 6c3f f9f5 6d3f 7f96 6c3f 6f64 6c3f
000000e0: b1c0 6c3f c5e6 723f 2349 6d3f 52bd 6c3f
000000f0: a83d 6d3f 2dce 6c3f 1e8d 6e3f ac97 6c3f

shared.1.bias f4 [64]
-0.00022019661 0.008620645 -0.00040888222 -0.0018152327 0.0023677594 -0.008811086 0.017261012 -0.00397554
0.0 -0.0027172614 0.0024504513 0.022093369 0.0 0.0 0.0008368035 0.010435633
0.00022297712 0.0 -0.017240996 -0.0006723522 -0.018944874 0.009588254 -0.00032362354 0.01836239
0.0 -1.868366e-06 -0.00011093117 0.009751521 -0.0023061845 -0.012040779 -0.007568774 0.0035058572
-0.0009852631 0.0 -0.00639545 0.0037999337 0.004856348 5.7956004e-08 -0.0026387782 0.004181194
0.013511292 0.0041340706 0.002767812 0.008902773 -0.0051595983 0.0068257246 0.013416466 0.00058422063
0.0063008987 -0.009488787 -0.0026885725 0.0 -0.0077551967 0.015292832 0.0031824224 -0.0023115915
-0.0012508028 -0.006442541 0.0087432 0.005437093 0.001121353 0.002067428 0.010614784 -0.0057623256
00000000: 94e4 66b9 9b3d 0d3c 3e5f d6b9 1aed edba
00000010: 692c 1b3b 605c 10bc f766 8d3c 3f45 82bb
00000020: 0000 0000 1514 32bb c097 203b 27fd b43c
00000030: 0000 0000 0000 0000 ef5c 5b3a 38fa 2a3c
00000040: f7ce 6939 0000 0000 fd3c 8dbc cb40 30ba
00000050: 4832 9bbc 0d18 1d3c 04ac a9b9 b96c 963c
00000060: 0000 0000 91c4 fab5 b8a3 e8b8 d8c4 1f3c
00000070: 5b23 17bb b046 45bc 7a03 f8bb 86c2 653b
00000080: f223 81ba 0000 0000 ec90 d1bb 4f08 793b
00000090: 0022 9f3b 4deb 7833 5aef 2cbb 6602 893b
000000a0: 775e 5d3c 1977 873b 2e64 353b f0dc 113c
000000b0: d911 a9bb 54aa df3b bdd0 5b3c 6226 193a
000000c0: c577 ce3b db76 1bbc c332 30bb 0000 0000
000000d0: 4e1f febb c98e 7a3c 3090 503b 127e 17bb
000000e0: faf1 a3ba f31b d3bb a43f 0f3c a429 b23b
000000f0: 5dfa 923a b07d 073b a2e9 2d3c e4d1 bcbb

shared.4.weight f4 [64, 64]
-0.0050396426 -0.057841014 0.039552525 -0.058586106 0.044097256 -0.075969614 0.03557249 -0.0106372945
0.0009988534 0.00044602223 -5.9443344e-05 0.09099876 0.0026206872 -0.0046613244 -0.0602189 -0.034880903
0.08673306 -0.00082833756 0.030005915 -0.018781425 0.062089548 0.10915428 -0.0015018183 -0.0066145086
0.04284943 0.01217764 -0.05531307 0.018031327 0.051688198 0.070415266 0.040673506 0.054153826
0.06293297 -0.040458467 -0.10436714 0.09187654 0.053450637 -0.040501207 0.02963441 -0.024509972
0.07663804 0.068261474 -0.03579659 0.0683744 0.025729511 0.043494686 -0.025103964 -0.00030195803
0.029094754 -0.06688006 -0.07113806 -7.4756164e-05 0.052047823 0.006078133 -0.07682836 -0.06941676
-0.013998758 0.06604653 0.10808815 0.007352214 -0.06420784 -0.059550013 -0.06690535 0.04186679
-0.021519566 0.098787576 -0.051887285 -0.0011170593 -0.08397784 0.07213242 -0.001372908 0.05939559
-0.050484132 0.054538384 0.015944248 0.0010391097 -3.1265734e-09 0.011611605 0.00843908 -0.08702206
-0.04287985 -0.005631548 -0.02538427 0.0027641535 0.10602248 -0.010636026 0.0014710865 -0.036961105
0.02809686 -1.2897722e-06 0.010880603 0.099825315 -0.09040277 -0.03140006 0.007215878 -0.014912336
-0.12614344 -2.4026485e-07 -0.060550973 0.087064065 -0.04720474 2.0286018e-07 0.000619678 0.009757977
-0.05188912 -0.1100016 -0.010383541 -0.097453296 -0.07384183 -0.11333103 0.057351332 0.007000777
0.007508764 0.110474385 0.10488007 3.3241662e-08 0.06548886 0.043919433 -0.104375795 -0.0033525028
-0.0030632727 0.06719384 0.06564723 0.030610168 0.0044759926 -0.06267433 0.054058924 -0.107416525
0.031923898 0.03990878 -0.04859916 -0.024980744 -0.069809996 -0.06148725 0.017489891 -0.037905913
0.029309595 -0.03341884 -0.06741451 0.043944232 -0.028311599 2.2863952e-07 -0.036147926 -0.04962386
-0.045191966 0.014535449 -0.020666506 -0.015562031 0.009256482 -0.020265304 0.015823772 -0.032064937
1.5133127e-06 -0.002203473 0.0029272342 0.06350423 -0.004359445 -0.047777653 0.04957811 0.042820603
0.019933373 0.03718048 0.03653497 0.08990555 0.049545832 2.3973799e-08 -0.039418325 -0.008959372
0.05805865 -0.04415138 -0.028440552 -0.039311472 -0.031659167 -0.009578133 -0.010164016 0.012680838
0.063411765 0.037499245 0.011456375 1.8660002e-07 -0.01630531 0.03750809 0.045248874 -0.043533877
-0.020775486 0.116218165 0.053751312 0.064567834 0.11189952 0.024176536 0.075173914 -0.020022303
-0.040176865 0.017014928 0.020501344 0.0024900334 -0.014048109 -0.015069927 0.012339817 0.032706648
-0.0033041006 -0.027427765 -0.023378894 0.03910151 -0.059259184 0.05330695 0.0048614205 0.061378885
-0.034440823 -4.8485384e-07 -0.054393508 0.05896185 -0.008894062 -0.029968623 0.030245313 0.0043646325
0.016527798 0.033015557 -4.626972e-05 0.009167883 -0.024771255 -0.043594234 0.028581437 0.001609452
0.033251256 2.0348264e-08 0.08738113 0.021483423 -0.062571384 0.009576136 0.04752783 -0.004054771
0.030001435 0.06281278 0.041916642 0.048237436 0.072664045 0.00701789 0.0040860726 0.0013550213
0.005607832 0.046275076 0.010840168 -4.887346e-08 0.053240895 0.024727244 -0.030329788 -0.019188302
0.0036081888 -0.0126389805 -0.056050677 0.021688547 0.00776667 -0.0031004776 0.091672204 -0.021868264
00000000: 9623 a5bb b3ea 6cbd d401 223d fcf7 6fbd
00000010: 539f 343d f595 9bbd 76b4 113d 0c48 2ebc
00000020: f5eb 823a 17d8 e939 ce52 79b8 8f5d ba3d
00000030: d6bf 2b3b 06be 98bb 18a8 76bd 47df 0ebd
00000040: 1aa1 b13d cb24 59ba f7ce f53c 81db 99bc
00000050: 9c51 7e3d 478c df3d a9d8 c4ba 85be d8bb
00000060: e282 2f3d b984 473c f58f 62bd 6fb6 933c
00000070: 01b7 533d e135 903d 4399 263d 67d0 5d3d
00000080: 00e3 803d c7b7 25bd 70be d5bd c429 bc3d
00000090: 0eef 5a3d 98e4 25bd ddc3 f23c 23c9 c8bc
000000a0: 68f4 9c3d accc 8b3d 729f 12bd e107 8c3d
000000b0: b2c6 d23c 7c27 323d d4a6 cdbc 1f50 9eb9
000000c0: 1f58 ee3c 6af8 88bd d5b0 91bd 69c6 9cb8
000000d0: 1930 553d 132b c73b 3058 9dbd 602a 8ebd
000000e0: 0c5b 65bc 6743 873d 525d dd3d d7ea f03b
000000f0: 667f 83bd b7ea 73bd ac05 89bd 837c 2b3d
00000100: cd49 b0bc 2451 ca3d c387 54bd 4a6a 92ba
00000110: 93fc abbd 2aba 933d 26f3 b3ba ca48 733d
00000120: 73c8 4ebd a463 5f3d 839d 823c bc32 883a
00000130: 43db 56b1 9a3e 3e3c 1144 0a3c 9f38 b2bd
00000140: c8a2 2fbd d988 b8bb acf2 cfbc cd26 353b
00000150: 5022 d93d ba42 2ebc 79d1 c03a 8764 17bd
00000160: 632b e63c 3c1c adb5 8f44 323c 3771 cc3d
00000170: 1625 b9bd 599d 00bd 2c73 ec3b df52 74bc
00000180: bf2b 01be c0fd 80b4 4c04 78bd a54e b23d
00000190: c259 41bd c8d1 5934 e371 223a ecdf 1f3c
000001a0: b089 54bd 8548 e1bd ba1f 2abc 9895 c7bd
000001b0: 633a 97bd 191a e8bd 3be9 6a3d c666 e53b
000001c0: 140c f63b 6540 e23d 5dcb d63d 98c5 0e33
000001d0: 061f 863d dde4 333d fac2 d5bd aab5 5bbb
000001e0: 30c1 48bb ed9c 893d 0e72 863d 2dc2 fa3c
000001f0: 59ab 923b 665b 80bd e46c 5d3d 32fd dbbd
00000200: a2c2 023d 6477 233d ea0f 47bd 6ba4 ccbc
00000210: 8bf8 8ebd 0eda 7bbd f646 8f3c 3b43 1bbd
00000220: ad1a f03c 32e2 08bd 9e10 8abd defe 333d
00000230: baed e7bc f47f 7534 d90f 14bd 6342 4bbd
00000240: 361b 39bd 1826 6e3c ce4c a9bc e4f7 7ebc
00000250: 80a8 173c 6c03 a6bc dba0 813c 8656 03bd
00000260: 071d cb35 2468 10bb d7d6 3f3b 810e 823d
00000270: add9 8ebb 80b2 43bd 6b12 4b3d a864 2f3d
00000280: 504b a33c 8f4a 183d b1a5 153d 6720 b83d
00000290: 92f0 4a3d f1ee cd32 1c75 21bd 54ca 12bc
000002a0: e8ce 6d3d 14d8 34bd 29fc e8bc 1105 21bd
000002b0: 0bad 01bd 9aed 1cbc f986 26bc 4ac3 4f3c
000002c0: 07de 813d cf98 193d 85b3 3b3c 395c 4834
000002d0: b792 85bc 15a2 193d e256 393d 9450 32bd
000002e0: 5a31 aabc ca03 ee3d 562a 5c3d 243c 843d
000002f0: 932b e53d df0d c63c c8f4 993d d005 a4bc
00000300: 7f90 24bd e462 8b3c 6ff2 a73c d42f 233b
00000310: 0a2a 66bc dbe7 76bc f22c 4a3c 68f7 053d
00000320: 9c89 58bb 31b0 e0bc 1885 bfbc e828 203d
00000330: c2b9 72bd 6358 5a3d 8d4c 9f3b 6d68 7b3d
00000340: d211 0dbd e726 02b5 bacb 5ebd fb81 713d
00000350: 66b8 11bc c280 f5bc 05c5 f73c 3105 8f3b
00000360: 4e65 873c 523b 073d bc11 42b8 e334 163c
00000370: 16ed cabc de8f 32bd 9e23 ea3c 3ff4 d23a
00000380: 7832 083d 4eca ae32 e1f4 b23d 01fe af3c
00000390: 6d25 80bd 3ae5 1c3c 8bac 423d e2dd 84bb
000003a0: 92c5 f53c fda3 803d c9b0 2b3d 9e94 453d
000003b0: e3d0 943d 54f6 e53b 76e4 853b f89a b13a
000003c0: e8c1 b73b ef8a 3d3d f69a 313c f0e8 51b3
000003d0: 2013 5a3d ca90 ca3c 2d76 f8bc c930 9dbc
000003e0: 5d77 6c3b ba13 4fbc 6595 65bd 2eac b13c
000003f0: 8d7f fe3b 6231 4bbb a3be bb3d 1325 b3bc

shared.4.bias f4 [64]
0.06108524 0.09531484 0.07729942 -0.05438154 -0.09138288 0.06670124 0.052574992 -0.026345158
0.0013406243 0.08824698 0.005946156 0.0006755784 0.076756895 -0.035799198 -0.101952 -0.02755896
-0.01704505 -0.053500235 -0.026401816 -0.03826062 -0.06983489 0.018637327 0.0074762776 0.10333493
0.012419211 0.014061329 0.041317157 0.046021417 -0.10928739 -0.03375519 0.058799297 -0.045327004
-0.11247511 -0.075236216 0.03853002 0.08881095 0.02896551 -0.10113653 -0.020666784 -0.048514012
-0.06361203 -0.07264529 0.10514375 -0.032529622 0.016394572 0.052526567 -0.019135758 0.018792937
-0.015982214 0.028075716 0.02306487 0.06172029 0.05869072 0.029368343 0.052548088 0.0839182
0.03570292 -0.06334621 -0.04952217 0.078561075 0.018816317 0.0810273 0.058981292 0.051447824
00000000: 8434 7a3d 6d34 c33d 294f 9e3d 2dbf 5ebd
00000010: f326 bbbd a99a 883d e058 573d cdd1 d7bc
00000020: e3b7 af3a d5ba b43d f9d7 c23b 4d19 313a
00000030: b832 9d3d 2ea2 12bd 36cc d0bd 54c3 e1bc
00000040: 10a2 8bbc 1023 5bbd 9f48 d8bc 2bb7 1cbd
00000050: 9805 8fbd 4fad 983c 90fb f43b 44a1 d33d
00000060: f279 4b3c 7d61 663c 2e3c 293d f480 3c3d
00000070: 11d2 dfbd e242 0abd 88d7 703d cfa8 39bd
00000080: 5a59 e6bd 7215 9abd a7d1 1d3d 84e2 b53d
00000090: 1449 ed3c ab20 cfbd 634d a9bc a1b6 46bd
000000a0: 0647 82bd 0ec7 94bd 9b55 d73d c83d 05bd
000000b0: e94d 863c 1926 573d 98c2 9cbc a5f3 993c
000000c0: 22ed 82bc 0bff e53c 8af2 bc3c 6ace 7c3d
000000d0: ae65 703d e195 f03c aa3c 573d 4edd ab3d
000000e0: 3a3d 123d a8bb 81bd c2d7 4abd a1e4 a03d
000000f0: ad24 9a3c a4f1 a53d 5e96 713d f4ba 523d

shared.5.weight f4 [64]
0.94217914 0.9372692 0.92406994 0.9244333 0.9247614 0.931412 0.92727435 0.92633307
0.924926 0.92516506 0.9318054 0.9414965 0.9248329 0.924795 0.927524 0.9254708
0.92480034 0.94150925 0.924622 0.924512 0.92528516 0.9247019 0.9247639 0.929944
0.92691404 0.9251427 0.92490005 0.92606074 0.927759 0.9269179 0.9247187 0.9246751
0.93047184 0.92547065 0.9247538 0.94785106 0.92495286 0.9337283 0.9257343 0.92689306
0.9253064 0.92397344 0.92968893 0.9246286 0.9392024 0.9247246 0.9244877 0.9256355
0.92482704 0.92474955 0.92563367 0.9271113 0.9251522 0.93000513 0.92465097 0.93939364
0.92785364 0.9246394 0.9283017 0.92428076 0.9399856 0.9353257 0.9248701 0.9276726
00000000: a732 713f e0f0 6f3f d98f 6c3f a9a7 6c3f
00000010: 2abd 6c3f 0471 6e3f da61 6d3f 2a24 6d3f
00000020: f3c7 6c3f 9ed7 6c3f cc8a 6e3f ea05 713f
00000030: d9c1 6c3f 5dbf 6c3f 3672 6d3f a8eb 6c3f
00000040: b7bf 6c3f c006 713f 07b4 6c3f d2ac 6c3f
00000050: 7ddf 6c3f 44b9 6c3f 54bd 6c3f cf10 6e3f
00000060: 3d4a 6d3f 27d6 6c3f 40c6 6c3f 5112 6d3f
00000070: 9d81 6d3f 7e4a 6d3f 5dba 6c3f 82b7 6c3f
00000080: 6733 6e3f a5eb 6c3f aabc 6c3f 5ea6 723f
00000090: b6c9 6c3f d108 6f3f ecfc 6c3f dd48 6d3f
000000a0: e1e0 6c3f 8689 6c3f 1800 6e3f 76b4 6c3f
000000b0: 926f 703f c0ba 6c3f 3aab 6c3f 73f6 6c3f
000000c0: 77c1 6c3f 63bc 6c3f 54f6 6c3f 2b57 6d3f
000000d0: c6d6 6c3f d114 6e3f edb5 6c3f 1a7c 703f
000000e0: d187 6d3f 2bb5 6c3f 2ea5 6d3f aa9d 6c3f
000000f0: e5a2 703f 8171 6f3f 49c4 6c3f f47b 6d3f

shared.5.bias f4 [64]
0.009767048 -0.00946008 0.0076443856 0.0062905205 -0.0070848595 0.008686145 -0.014333178 -0.005787582
-0.0034308918 -0.0059887413 0.0022053705 0.010048018 0.0012181286 -0.0044760983 -0.012423483 0.0013713347
0.00021350083 -0.0146328155 -0.0019145528 -0.007457239 0.008021994 -0.0047508776 -0.00011375916 0.0053294236
0.0040600575 0.002943924 -0.0026176586 0.0046968367 -0.0060769357 0.008380127 2.6905384e-06 0.0034157122
-0.00698183 -0.0025651443 0.0001337908 0.0040802276 -0.00776708 -0.012003724 -0.0056463247 0.014330449
0.005531314 0.0071479664 0.005875537 0.005771093 -0.0032996635 5.8272395e-05 0.0009834246 0.006845867
-0.00017801365 -8.5039865e-06 0.011123158 0.0070848577 0.0069711353 0.002992823 0.00013162897 0.0043777763
0.011385045 0.006482746 0.0074030454 -0.0029702573 0.0059535145 -0.0130173005 -0.0053397296 -0.0008080635
00000000: f805 203c 74fe 1abc c17d fa3b b620 ce3b
00000010: 1c28 e8bb 5550 0e3c b5d5 6abc c2a5 bdbb
00000020: d0d8 60bb 343d c4bb fa87 103b 71a0 243c
00000030: 9da9 9f3a 3cac 92bb dd8b 4bbc 5bbe b33a
00000040: 31df 5f39 7abe 6fbc bbf1 faba db5b f4bb
00000050: ae6e 033c 40ad 9bbb fc91 eeb8 72a2 ae3b
00000060: 3b0a 853b d9ee 403b 068d 2bbb ece7 993b
00000070: 0821 c7bb cd4c 093c 198f 3436 24da 5f3b
00000080: d6c7 e4bb fb1b 28bb 324a 0c39 6eb3 853b
00000090: fd82 febb 45ab 44bc ce04 b9bb 42ca 6a3c
000000a0: 0640 b53b 7d39 ea3b 9487 c03b 701b bd3b
000000b0: 2b3f 58bb 8269 7438 41e6 803a 4b53 e03b
000000c0: 2da9 3ab9 58ac 0eb7 e83d 363c 1828 e83b
000000d0: 1f6e e43b 3d23 443b e205 0a39 7373 8f3b
000000e0: 5788 3a3c 376d d43b 3f95 f23b a6a8 42bb
000000f0: b315 c33b 8446 55bc e6f8 aebb 39d4 53ba

actor.0.weight f4 [3, 64]
-0.07014206 0.037226763 -0.026310518 0.0069936533 0.022689609 -0.045271285 0.046035703 -0.080680475
0.040816076 -7.22977e-05 -0.03547749 0.009151459 0.04198135 -0.0015789892 0.055866554 -0.0070880353
-0.00022001927 0.015669163 -0.026283408 -0.0014721494 -0.0290569 -0.019763105 -0.059014447 -0.06608906
0.035034884 0.0014880872 -0.03431517 -0.010576119 0.04568733 -0.0184528 -0.00013809708 -0.0004493523
-0.0624996 -0.002513011 0.01657546 -0.057685528 0.06323946 -0.065256335 -0.04616229 -0.022744969
0.034794632 -0.00873658 -0.009088163 0.030923937 0.013548582 -2.7581378e-05 0.031777866 -0.010221934
0.00017209446 0.004401046 -0.0435504 0.0112166405 -0.009301058 -0.012474139 0.055742126 -0.018111484
-0.056516793 -0.060849562 -0.013672364 -0.003715025 0.0059037227 -0.031628024 -0.049935184 -0.01695292
-0.048488602 0.07363288 0.031862225 0.07464454 0.001672909 -0.05897266 0.004491801 -0.054071557
0.0320735 0.0038718702 -0.03626816 0.039870553 -0.00044581335 -0.0022503126 -0.01875054 -0.023633415
0.00026490766 -0.012223291 0.046763383 0.014231011 -0.045909323 0.02359269 0.047000732 0.063466996
-0.007200246 0.013954211 -0.042281456 -0.060041234 -0.036539346 0.06360968 0.005500289 0.023371907
0.003586049 -0.045561913 -0.027959175 0.0036306686 0.02054642 0.068719946 -0.034250587 -0.011496354
0.007366088 0.01259371 -0.019662952 0.028121129 0.038117692 -0.049859613 0.03574689 -0.03714081
-0.027661752 -0.048434354 -0.045574706 0.046936344 0.0483244 0.053483974 -0.00812539 0.019544963
0.031696115 0.02951114 0.070194066 0.06189046 0.07230814 0.047856756 0.0074343653 0.057019494
0.022579424 -0.02089123 -0.05469499 0.027798813 -0.0013009184 -0.0067317444 0.06361758 -0.020271929
-0.027948726 0.010642336 0.036885183 0.036033448 0.00029123414 -0.002252791 0.019921472 0.024824757
-0.030095449 0.0066648675 0.02656514 -0.010731486 -0.027405236 -0.0015709199 -0.02322714 0.014391029
-0.039888628 -0.004374532 0.037883915 0.04986941 0.037147403 -0.0041166367 -0.0079251155 -0.034440614
0.041889332 -0.0026976003 -0.0103164455 -0.048315916 0.035767123 0.028445011 0.0020651147 0.011494053
-0.057453167 -0.02906169 0.06102703 -0.04085954 0.023191486 -0.01120763 -0.0050696144 -0.05331431
-0.055785105 -0.04489844 0.008949734 0.046024926 0.04898912 -0.030341608 -0.053413786 0.059296817
-0.048372857 -0.062836625 0.006437767 -0.003081765 0.012897718 0.034259517 0.04600851 0.022953438
00000000: a4a6 8fbd 177b 183d 2889 d7bc 042b e53b
00000010: 8fdf b93c 626e 39bd ef8f 3c3d ce3b a5bd
00000020: c22e 273d 889e 97b8 d850 11bd 00f0 153c
00000030: a3f4 2b3d 16f6 ceba 54d4 643d c042 e8bb
00000040: f9b4 66b9 9e5c 803c 4d50 d7bc 23f5 c0ba
00000050: bc08 eebc 3ce6 a1bc 22b9 71bd b359 87bd
00000060: bd80 0f3d ec0b c33a 108e 0cbd 7547 2dbc
00000070: a322 3b3d 542a 97bc 27ce 10b9 0b97 ebb9
00000080: 95ff 7fbd 54b1 24bb 42c9 873c a947 6cbd
00000090: b183 813d 1da5 85bd ab14 3dbd a853 babc
000000a0: d184 0e3d df23 0fbc 85e6 14bc 3254 fd3c
000000b0: dffa 5d3c 8f5e e7b7 8229 023d e679 27bc
000000c0: 4174 3439 a636 903b e761 32bd 00c6 373c
000000d0: 7763 18bc 5560 4cbc db51 643d 895e 94bc
000000e0: 277e 67bd 643d 79bd 0d02 60bc c777 73bb
000000f0: 0474 c13b 638c 01bd d688 4cbd dae0 8abc
00000100: fc9b 46bd d6cc 963d f781 023d 3ddf 983d
00000110: 8345 db3a 518d 71bd f52f 933b 237a 5dbd
00000120: 815f 033d 34bf 7d3b ec8d 14bd 4e4f 233d
00000130: 0ebc e9b9 fb79 13bb bc9a 99bc dd9a c1bc
00000140: 4ee3 8a39 3344 48bc f68a 3f3d 3029 693c
00000150: 6a0b 3cbd 7545 c13c d783 403d fcfa 813d
00000160: 0bf0 ebbb 34a0 643c 522f 2dbd cced 75bd
00000170: 48aa 15bd cb45 823d c53b b43b 7176 bf3c
00000180: eb03 6b3b 219f 3abd a40a e5bc 83f0 6d3b
00000190: f750 a83c 0bbd 8c3d 584a 0cbd 345b 3cbc
000001a0: 3a5f f13b d955 4e3c 3314 a1bc 485e e63c
000001b0: 4c21 1c3d 9839 4cbd 556b 123d f620 18bd
000001c0: e69a e2bc 1a63 46bd 8bac 3abd 5340 403d
000001d0: ceef 453d 0312 5b3d 5b20 05bc c21c a03c
000001e0: c9d3 013d 59c1 f13c e8c1 8f3d da80 7d3d
000001f0: 4a16 943d 7205 443d fa9b f33b 468d 693d
00000200: 7cf8 b83c 1624 abbc db07 60bd 56ba e33c
00000210: 9483 aaba f795 dcbb ef49 823d 5111 a6bc
00000220: baf4 e4bc 315d 2e3c eb14 173d cf97 133d
00000230: c9b0 9839 90a3 13bb 5b32 a33c 4a5d cb3c
00000240: bb8a f6bc f664 da3b 239f d93c 1dd3 2fbc
00000250: f280 e0bc 53e7 cdba d846 bebc 5ac8 6b3c
00000260: 4262 23bd 3c58 8fbb 2a2c 1b3d de43 4c3d
00000270: e027 183d dae4 86bb 58d8 01bc 9a11 0dbd
00000280: 2694 2b3d 39ca 30bb 4f06 29bc e9e6 45bd
00000290: 8c80 123d 8305 e93c e056 073b 8d51 3c3c
000002a0: 0354 6bbd c812 eebc 7bf7 793d 555c 27bd
000002b0: 12fc bd3c 35a0 37bc 021f a6bb 1b60 5abd
000002c0: ec7e 64bd 6de7 37bd e8a1 123c a284 3c3d
000002d0: d1a8 483d f78e f8bc 6ac8 5abd 38e1 723d
000002e0: 9e22 46bd 7db0 80bd e7f3 d23b 70f7 49bb
000002f0: f350 533c b553 0c3d 6b73 3c3d d908 bc3c

actor.0.bias f4 [3]
-0.08715729 0.0802233 -0.023868464
00000000: 857f b2bd 1d4c a43d cc87 c3bc

critic.0.weight f4 [1, 64]
-0.10368122 0.09997162 -0.025244428 -0.027125115 0.05415026 -0.109276555 0.07659291 0.008948774
0.008648732 0.09444022 -0.11127266 -0.10019058 -0.061425254 0.010283079 0.07941305 -0.032992717
-0.025516184 0.10379782 0.016044756 -0.039050184 -0.024180913 -0.0021240853 -0.016109621 -0.05701182
-0.06891619 0.05754287 -0.0013797085 -0.10619078 -0.115867816 -0.049316037 -0.009778032 -0.058685917
0.108278565 -0.073319346 0.004495387 -0.10089489 0.0063979654 0.09045665 0.061990973 -0.118361086
-0.06343808 -0.03479237 -0.12291707 -0.026758177 0.08706293 -0.018933672 -0.07721269 -0.036089215
-0.057816055 0.01231404 -0.051436346 -0.04712143 -0.04423154 -0.08660615 -0.013202176 -0.10197055
-0.08460084 -0.026059031 -0.054072317 -0.064586386 -0.11405578 0.108623534 0.009394577 -0.08746585
00000000: d256 d4bd ecbd cc3d 67cd cebc 7d35 debc
00000010: aacc 5d3d 63cc dfbd bedc 9c3d e19d 123c
00000020: 69b3 0d3c e069 c13d ece2 e3bd b830 cdbd
00000030: 0c99 7bbd 5c7a 283c 4fa3 a23d 5f23 07bd
00000040: 5107 d1bc f493 d43d 4b70 833c 16f3 1fbd
00000050: 0d17 c6bc 3d34 0bbb 53f8 83bc 3a85 69bd
00000060: ee23 8dbd 13b2 6b3d 56d7 b4ba 8d7a d9bd
00000070: 1b4c edbd 9dff 49bd 0a34 20bc a560 70bd
00000080: 27c1 dd3d 7428 96bd 0a4e 933b fba1 cebd
00000090: 06a6 d13b 5641 b93d 3fea 7d3d 4c67 f2bd
000000a0: d3eb 81bd 7282 0ebd f2bb fbbd f733 dbbc
000000b0: 0d4e b23d ca1a 9bbc b021 9ebd 49d2 13bd
000000c0: 87d0 6cbd d4c0 493c ebae 52bd 6702 41bd
000000d0: 222c 35bd 915e b1bd f14d 58bc f0d5 d0bd
000000e0: 3543 adbd c079 d5bc ef7a 5dbd de45 84bd
000000f0: 1496 e9bd 0476 de3d b6eb 193c 4c21 b3bd

exp_avg f4 [64, 20]
0.0014419766 -0.00045591375 0.00024889805 -0.0007110316 6.562023e-05 0.0010005222 -0.0010502231 -0.001715068
-0.00017292071 -0.0004093864 0.0002598962 -0.0003306454 0.0011860132 0.0014384636 -0.0006727069 0.00078211725
-0.001712052 -0.0026850947 -6.505911e-05 -0.00069068756 0.0007194514 0.00060887926 -0.00015790362 -3.5653375e-05
-0.00015471129 0.00048657932 0.0010161644 -0.001168961 -1.6314649e-05 6.25989e-05 0.003731732 0.00018017029
-0.00028544397 0.00015667417 0.00053006137 0.0012793329 0.0005307852 0.00049140776 0.0039268094 0.001084003
-0.00013453582 0.0013039768 -0.0005929674 0.0010156259 -7.646498e-06 0.0013956022 -0.00037217175 6.497632e-06
-0.0014810973 -0.000524603 0.000110518566 0.000684249 -0.0008824813 0.0014749916 0.00065436616 -0.00068272254
-0.000118880795 -0.0017551632 -0.00023386822 4.320205e-05 -0.00064678304 0.00093999656 -9.960337e-06 0.00093098945
-1.0651619e-06 0.00070952927 -0.0012936677 -0.0010469352 -6.9439775e-05 0.0014497759 0.0012530235 -5.119269e-05
-0.0006470457 -6.226583e-05 -0.00030984433 0.0004397319 0.00089881744 -0.00027413547 -0.00060842885 -0.0005364087
-0.00066423294 0.0001402752 -0.00085767667 -0.00037814557 0.000791278 0.0015216031 0.00058081717 0.00017506343
0.0012193032 -0.0009632205 0.005864813 0.0010152318 -0.0011371068 0.0011385018 -0.0005462797 -0.0007955225
-0.00013103445 0.0057013165 0.004112384 -0.0008675898 0.00051995314 -0.0014821452 0.0006486177 0.00013377306
0.00093111617 -0.00086005987 -0.0021738636 0.00036795248 0.00012045654 0.0003562854 0.0013223734 -0.0012372368
-0.00013176877 0.0008994022 0.00041483477 0.00051362376 -0.0020455532 -0.013760087 0.0032836897 -0.0029502115
0.0008245911 0.00013458006 -0.00014963468 0.00021247016 0.0005141301 0.00041071637 -0.0008111992 0.00010256628
0.0001252533 -0.00039852504 -0.0007469847 0.0021334304 0.0020062178 -1.8036715e-10 -0.001111281 -0.0007501045
0.0014047065 0.008275022 0.00056544435 0.0022942752 0.00081844785 -0.00025392073 0.0010103772 0.00020619272
-0.0011318811 0.0013172041 -0.00127746 0.0008283626 -0.00038077187 0.0007891024 -0.00052564533 0.0003578775
0.0010153617 -0.00088045216 -0.00024347773 0.0009485382 -0.0010151126 0.0002476313 -0.00038418788 0.0007301679
2.6532117e-09 0.0011004242 0.0011507618 -0.00044136983 -2.9410103e-06 -0.001552731 -0.0015360994 -0.00094893866
0.0011327586 0.00095710723 -0.0014217421 4.9033853e-05 5.474785e-06 0.00020112196 -0.00091484335 -7.690685e-05
-0.00017371691 -0.00097440655 -7.124121e-05 0.00024004064 -4.7591995e-05 -0.0011648494 -0.0009859396 -0.0011004605
0.00071527006 -0.00026387325 0.0004087728 -0.00021981986 0.0015146277 0.00035534822 0.0005988014 -0.0001669882
0.0003671817 0.0011514068 -0.0013611962 0.0013469417 0.001253941 -8.0992875e-05 -0.0006898948 -0.0015863273
-0.0015201098 0.0012066059 -0.00042617013 0.00028173567 8.1368016e-05 0.00012512687 0.00085536763 0.00076461263
0.0009116698 -0.00010376563 -0.002224437 0.00024783562 -0.00032272353 0.0014449261 0.0004429349 0.001530295
-0.0011881174 0.0051846663 -0.0049999193 0.00072213105 -3.9094428e-10 0.0005816173 0.00057261495 -0.0013098019
0.0012709405 -0.0004330202 -0.00062978803 0.001872727 0.0019283103 0.00048288348 -0.0040442944 0.0003835156
-0.00070395967 -2.8771145e-05 -0.00093829946 -0.0008423891 0.0022078126 0.007348135 -0.008867499 0.001471254
-0.00033233257 -0.0003375845 -0.00035060773 -1.3195624e-06 -1.0444223e-06 -3.5534729e-06 1.8515886e-05 -0.0014856926
-0.001487924 -0.00050925446 2.104027e-05 0.0002961309 -0.0006859192 0.00037058032 -0.00080688857 0.0007443502
00000000: b500 bd3a b507 efb9 887e 8239 8664 3aba
00000010: 989d 8938 f423 833a a4a7 89ba 22cc e0ba
00000020: 0d52 35b9 eaa2 d6b9 ad42 8839 795a adb9
00000030: 0074 9b3a d48a bc3a 9958 30ba 0007 4d3a
00000040: ef66 e0ba 6af8 2fbb 5870 88b8 420f 35ba
00000050: 9199 3c3a 329d 1f3a ee92 25b9 858a 15b8
00000060: ff39 22b9 921b ff39 d230 853a d337 99ba
00000070: 71db 88b7 8747 8338 1390 743b 18ec 3c39
00000080: a4a7 95b9 e748 2439 d1f3 0a3a 4aaf a73a
00000090: 6424 0b3a d1d1 003a 77ac 803b 1b15 8e3a
000000a0: 2f12 0db9 33ea aa3a 5e71 1bba c01e 853a
000000b0: 7549 00b7 a4ec b63a 0c20 c3b9 3c06 da36
000000c0: 6121 c2ba 8385 09ba 34c6 e738 2c5f 333a
000000d0: 5156 67ba 8154 c13a c589 2b3a bcf8 32ba
000000e0: a44f f9b8 810d e6ba 863a 75b9 d933 3538
000000f0: e08c 29ba 1a6a 763a 521b 27b7 a50d 743a
00000100: aff6 8eb5 b4ff 393a 4990 a9ba 5139 89ba
00000110: 32a0 91b8 6806 be3a 7e3c a43a bbb7 56b8
00000120: 809e 29ba b794 82b8 9a72 a2b9 d18b e639
00000130: 9e9e 6b3a d7b9 8fb9 f87e 1fba c79d 0cba
00000140: eb1f 2eba d616 1339 b5d5 60ba d741 c6b9
00000150: c56d 4f3a 8770 c73a fb41 183a 3b91 3739
00000160: 07d1 9f3a a280 7cba 9e2d c03b 8711 853a
00000170: f90a 95ba c839 953a 3634 0fba 9c8a 50ba
00000180: 4b66 09b9 1cd2 ba3b 2dc1 863b f76e 63ba
00000190: 774d 083a 8a44 c2ba ff07 2a3a 6f45 0c39
000001a0: 2616 743a a475 61ba 6177 0ebb bfe9 c039
000001b0: 9d9d fc38 d1cb ba39 7d53 ad3a c72a a2ba
000001c0: 692b 0ab9 dcc5 6b3a 2e7e d939 b5a4 063a
000001d0: b00e 06bb fd71 61bc 2c33 573b 5658 41bb
000001e0: 5f29 583a 0f1e 0d39 41e7 1cb9 86ca 5e39
000001f0: b0c6 063a 6b55 d739 a8a6 54ba da18 d738
00000200: 6d56 0339 20f1 d0b9 4bd1 43ba 06d1 0b3b
00000210: c07a 033b d750 46af 67a8 91ba a9a2 44ba
00000220: 211e b83a f593 073c 543a 143a 8d5b 163b
00000230: 1b8d 563a aa20 85b9 a26e 843a 7035 5839
00000240: a15b 94ba 09a6 ac3a 7270 a7ba 7926 593a
00000250: 56a2 c7b9 c4db 4e3a 76cb 09ba 81a1 bb39
00000260: e315 853a 25ce 66ba 0e4e 7fb9 52a7 783a
00000270: 870d 85ba 83d4 8139 d36c c9b9 bd68 3f3a
00000280: cb53 3631 1c3c 903a 29d5 963a a867 e7b9
00000290: 2c5e 45b6 0285 cbba f156 c9ba 32c2 78ba
000002a0: 1279 943a 61e6 7a3a c059 baba b3a9 4d38
000002b0: 0cb4 b736 44e4 5239 19d2 6fba 0d49 a1b8
000002c0: c727 36b9 516f 7fba 5567 95b8 6bb3 7b39
000002d0: 849d 47b8 dcad 98ba a53a 81ba 543d 90ba
000002e0: f680 3b3a 7858 8ab9 8e50 d639 727f 66b9
000002f0: 7986 c63a 084e ba39 e2f8 1c3a 8e19 2fb9
00000300: 4b82 c039 cdea 963a 2a6a b2ba dd8b b03a
00000310: 475b a43a b8da a9b8 0eda 34ba 50ec cfba
00000320: 6c3e c7ba fa26 9e3a 966f dfb9 ecb5 9339
00000330: 1fa4 aa38 7d34 0339 c03a 603a 4970 483a
00000340: 20fd 6e3a c09c d9b8 dcc7 11bb efef 8139
00000350: 3833 a9b9 ad63 bd3a b739 e839 2e94 c83a
00000360: 9bba 9bba 22e4 a93b 5dd6 a3bb 654d 3d3a
00000370: 84ec d6af ad77 183a 8a1b 163a a9ad abba
00000380: b095 a63a fd06 e3b9 5c18 25ba 4a76 f53a
00000390: 5bbf fc3a 862b fd39 0086 84bb 9812 c939
000003a0: ef89 38ba 9059 f1b7 36f8 75ba c7d3 5cba
000003b0: f3b0 103b a0c8 f03b fd48 11bc 18d7 c03a
000003c0: ec3c aeb9 d3fd b0b9 c6d1 b7b9 d21b b1b5
000003d0: 142e 8cb5 3378 6eb6 9052 9b37 92bb c2ba
000003e0: 7206 c3ba 7d7f 05ba a37f b037 0442 9b39
000003f0: 42cf 33ba 734a c239 6085 53ba 7f20 433a

exp_avg_sq f4 [64, 20]
6.9316576e-07 1.3787582e-07 6.379528e-08 2.4406506e-07 4.1935145e-08 4.497254e-07 3.6815447e-07 7.8779095e-07
5.7376354e-08 7.8271626e-08 2.5502432e-06 5.1886555e-08 6.263113e-07 6.903537e-07 2.2851209e-07 3.84579e-07
7.5526276e-07 2.4952565e-06 6.60306e-06 2.960661e-07 2.3214184e-07 1.9744574e-07 5.7624504e-08 5.8940895e-08
9.770543e-08 1.961518e-07 5.044346e-07 5.725248e-07 1.3902842e-07 1.5393842e-07 1.1653289e-05 1.4994585e-07
7.872444e-08 3.5984904e-08 1.3113957e-07 6.7146175e-07 2.8776088e-07 1.2608606e-05 1.1856286e-05 9.777176e-07
3.1119914e-08 5.936544e-07 1.7028435e-07 4.0102424e-07 2.1300612e-09 6.701881e-07 8.8767436e-08 1.4446621e-08
7.1690994e-07 1.547793e-07 1.8388485e-07 2.3827307e-07 3.1989882e-07 7.1985573e-07 1.9378719e-07 2.2852052e-07
3.561071e-08 1.1433576e-06 2.195726e-07 3.1182896e-08 1.9880858e-07 3.5720134e-07 3.2392968e-09 3.579997e-07
9.751203e-09 2.4413768e-07 5.7091e-07 3.980107e-07 1.972805e-08 7.5028214e-07 9.765585e-07 1.7678325e-08
1.9339217e-07 1.6460561e-08 8.250163e-08 1.2450919e-07 3.6298417e-07 6.6490765e-07 2.8938888e-07 1.4680445e-07
2.0659562e-07 3.5685026e-08 4.786134e-07 2.608597e-07 2.2832106e-07 7.0682734e-07 2.704652e-07 3.1107808e-07
5.8952236e-07 9.2922676e-07 1.8483777e-05 4.996234e-07 6.4156836e-07 4.708474e-07 2.976641e-07 4.2957302e-07
4.956951e-07 2.6871454e-05 2.1008771e-05 1.1062994e-06 1.4633936e-07 6.633475e-07 4.0113622e-07 2.8693782e-07
9.1319356e-07 4.3084526e-07 1.205238e-06 1.0289999e-06 1.1132512e-06 1.5539551e-06 5.4948814e-05 1.1109519e-06
3.6097543e-07 3.2494236e-07 6.789504e-07 5.8555935e-07 1.4168298e-06 9.988343e-05 5.5744666e-05 3.4317457e-06
2.8458766e-07 2.0096866e-08 1.2112743e-07 6.0269045e-08 7.398446e-08 9.408714e-08 7.5543795e-07 2.7515904e-07
3.3374897e-07 7.544284e-07 4.8755687e-06 8.665553e-07 8.6277345e-07 1.937923e-10 3.6868613e-07 5.102471e-07
3.5282417e-07 1.5153904e-05 9.251017e-06 7.856963e-07 2.8138618e-07 5.9101446e-08 4.0350506e-07 6.675955e-08
5.4886766e-07 6.6009574e-07 6.810024e-07 4.2498831e-07 2.6089526e-07 5.3103787e-07 2.231935e-05 2.9926483e-07
4.807235e-07 3.1448155e-07 1.1656996e-07 5.166127e-07 5.592802e-07 2.4073233e-05 7.4024438e-06 7.8965155e-07
9.678901e-10 4.4975633e-07 4.8666055e-07 1.1428819e-07 1.8627e-09 7.716054e-07 7.552878e-07 3.432747e-07
4.8084854e-07 3.6910137e-07 8.506496e-07 1.9455603e-08 1.2818071e-09 4.636359e-08 3.520144e-07 2.1523068e-08
3.954349e-08 4.6249173e-07 1.1166558e-07 8.269523e-08 1.3635195e-08 4.6524096e-07 3.6062363e-07 4.4300936e-07
2.3895217e-07 8.580127e-08 1.2487413e-07 1.0608504e-07 7.670598e-07 1.418626e-07 6.0313896e-06 8.379783e-08
9.853278e-08 4.794556e-07 7.4707015e-07 6.1043454e-07 5.793317e-07 6.8957897e-06 3.5079512e-07 7.825129e-07
7.571257e-07 4.95113e-07 1.7428553e-07 1.0651034e-07 1.222057e-07 1.5529827e-07 3.0475823e-07 3.0890115e-07
3.602604e-07 3.5674438e-07 1.2496952e-05 3.2153164e-07 2.0617225e-07 6.95529e-07 7.068659e-07 8.617167e-07
9.752773e-07 2.1995264e-05 4.1869944e-06 8.6064614e-07 5.2342153e-10 1.6187205e-07 1.4718518e-07 7.3566054e-07
4.809645e-07 4.4732047e-07 6.3223456e-07 7.045893e-07 7.6357577e-07 4.1195358e-07 5.224342e-06 4.115772e-07
6.309588e-07 9.965971e-09 2.6491767e-07 6.473067e-07 8.8006084e-07 1.7788152e-05 1.2764759e-05 5.097452e-07
8.200903e-08 8.190788e-08 8.3968686e-08 7.0561434e-10 1.4884823e-09 1.7498764e-09 1.2838727e-08 7.101113e-07
7.161975e-07 1.3818189e-07 1.5902718e-07 8.249189e-08 2.1360628e-07 9.3839866e-08 2.9598138e-07 2.4393418e-07
00000000: fd11 3a35 040b 1434 d3ff 8833 0c08 8334
00000010: 2e1c 3433 ca71 f134 c4a6 c534 9578 5335
00000020: f86d 7633 4816 a833 d824 2b36 dfd9 5e33
00000030: c91f 2835 bf50 3935 ed5c 7534 2378 ce34
00000040: 43bd 4a35 2e74 2736 da8f dd36 04f3 9e34
00000050: aa42 7934 7901 5434 d07e 7733 3326 7d33
00000060: 21d2 d133 cc9d 5234 7b68 0735 9baf 1935
00000070: d747 1534 454a 2534 7f82 4337 cd00 2134
00000080: 380f a933 d28d 1a33 5fcf 0c34 803e 3435
00000090: 8e7d 9a34 8d89 5337 5cea 4637 1f3a 8335
000000a0: b5a8 0533 9f5b 1f35 68d7 3634 5a4c d734
000000b0: 6f60 1231 fae6 3335 6aa0 be33 e930 7832
000000c0: ad71 4035 6931 2634 e271 4534 01d8 7f34
000000d0: 8fbe ab34 1c3c 4135 d113 5034 3e5f 7534
000000e0: 64f2 1833 7875 9935 a8c3 6b34 f5ed 0533
000000f0: 1678 5534 61c5 bf34 509a 5e31 1b33 c034
00000100: 3f86 2732 0712 8334 a340 1935 2dae d534
00000110: 7176 a932 ff66 4935 4b12 8335 0cdb 9732
00000120: 3ca7 4f34 2865 8d32 c02b b133 d3b0 0534
00000130: 2ae0 c234 1b7c 3235 4e5d 9b34 4da1 1d34
00000140: 92d4 5d34 1a44 1933 107a 0035 490c 8c34
00000150: 6a28 7534 cebc 3d35 7434 9134 3f02 a734
00000160: ab3f 1e35 fa6f 7935 9c0d 9b37 dc1d 0635
00000170: 3e38 2c35 c6c8 fc34 a4ce 9f34 11a0 e634
00000180: e80f 0535 026a e137 fe3b b037 287c 9435
00000190: 7521 1d34 e510 3235 be5b d734 6f0c 9a34
000001a0: 2f22 7535 ec4e e734 aac3 a135 2b1c 8a35
000001b0: 056b 9535 7e91 d035 d778 6638 041c 9535
000001c0: 16cc c134 bd73 ae34 1e41 3635 552f 1d35
000001d0: e729 be35 8278 d138 61cf 6938 f14c 6636
000001e0: 6ec9 9834 7aa1 ac32 410f 0234 426d 8133
000001f0: 63e1 9e33 f40c ca33 4dc9 4a35 92b9 9334
00000200: 1c2e b334 ed83 4a35 d198 a336 3a9d 6835
00000210: 5799 6735 af13 552f d6ef c534 eaf7 0835
00000220: c96b bd34 863d 7e37 d134 1b37 a3e8 5235
00000230: 6c11 9734 bad6 7d33 50a1 d834 735d 8f33
00000240: e655 1335 6f31 3135 21ce 3635 f329 e434
00000250: 2c11 8c34 a58c 0e35 703a bb37 a5aa a034
00000260: 110b 0135 04d6 a834 0355 fa33 5bad 0a35
00000270: 7121 1635 e0f0 c937 8262 f836 71f8 5335
00000280: 9b06 8530 0a76 f134 0fa3 0235 996e f533
00000290: f700 0031 5220 4f35 fbbe 4a35 514b b834
000002a0: a913 0135 e828 c634 3258 6435 531f a732
000002b0: 942b b030 4e21 4733 7efc bc34 bae1 b832
000002c0: 87d6 2933 614c f834 cdcc ef33 2f96 b133
000002d0: 3940 6a32 3bc6 f934 bc9b c134 bed6 ed34
000002e0: 5649 8034 bf41 b833 2415 0634 ded0 e333
000002f0: f3e7 4d35 e552 1834 3e61 ca36 58f4 b333
00000300: f898 d333 f0b3 0035 458a 4835 bedc 2335
00000310: 5f83 1b35 6262 e736 ea54 bc34 e10d 5235
00000320: 483d 4b35 e8e7 0435 3e23 3b34 aeba e433
00000330: a637 0334 10c0 2634 a79d a334 0dd7 a534
00000340: d069 c134 9386 bf34 00aa 5137 f99e ac34
00000350: 3260 5d34 64b4 3a35 74bf 3d35 b950 6735
00000360: 46e6 8235 7882 b837 027e 8c36 2707 6735
00000370: 84e0 0f30 0dcf 2d34 f409 1e34 357a 4535
00000380: a11b 0135 4227 f034 d4b6 2935 0223 3d35
00000390: 87f8 4c35 782a dd34 c24c af36 bdf6 dc34
000003a0: 295f 2935 ce36 2b32 023a 8e34 94c2 2d35
000003b0: 523d 6c35 c437 9537 3928 5637 6cd5 0835
000003c0: f11c b033 55e5 af33 4652 b433 32f5 4130
000003d0: 5193 cc30 4d80 f030 5291 5c32 7a9e 3e35
000003e0: b840 4035 265f 1434 0fc1 2a34 6526 b133
000003f0: a65b 6534 0385 c933 5fe7 9e34 0ff6 8234

exp_avg f4 [64]
-0.002068713 0.0065633827 -0.0012196836 -0.00042821956 0.006479185 0.0129830595 -0.0050517563 0.0016853481
-0.00031872693 0.001540138 -0.00712033 -0.015491176 -0.0008821654 -5.172189e-05 0.0020751369 -0.009141286
-0.005815372 -0.0009394279 -0.0038108907 -0.00025810755 0.0065502985 -0.013962747 -0.000791871 -0.023505902
-0.00093110173 -0.00044414678 -0.00015961369 0.0017978867 -0.00047777416 0.0016605103 0.002565201 -0.0005364517
-0.010263112 -0.00036883552 0.014586325 0.0018255282 0.0038641505 -0.00048672868 0.0073571824 -0.0015011721
-0.010130852 0.008656831 0.00051222683 0.0010798924 0.005106021 -0.0040823133 -0.00037425206 -0.0005455935
-0.010165651 0.008853293 0.007861682 -0.00051501737 -0.0011989722 0.004026566 0.0029435176 0.0026629127
-0.0006909704 0.016004957 0.0049596555 -0.00273168 0.009738382 -0.0009540224 0.0075691766 0.0026052115
00000000: 3f93 07bb a511 d73b cadd 9fba a882 e0b9
00000010: 584f d43b e6b6 543c 3489 a5bb e6e6 dc3a
00000020: ce1a a7b9 75de c93a a851 e9bb b4ce 7dbc
00000030: 1e41 67ba f5ef 58b8 05ff 073b 55c5 15bc
00000040: e08e bebb f043 76ba 23c0 79bb 9c52 87b9
00000050: e3a3 d63b 01c4 64bc 9095 4fba 738f c0bc
00000060: 2e15 74ba 5fdc e8b9 f95d 27b9 11a7 eb3a
00000070: c37d fab9 7ba5 d93a ee1c 283b aaa0 0cba
00000080: 9d26 28bc 4460 c1b9 7bfb 6e3c 9046 ef3a
00000090: b03d 7d3b 9e2f ffb9 8514 f13b fac2 c4ba
000000a0: e0fb 25bc 62d5 0d3c f646 063a 2d8b 8d3a
000000b0: 6950 a73b edc4 85bb 4337 c4b9 2906 0fba
000000c0: d58d 26bc 670d 113c 49ce 003c 3b02 07ba
000000d0: d526 9dba 49f1 833b 08e8 403b 4384 2e3b
000000e0: 3d22 35ba d41c 833c 9b84 a23b fc05 33bb
000000f0: bc8d 1f3c 5c17 7aba db06 f83b 32bc 2a3b

exp_avg_sq f4 [64]
6.5307254e-06 3.8712693e-05 1.6785741e-06 1.0292764e-06 6.0331262e-05 0.00020431707 2.898138e-05 5.8418715e-05
7.502817e-07 1.5564625e-05 4.0820283e-05 4.5141453e-05 1.269387e-06 6.8629424e-07 5.3932126e-05 1.9481045e-05
1.5822869e-05 1.3597469e-06 9.022398e-05 1.0473519e-06 9.197512e-05 8.468875e-05 1.3388977e-06 0.00017956363
1.2402584e-06 8.7293637e-07 3.1723932e-06 2.8428605e-05 6.0849056e-06 2.4466419e-05 1.50187125e-05 3.9008296e-06
2.6584621e-05 9.0382736e-07 4.306859e-05 0.00010200847 3.3913013e-05 9.2214384e-07 0.00012057181 6.740266e-06
6.514532e-05 6.0959723e-05 7.863888e-06 0.0001728056 5.3419208e-05 1.6485594e-05 3.2709195e-05 7.968878e-07
0.00014998832 6.8120324e-05 0.000253199 1.0412217e-06 2.9315934e-06 6.546689e-05 4.0108356e-05 1.2798934e-05
1.5558198e-06 0.00025610652 2.6299069e-05 1.811271e-05 4.1957745e-05 7.551069e-06 3.1752887e-05 2.1664377e-05
00000000: 8122 db36 705f 2238 5e4b e135 ab25 8a35
00000010: 330c 7d38 f23d 5639 0a1d f337 9e06 7538
00000020: f766 4935 c790 8237 7236 2b38 4456 3d38
00000030: ce5f aa35 c839 3835 2e35 6238 3a6b a337
00000040: 5abb 8437 8c80 b635 a136 bd38 bd92 8c35
00000050: c4e2 c038 ed9a b138 2db4 b335 3f49 3c39
00000060: f476 a635 bb53 6a35 4de5 5436 f779 ee37
00000070: f12c cc36 3c3d cd37 e1f8 7b37 dfe3 8236
00000080: 0a02 df37 8b9e 7235 8ca4 3438 61ed d538
00000090: d23d 0e38 3e89 7735 7fdb fc38 722a e236
000000a0: a19e 8838 01af 7f38 24ef 0337 2633 3539
000000b0: 700e 6038 8b4a 8a37 3b31 0938 b6e9 5535
000000c0: 2f46 1d39 d2db 8e38 cbbf 8439 1bc0 8b35
000000d0: 64bc 4436 454b 8938 053a 2838 01bb 5637
000000e0: 90d1 d035 0946 8639 d29c dc37 c0f0 9737
000000f0: c9fb 2f38 305f fd36 672e 0538 e5bb b537

exp_avg f4 [64]
0.0090609575 0.0097346185 0.0092760855 0.0092776865 0.009433377 0.011159912 0.0081864 0.009289101
0.009276446 0.009328506 0.008387004 0.007912051 0.009276446 0.009276446 0.009565469 0.008122587
0.008751848 0.009276446 0.008446871 0.009276617 0.0116251055 0.0073755966 0.009276788 0.0076717045
0.009276446 0.009276437 0.009271812 0.008494418 0.009245392 0.009255449 0.009263359 0.009273067
0.008311813 0.009276446 0.010229458 0.010669075 0.009980837 0.009276478 0.00909756 0.009108308
0.007965049 0.010111311 0.009267529 0.009799814 0.010118354 0.008923263 0.009036087 0.009276621
0.0059880055 0.010293312 0.008797265 0.009276446 0.0092736045 0.010005864 0.009451455 0.009700484
0.0092788935 0.014169821 0.010034707 0.009043208 0.010071681 0.009214068 0.010869768 0.009514708
00000000: 6974 143c f37d 1f3c b9fa 173c 7001 183c
00000010: 738e 1a3c 10d8 363c 4020 063c 5031 183c
00000020: 3cfc 173c 97d6 183c a569 093c 8ca1 013c
00000030: 3cfc 173c 3cfc 173c 7cb8 1c3c 9914 053c
00000040: e963 0f3c 3cfc 173c bf64 0a3c f4fc 173c
00000050: 3a77 3e3c fdae f13b abfd 173c ec62 fb3b
00000060: 3cfc 173c 32fc 173c cce8 173c 2c2c 0b3c
00000070: fc79 173c 2ba4 173c 58c5 173c 10ee 173c
00000080: 452e 083c 3cfc 173c 7599 273c 58cd 2e3c
00000090: aa86 233c 5efc 173c ef0d 153c 033b 153c
000000a0: d67f 023c eaa9 253c d5d6 173c 668f 203c
000000b0: 74c7 253c e132 123c 190c 143c f8fc 173c
000000c0: 0837 c43b 48a5 283c 6722 103c 3cfc 173c
000000d0: 51f0 173c a3ef 233c 47da 1a3c c7ee 1e3c
000000e0: 8006 183c 8928 683c 9d68 243c f729 143c
000000f0: b103 253c 9af6 163c 1d17 323c 94e3 1b3c

exp_avg_sq f4 [64]
2.1055424e-05 2.0800095e-05 2.0768694e-05 2.0835498e-05 2.3044544e-05 2.8145392e-05 1.949116e-05 2.1164082e-05
2.0793199e-05 2.10315e-05 2.105663e-05 1.9585912e-05 2.0793199e-05 2.0793199e-05 2.1749966e-05 2.0287593e-05
2.1078498e-05 2.0793199e-05 3.2452423e-05 2.080027e-05 3.321428e-05 2.0935806e-05 2.0802538e-05 1.9386893e-05
2.0793199e-05 2.079282e-05 2.0837642e-05 1.987669e-05 2.0905023e-05 2.184756e-05 2.1158949e-05 2.0763204e-05
2.1190748e-05 2.0793199e-05 2.215796e-05 2.4437182e-05 2.1643067e-05 2.0794412e-05 2.3776629e-05 2.065545e-05
1.981736e-05 2.251615e-05 2.0816202e-05 2.2079852e-05 2.4349165e-05 2.0633592e-05 2.0382065e-05 2.0796322e-05
2.483499e-05 2.428912e-05 2.544202e-05 2.0793199e-05 2.09044e-05 1.987663e-05 2.0739806e-05 2.1213747e-05
2.0818175e-05 5.604585e-05 2.0432679e-05 2.063435e-05 2.2897075e-05 2.082625e-05 2.143549e-05 2.1419219e-05
00000000: 2ea0 b037 dd7b ae37 6e38 ae37 e4c7 ae37
00000010: c84f c137 c519 ec37 f380 a337 8589 b137
00000020: 0e6d ae37 cd6c b037 c5a2 b037 6d4c a437
00000030: 0e6d ae37 0e6d ae37 b273 b637 462f aa37
00000040: bbd1 b037 0e6d ae37 861d 0838 3d7c ae37
00000050: 904f 0b38 4d9f af37 1c81 ae37 09a1 a237
00000060: 0e6d ae37 3e6c ae37 7fcc ae37 debc a637
00000070: 325d af37 4745 b737 7f7e b137 a42c ae37
00000080: c9c2 b137 0e6d ae37 dbdf b937 73fe cc37
00000090: 228e b537 a96f ae37 ec73 c737 3e45 ad37
000000a0: 753d a637 10e1 bc37 749e ae37 1f38 b937
000000b0: 6f41 cc37 4d16 ad37 27fa aa37 c373 ae37
000000c0: bc54 d037 7dc0 cb37 526c d537 0e6d ae37
000000d0: db5b af37 bdbc a637 65fa ad37 2df4 b137
000000e0: b1a2 ae37 c612 6b38 d866 ab37 ee17 ad37
000000f0: 1813 c037 08b4 ae37 5dd0 b337 6cad b337

exp_avg f4 [64]
-0.00028875176 0.0010667525 -2.6965286e-06 -2.593065e-05 0.001162762 0.0018142604 -0.0008775617 2.547512e-05
0.0 0.00013382226 -0.0015420545 -0.0026668704 0.0 0.0 -3.021139e-06 -0.001654276
-0.0010256274 0.0 -0.0010556859 -3.9926463e-06 0.0006759891 -0.0026640976 -3.8579124e-06 -0.004057229
0.0 1.656333e-07 -1.3119264e-05 0.00013259662 -0.00010655836 -7.526946e-05 5.006452e-05 2.4057326e-05
-0.0019395642 0.0 0.0020351126 0.00041661688 0.00056644296 -1.0482606e-09 0.0007164496 -0.00010476318
-0.001619094 0.0014024471 -4.0408046e-05 -3.290319e-05 0.0008284679 -0.00077114353 -0.00033614592 -1.2086227e-06
-0.0017831774 0.0010851916 0.00073459424 0.0 -0.00016169879 0.0005838 0.000397089 0.0006107048
-3.940765e-06 0.0022673684 0.0008534446 -0.00042247286 0.0013368671 -0.00039536066 0.0011209521 0.00042854314
00000000: 9b63 97b9 46d2 8b3a 02f6 34b6 a685 d9b7
00000010: d267 983a 7acc ed3a 2b0c 66ba 67b3 d537
00000020: 0000 0000 a452 0c39 c31e caba a9c6 2ebb
00000030: 0000 0000 0000 0000 c6be 4ab6 4bd4 d8ba
00000040: 586e 86ba 0000 0000 f15e 8aba 92f8 85b6
00000050: dc34 313a 2498 2ebb 3773 81b6 81f2 84bb
00000060: 0000 0000 efd8 3134 cf1a 5cb7 a209 0b39
00000070: 1578 dfb8 fcd9 9db8 5efc 5138 b7ce c937
00000080: fa38 feba 0000 0000 865f 053b 5f6d da39
00000090: 587d 143a 6412 90b0 1ed0 3b3a 4eb4 dbb8
000000a0: c837 d4ba 51d2 b73a cf7b 29b8 8801 0ab8
000000b0: 8a2d 593a 9126 4aba be3c b0b9 f637 a2b5
000000c0: 81b9 e9ba fd3c 8e3a c991 403a 0000 0000
000000d0: b08d 29b9 280a 193a 6230 d039 b517 203a
000000e0: ea3a 84b6 2198 143b b3b9 5f3a 597f ddb9
000000f0: d139 af3a 6948 cfb9 e9ec 923a 16ae e039
