models/MSFT.pth (torch, 84074 bytes, 33 tensors)

shared.0.weight f4 [64, 20]
0	0x3e07d98b	0.1326658
1	0x3d869ce9	0.06572897
2	0xbd8ed298	-0.06973761
3	0xbdb4a894	-0.08821216
4	0x3e179576	0.14803109
5	0xbb91da90	-0.0044511035
6	0xbe093e9b	-0.13402788
7	0x3cb0af2b	0.021567902
8	0xbe43bc10	-0.19114709
9	0xbe3e7862	-0.1860061
10	0x3d899d5b	0.06719466
11	0x3dd24bec	0.10268387
12	0x3dc1cb27	0.09462576
13	0x3daa97da	0.08329745
14	0x3b6bf3ad	0.0036003396
15	0xbdfa3a5f	-0.12218165
16	0x3ddd35c4	0.108012706
17	0x3d134d75	0.03596254
18	0x3e3cf0ae	0.18451187
19	0xbe5ca2ef	-0.21546529
20	0x3e11cb1b	0.14237635
21	0xbd5691bb	-0.052385073
22	0x3dc5e882	0.09663488
23	0x3e3a9bf9	0.18223561
24	0xbca47a90	-0.020077974
25	0x3e62b7c7	0.22140418
26	0x3de90842	0.11378528
27	0xbe0b24a9	-0.13588203
28	0x3e46fb1f	0.19431733
29	0xbe0f26da	-0.13979664
30	0xbe4c5802	-0.19955447
31	0x3e2fef89	0.17181219
32	0xbdab2f56	-0.08358638
33	0x3ba8b88f	0.005148954
34	0xbe0868ab	-0.13321178
35	0xbd98ea0d	-0.07466517
36	0xbde43d4f	-0.11144506
37	0xbe367295	-0.17817147
38	0xbd1c5e73	-0.03817601
39	0x3e407900	0.18796158
40	0xbd9483c3	-0.07251694
41	0x3dd20f31	0.10256804
42	0xbc0f6dc4	-0.0087541975
43	0x3ded77fb	0.1159515
44	0xbc7f5acd	-0.015585613
45	0xbda6faa8	-0.08153278
46	0x3dbb83ca	0.09155996
47	0xbd927917	-0.07152002
48	0xbe3f6d4b	-0.18694036
49	0x3aae7c6c	0.0013312227
50	0xbe1690ff	-0.14703749
51	0x3d33504f	0.04377776
52	0x3d51ac7a	0.051189877
53	0xbd48324f	-0.048876103
54	0x3e614b33	0.22001342
55	0x3db3ff49	0.08788926
56	0xbca6d1cd	-0.020363713
57	0xbe3704d4	-0.17872936
58	0xbe4fb91a	-0.20285454
59	0xbc1faf1c	-0.009746339
60	0x3dcaba39	0.098988004
61	0xbe13792f	-0.14401697
62	0xbe59f335	-0.21284182
63	0xbdbe1b73	-0.09282579
64	0xbe2f64c1	-0.17128278
65	0xbd156755	-0.0364755
66	0xbe2fe11f	-0.1717572
67	0xbd33e89b	-0.043923
68	0x3e5331dc	0.20624489
69	0xbe39a126	-0.1812788
70	0xbe56cf06	-0.2097741
71	0xbd9e7e73	-0.07738962
72	0x3d815d0c	0.063165754
73	0xbd8d2480	-0.068917274
74	0xbd463952	-0.04839451
75	0x3d58b80c	0.052909896
76	0xbe0f0ab2	-0.13968924
77	0xbbebe024	-0.0071983505
78	0xbe5ebc19	-0.21751441
79	0xbdf1f1c7	-0.118136935
80	0x3da01482	0.078164116
81	0xbbff3e5c	-0.0077894162
82	0x3c3ad4b5	0.011403252
83	0xbe1ee071	-0.15515305
84	0xbe2e01f9	-0.1699294
85	0x3dc3d56e	0.09562193
86	0xbcf0ac77	-0.029379113
87	0x3e1b53fd	0.15168758
88	0x3d7dad6e	0.061932974
89	0xbdb9957a	-0.090617135
90	0xbe590ab2	-0.21195486
91	0xbdcb5bb1	-0.09929598
92	0xbe177b06	-0.14793023
93	0x3e11c94f	0.1423695
94	0xbdf092b3	-0.11746731
95	0x3e224bb7	0.15849195
96	0x3cc3616b	0.023850163
97	0xbde69461	-0.1125877
98	0x3e2cfa90	0.16892457
99	0x39b5732b	0.00034608817
100	0x3d94b675	0.072613634
101	0x3e0b9470	0.13630843
102	0x3e55a21c	0.20862621
103	0xbe3ef40d	-0.18647785
104	0xbd0e5bac	-0.034755394
105	0x3e07848c	0.13234156
106	0x3d23b9f1	0.03997225
107	0x3c9fbfa3	0.01950056
108	0x3dd31cb3	0.10308208
109	0xbd32409b	-0.043518644
110	0x3e579f24	0.21056801
111	0xbc4cd079	-0.012500876
112	0x3df506af	0.119641654
113	0xbd6008bb	-0.054695826
114	0xbe47ce7a	-0.19512358
115	0xbdadba3a	-0.084827855
116	0xbdc8e8da	-0.09810038
117	0x3e4cf3f7	0.2001494
118	0xbb6eda34	-0.0036445977
119	0xbd0165a5	-0.031591076
120	0xbda1b2b4	-0.07895413
121	0xbd6675b2	-0.056264587
122	0x3e0482db	0.12940542
123	0x3e5176c1	0.20455457
124	0x3d22fc59	0.03979144
125	0x3e1229cd	0.14273758
126	0x3e06ca52	0.13163117
127	0xbd97fe01	-0.07421494
128	0x3d564630	0.05231303
129	0x3dce0aab	0.100606285
130	0x3d3f3eb4	0.046690658
131	0x3cbc248f	0.022966651
132	0xbbae125b	-0.0053122467
133	0xbe448bda	-0.19193974
134	0x3e57393e	0.2101793
135	0x3e007ab6	0.1254681
136	0xbe07e2df	-0.13270138
137	0x3c96583f	0.018352626
138	0xbe4634cc	-0.19356078
139	0x3d3540b5	0.044251163
140	0x3de91cd9	0.113824554
141	0x3e01e37c	0.12684435
142	0xbe1f2404	-0.15541083
143	0x3e17e147	0.1483203
144	0xbc27762a	-0.010221044
145	0x3c4a4829	0.012346306
146	0xbd8bbacc	-0.06822738
147	0xbdcdc6dd	-0.10047696
148	0x3dad14b9	0.08451218
149	0xbe459738	-0.19295967
150	0x3e4a8b4f	0.19779705
151	0xbd5af299	-0.053454015
152	0x3e2b1736	0.16708073
153	0x3d8d0734	0.068861395
154	0xbcbd642e	-0.023119058
155	0x3d2631cd	0.040574837
156	0x3d129dc6	0.035794996
157	0x3d93ae34	0.07210961
158	0x3e534466	0.2063156
159	0xbd09221c	-0.033479795
160	0xbe4de7ae	-0.2010791
161	0x3dc7fda8	0.09765178
162	0x3e160b9c	0.14652866
163	0xbdd4b760	-0.103865385
164	0xbd05425d	-0.032533992
165	0x3e0d87a8	0.1382128
166	0xbbb3d13e	-0.00548759
167	0x3d4d8dca	0.05018405
168	0xbd86118c	-0.065463156
169	0xbe0ef865	-0.13961942
170	0xbe367f60	-0.17822027
171	0x3d90eb26	0.07076101
172	0x3d49e5e4	0.049291506
173	0xbc633190	-0.013866797
174	0xbe281b8c	-0.16416758
175	0xbdd5c03b	-0.10437056
176	0x3c006522	0.007836612
177	0x3e1cb471	0.15303208
178	0xbe2ec447	-0.17067061
179	0xbbc04f71	-0.005868845
180	0x3d5ca537	0.0538685
181	0xbe5681f0	-0.20948005
182	0x3d8a098f	0.067401044
183	0xbcf54f65	-0.029945085
184	0xbdf82dd4	-0.12118116
185	0xbdd3bf22	-0.1033919
186	0xbe53f7e9	-0.20700039
187	0x3d521ad9	0.051295135
188	0xbe3daeea	-0.18523756
189	0x3e2b06b8	0.16701782
190	0x3e1fdb24	0.1561094
191	0x3d9f0c31	0.07765997
192	0xbde52782	-0.11189176
193	0xbd005b09	-0.031336818
194	0x3e1fa461	0.1559005
195	0x3e09236a	0.13392416
196	0xbdfbd0eb	-0.12295707
197	0xbe079c2d	-0.1324317
198	0xbb5d2eb8	-0.003374977
199	0xbe2d27aa	-0.16909662
200	0xbdb94696	-0.09046666
201	0xbe5af748	-0.21383393
202	0x3d050cca	0.0324829
203	0xbe429f99	-0.19006194
204	0x3d15b9b6	0.03655406
205	0xbe4af59a	-0.19820252
206	0x3e5993ae	0.21247742
207	0x3df82465	0.12116317
208	0xbda59012	-0.0808412
209	0xbe488744	-0.1958285
210	0x3e586e0e	0.21135733
211	0xbe270ae4	-0.16312748
212	0x3e4186e7	0.18899117
213	0xbe2d6844	-0.16934305
214	0xbe0c96b4	-0.13729364
215	0xbe0d4690	-0.13796449
216	0xbdd1c1a1	-0.1024201
217	0x3c8a0cba	0.016851772
218	0x3cad2de1	0.02114004
219	0xbe5bab0c	-0.21451968
220	0xbb807ca5	-0.003921109
221	0x3e1ac72b	0.15115039
222	0x3e2e593b	0.17026226
223	0x3de4ad0e	0.1116582
224	0xbda858e0	-0.082200766
225	0x3e483b13	0.19553785
226	0x3db7122d	0.08939014
227	0x3cccca5f	0.024998842
228	0xbe47285c	-0.1944899
229	0xbe12d682	-0.1433964
230	0xbe198b2d	-0.14994498
231	0x3e40d4bc	0.18831152
232	0x3e03f587	0.1288663
233	0xbda2a88e	-0.079423055
234	0x3dc30815	0.09523026
235	0x3e0d9d12	0.13829449
236	0xbe28f3c7	-0.16499244
237	0xbe271440	-0.16316319
238	0xbe10291d	-0.14078183
239	0xbde6e47a	-0.11274047
240	0xbcc28033	-0.02374277
241	0x3e5af817	0.21383701
242	0xbdbb86d5	-0.091565765
243	0xbca7410f	-0.020416765
244	0xbe1c789c	-0.15280384
245	0x3b0aa468	0.0021155123
246	0x3db1a9af	0.08674943
247	0x3bcc1ef4	0.006229276
248	0xbe2c64bb	-0.168353
249	0x3e547178	0.2074641
250	0xbe4b8300	-0.19874191
251	0xbe159ff7	-0.14611803
252	0xbcbda85c	-0.023151569
253	0x3dc55c35	0.09636728
254	0xbd411e89	-0.04714826
255	0xbd9fc9f8	-0.07802194

shared.0.bias f4 [64]
0	0xbe4c6c87	-0.19963275
1	0xbd9272a6	-0.07150774
2	0x3e3ce429	0.18446411
3	0x3dd14370	0.10217941
4	0x3e4387a3	0.1909471
5	0x3e50ad4e	0.2037861
6	0xbdb46820	-0.08808923
7	0x3dc15c04	0.09441379
8	0xbe3f9bf3	-0.18711834
9	0x3e5e3e5c	0.21703476
10	0xbcc633ac	-0.024194561
11	0x3d9abe1b	0.07555791
12	0x3cd98328	0.026551798
13	0xbe122f58	-0.14275873
14	0xbd85a2bb	-0.06525179
15	0xbd8f08dd	-0.069841124
16	0x3d63814c	0.05554323
17	0x3d15c85f	0.036568042
18	0xbd9fbe77	-0.078
19	0xbdb714fb	-0.089395486
20	0xbe542b46	-0.20719633
21	0xbe42b206	-0.19013223
22	0x3cf8f2da	0.030389238
23	0xbd93e4e0	-0.07221389
24	0xbdf0d0e8	-0.11758596
25	0x3e188207	0.14893351
26	0xbcc8f0eb	-0.024528941
27	0xbe230e3f	-0.15923403
28	0xbdcdc1d1	-0.10046733
29	0xbc5c371c	-0.0134408735
30	0x3c3370c1	0.010952176
31	0x3e58f0b4	0.21185571
32	0xbe149108	-0.1450845
33	0xbda1c286	-0.078984305
34	0x3d5786f8	0.05261895
35	0xbe62ecf6	-0.22160706
36	0x3c345998	0.011007689
37	0x3b985478	0.0046487413
38	0x3d85b554	0.06528726
39	0x3e0ecdc9	0.13945688
40	0xbc604f13	-0.013690728
41	0xbd7c5f7f	-0.06161451
42	0xbd846a31	-0.06465567
43	0xbe4d9deb	-0.20079772
44	0x3e1ccb71	0.15311982
45	0x3e1019a1	0.14072277
46	0xbd49b58c	-0.049245402
47	0x3dc34c87	0.09536081
48	0xbe5e326e	-0.21698925
49	0xbccff8a1	-0.02538711
50	0xbe08822b	-0.13330905
51	0xbe17d993	-0.14829092
52	0x3e1b8031	0.1518562
53	0x3dbe06bf	0.092786305
54	0x3c2c56e7	0.010518766
55	0x3d822be6	0.06356029
56	0xbe296499	-0.16542281
57	0x3d86b4a6	0.06577425
58	0xbd0a20eb	-0.0337228
59	0xbd1b4a89	-0.03791288
60	0xbe101d94	-0.14073783
61	0xbb242ebb	-0.0025052268
62	0x3e209507	0.1568185
63	0x3d2224f1	0.03958601

shared.1.weight f4 [64]
0	0x3f7f9dbc	0.9985006
1	0x3f7f9db3	0.99850005
2	0x3f7f9dd0	0.9985018
3	0x3f7f9db8	0.99850035
4	0x3f7f9db7	0.9985003
5	0x3f7f9dab	0.9984996
6	0x3f7f9db4	0.9985001
7	0x3f7f9e62	0.9985105
8	0x3f7f9db3	0.99850005
9	0x3f7f9d7c	0.9984968
10	0x3f7f9d92	0.9984981
11	0x3f7f9dae	0.99849975
12	0x3f7f9dc0	0.9985008
13	0x3f7f9db1	0.99849993
14	0x3f7f9db2	0.9985
15	0x3f7f9dab	0.9984996
16	0x3f7f9de8	0.9985032
17	0x3f7f9daf	0.9984998
18	0x3f7f9db6	0.9985002
19	0x3f7f9db3	0.99850005
20	0x3f7f9db3	0.99850005
21	0x3f7f9db3	0.99850005
22	0x3f7f9db3	0.99850005
23	0x3f7f9dae	0.99849975
24	0x3f7f9db3	0.99850005
25	0x3f7f9dd3	0.99850196
26	0x3f7f9daf	0.9984998
27	0x3f7f9db3	0.99850005
28	0x3f7f9db3	0.99850005
29	0x3f7f9db3	0.99850005
30	0x3f7f9db1	0.99849993
31	0x3f7f9def	0.9985036
32	0x3f7f9db3	0.99850005
33	0x3f7f9db2	0.9985
34	0x3f7f9da0	0.9984989
35	0x3f7f9db3	0.99850005
36	0x3f7f9dce	0.99850166
37	0x3f7f9db6	0.9985002
38	0x3f7f9dbd	0.99850065
39	0x3f7f9dd8	0.99850225
40	0x3f7f9de0	0.99850273
41	0x3f7f9db4	0.9985001
42	0x3f7f9db9	0.9985004
43	0x3f7f9db3	0.99850005
44	0x3f7fb225	0.998812
45	0x3f7f9de4	0.99850297
46	0x3f7f9de3	0.9985029
47	0x3f7f9dc8	0.9985013
48	0x3f7f9db3	0.99850005
49	0x3f7f9da8	0.9984994
50	0x3f7f9db7	0.9985003
51	0x3f7f9db3	0.99850005
52	0x3f7f9de9	0.99850327
53	0x3f7f9d9d	0.99849874
54	0x3f7f9db5	0.99850017
55	0x3f7f9e0e	0.9985055
56	0x3f7f9db3	0.99850005
57	0x3f7f9dcb	0.9985015
58	0x3f7f9da8	0.9984994
59	0x3f7f9dbe	0.9985007
60	0x3f7f9dae	0.99849975
61	0x3f7f9db4	0.9985001
62	0x3f7f9dd2	0.9985019
63	0x3f7f9dc7	0.99850124

shared.1.bias f4 [64]
0	0x3a062657	0.00051174074
1	0x3ab636ed	0.0013901867
2	0xbac39225	-0.0014920874
3	0xba8ef11a	-0.0010905594
4	0xbac4bd27	-0.0015009985
5	0xbac424d0	-0.0014964584
6	0x3ab1b878	0.0013559004
7	0x3ac43524	0.001496945
8	0x00000000	0.0
9	0x3ab02fd3	0.0013441987
10	0xbaa99c67	-0.0012940288
11	0x3ac14204	0.0014744406
12	0xbac3e3eb	-0.0014945244
13	0x3aad2e30	0.0013212617
14	0xba90828a	-0.0011025232
15	0x3aae3c02	0.001329303
16	0x3ac43785	0.0014970159
17	0xbac06d48	-0.0014681006
18	0x3ac2b5f5	0.0014855253
19	0x3ac17c34	0.0014761747
20	0x00000000	0.0
21	0x00000000	0.0
22	0x3aa25ade	0.00123867
23	0xbac0a0b2	-0.0014696328
24	0x39db673c	0.0004184785
25	0x3abe49c4	0.0014517833
26	0xbac35156	-0.0014901559
27	0x3a0a7a1d	0.00052824785
28	0x3ac405b8	0.0014955318
29	0x00000000	0.0
30	0x3ab09218	0.0013471274
31	0xbab966de	-0.0014145037
32	0x00000000	0.0
33	0xbab71c78	-0.0013970276
34	0x3aad648d	0.0013228819
35	0xbac0a10c	-0.0014696433
36	0x3ab8d0a2	0.0014100263
37	0x3aa905ad	0.0012895368
38	0x3ac3ed2a	0.0014948
39	0xbac35a02	-0.0014904144
40	0xbabca2de	-0.00143918
41	0xbaa9a84c	-0.0012943833
42	0x3abff623	0.0014645498
43	0x00000000	0.0
44	0x3ac49328	0.0014997469
45	0xba92dd5a	-0.0011204884
46	0x3ac2d162	0.0014863426
47	0xbac00ce2	-0.0014652277
48	0xb9c8966a	-0.0003825904
49	0x3a429c99	0.00074238476
50	0xbac1ec89	-0.0014795224
51	0x00000000	0.0
52	0x3a1fdc22	0.0006098171
53	0xb8af13ce	-8.348339e-05
54	0xbac13b62	-0.0014742429
55	0xbabbc67f	-0.0014326124
56	0x00000000	0.0
57	0xbac1589c	-0.0014751139
58	0xba29f24e	-0.00064829446
59	0xbaa8cd7e	-0.0012878624
60	0x3ac48170	0.0014992189
61	0xbac4ce24	-0.0015015048
62	0xbac3b6b6	-0.0014931771
63	0x391d17aa	0.00014981502

shared.4.weight f4 [64, 64]
0	0x3d2b0810	0.041755736
1	0xbdba2e74	-0.090908915
2	0xbdea543a	-0.11441846
3	0xbda3edb6	-0.08004324
4	0x3da9bfa4	0.08288506
5	0xbd2162d1	-0.03940088
6	0xbc7a8b22	-0.015291961
7	0x3dffffb7	0.124999456
8	0x3d1bd977	0.038049188
9	0x3d8a5c53	0.06755891
10	0x3d8bf3ef	0.06833636
11	0x3da92536	0.082590505
12	0x3c05dc9a	0.008170271
13	0xbd04dc6f	-0.032436784
14	0x3c673a7d	0.014113066
15	0x3c13381f	0.008985548
16	0x3de2d3e6	0.11075573
17	0x3d808777	0.06275838
18	0x3c9c7251	0.019097479
19	0xbd8e33a8	-0.069434464
20	0xbdd5f797	-0.10447615
21	0x3decb601	0.11558152
22	0x3d835f50	0.06414664
23	0x3da86b29	0.08223564
24	0x3d33db54	0.04391034
25	0xbdcba515	-0.09943596
26	0x3de26c20	0.110557795
27	0x3c29182a	0.010320703
28	0x3bdaf77c	0.0066823345
29	0xbd7dd1f2	-0.061967798
30	0x3dbba4a5	0.09162263
31	0x3db4c1dd	0.08826039
32	0xbd755365	-0.059893984
33	0xbb6bd7f3	-0.003598687
34	0xbda8d174	-0.08243075
35	0x3da37ca4	0.07982758
36	0x3dc45919	0.095873065
37	0x3df50ce5	0.1196535
38	0xbc4ea1cf	-0.01261182
39	0x3da23795	0.07920758
40	0x3dbff7d8	0.09373444
41	0x3debb760	0.115095854
42	0xbd2f66bf	-0.042822596
43	0x3c674247	0.014114923
44	0x3db241c9	0.08703954
45	0xbde4c688	-0.11170679
46	0x3dd806ee	0.10548197
47	0xbdd9bc67	-0.10631638
48	0xbdb0989b	-0.08622857
49	0xbdf18f5c	-0.11794922
50	0x3c0c9acb	0.008581827
51	0xbd5ac8a8	-0.053414017
52	0x3cde4104	0.027130611
53	0xbcb1fc66	-0.021726798
54	0x3d712a9e	0.058878534
55	0xbd30b25b	-0.043138843
56	0x3cb623cc	0.022233866
57	0x3c5439c3	0.012953225
58	0xbba573e9	-0.005049218
59	0xbcaa5d68	-0.020796493
60	0x3dde13ed	0.10843644
61	0xbdec79b3	-0.1154665
62	0xbdc98c8a	-0.09841259
63	0x3da58259	0.080815025
64	0xbd3602a0	-0.044436097
65	0xbcf25b76	-0.029584628
66	0x3ddd6222	0.10809733
67	0xbde75f58	-0.11297482
68	0xbde0ff06	-0.10986142
69	0x3cc7e3e6	0.024400663
70	0x3d7c3ffe	0.061584465
71	0x3df3f5b7	0.11912101
72	0x3dbb547d	0.09146974
73	0x3c01c2aa	0.007919947
74	0xbd608860	-0.054817557
75	0x3d371522	0.04469789
76	0x3dfb8ac7	0.12282329
77	0x3cdc4b71	0.026891442
78	0x3cf82b82	0.030294184
79	0xbc947517	-0.018122239
80	0x3dae056d	0.08497129
81	0xbdeef9d0	-0.11668742
82	0xbd030f26	-0.03199687
83	0xbde92dd3	-0.113856934
84	0xbbd363f9	-0.0064511267
85	0x3def8ba6	0.11696558
86	0xbd90ddc4	-0.070735484
87	0x3d87cf9f	0.066313975
88	0x3dd9ff3a	0.10644384
89	0x3de87bf9	0.11351771
90	0xbd179886	-0.037010692
91	0xbd8bdb47	-0.06828933
92	0x3db30511	0.08741201
93	0xbdc287fd	-0.09498594
94	0xbd880030	-0.06640661
95	0x3c21cc31	0.009875343
96	0x3cf5e029	0.030014114
97	0xbdf18e31	-0.11794699
98	0x3d489ade	0.048975818
99	0xbdcc3bdb	-0.09972354
100	0xbdb6205f	-0.08892893
101	0xbd01d8e2	-0.031700976
102	0x3d22ade1	0.039716605
103	0xbcc33561	-0.023829164
104	0xbc5ba23a	-0.013405377
105	0x3d22671d	0.039649118
106	0xbdb40934	-0.08790818
107	0x3ccbf2f8	0.02489613
108	0x3e002422	0.12513784
109	0x3d3f6dc1	0.04673553
110	0x3d0e36e9	0.034720335
111	0xbd86cfb1	-0.06582583
112	0x3d8d9984	0.069140464
113	0x3d90fccc	0.07079467
114	0x3dc4a949	0.09602601
115	0x3db795b3	0.089641
116	0x3df0c783	0.11756804
117	0x3d2b765f	0.041860934
118	0x3d37cb47	0.044871595
119	0xbddb841e	-0.10718559
120	0xbd8faae1	-0.070150144
121	0x3df57185	0.11984543
122	0x3c39e7d6	0.011346778
123	0xbc8db4e7	-0.017298175
124	0xbc336ab3	-0.010950732
125	0x3caa6a1a	0.020802546
126	0xbd5be15f	-0.053681727
127	0x3cafe859	0.021473097
128	0xbbe217ad	-0.006899795
129	0xbddb0c7d	-0.10695741
130	0xbd25a1fd	-0.040437687
131	0x3c8221da	0.015885282
132	0x3c406001	0.011741639
133	0xbd049736	-0.03237077
134	0xbd863306	-0.06552701
135	0xbd713928	-0.0588924
136	0x3d3d91b7	0.046281543
137	0x3d39822f	0.04529017
138	0x3ab812ba	0.0014043667
139	0x3c775a70	0.015097246
140	0xbde0a9f7	-0.10969918
141	0x3d9fd1a4	0.07803658
142	0xbdc352e4	-0.095372945
143	0xbd9a13d9	-0.07523317
144	0xbd42275f	-0.04740083
145	0xbd89b4b2	-0.06723918
146	0x3dfbdf78	0.12298483
147	0x3d0d5685	0.03450634
148	0x3c87e499	0.016588496
149	0x3914e7bc	0.00014200708
150	0xbda0b4a3	-0.07846954
151	0x3def684b	0.11689814
152	0xbcb3afa7	-0.021934344
153	0xbd552e7f	-0.052046295
154	0x3deef997	0.11668699
155	0xbd696e5e	-0.05699002
156	0xbdd2fd2f	-0.10302197
157	0xb8ee4944	-0.00011362371
158	0x3c8a0ba0	0.016851246
159	0x3c97377f	0.01845908
160	0xbcd60950	-0.026127487
161	0x3d5f4e68	0.054518133
162	0xbddb4772	-0.107069865
163	0xbd64f47f	-0.055897232
164	0xbd80af7a	-0.062834695
165	0x3d03b1cb	0.03215198
166	0xbd9d6a3f	-0.076862805
167	0xbdae3bcb	-0.08507498
168	0xbda9fb53	-0.082998894
169	0x3cceb860	0.025234401
170	0x3ddb1f7a	0.10699363
171	0xbd6f13ef	-0.05836862
172	0x3d1152d3	0.035479378
173	0xbcfcd59b	-0.030863574
174	0x3dbe9c15	0.09307114
175	0x3d98ee1c	0.07467291
176	0x3d168f76	0.03675791
177	0x3d29ab5c	0.041423187
178	0x3de40c60	0.11135173
179	0xbdcf05cd	-0.10108528
180	0xbd8a6e9c	-0.06759378
181	0x3b21876b	0.0024647366
182	0xbdddfc9b	-0.10839196
183	0x3d42a4ad	0.04752033
184	0x3db8bc2e	0.090202674
185	0xbdcede0a	-0.10100944
186	0xbd80dbe4	-0.06291941
187	0xbc8b44ed	-0.01700064
188	0x3d985a84	0.074391395
189	0x3d64e0af	0.055878337
190	0xbb84113a	-0.004030374
191	0x3d306de0	0.043073535
192	0xbdc87126	-0.09787206
193	0x3d9f2397	0.0777046
194	0x3df8f873	0.12156763
195	0xbd9f0493	-0.07764544
196	0x3d96db8d	0.07366095
197	0x3d379bce	0.04482632
198	0x3d0d0114	0.034424856
199	0x3d3c15f6	0.04591938
200	0xbdece547	-0.11567169
201	0xbc8101ac	-0.015747868
202	0xbd0255b4	-0.031820014
203	0xbd89a22e	-0.067203864
204	0x3d977697	0.07395666
205	0xba836d87	-0.0010027149
206	0x3df5e100	0.12005806
207	0xbd5309e0	-0.05152309
208	0xbdd1709c	-0.10226557
209	0x3dc345f1	0.09534825
210	0x3bad9853	0.0052976995
211	0x3da031a5	0.07821969
212	0x3d39fc28	0.04540649
213	0x3b2b5884	0.0026145289
214	0xbdd55ce3	-0.10418107
215	0xbdefd66f	-0.11710822
216	0xbd806137	-0.06268542
217	0xbd93f92c	-0.0722526
218	0xbd8acb1a	-0.0677702
219	0xbdd6833e	-0.10474251
220	0x3c731181	0.014835716
221	0x3d40c727	0.047064926
222	0xbccf6c15	-0.025320092
223	0xbd451a05	-0.048120517
224	0x3dd6b7e7	0.10484295
225	0x3d871eeb	0.06597694
226	0xbda0a62a	-0.07844193
227	0x3d9b81bc	0.07593104
228	0x3ccd553b	0.025065055
229	0x3d32335e	0.04350602
230	0x3b9f8d59	0.004869145
231	0x3d9c55f8	0.07633585
232	0x3dfcb7d9	0.12339754
233	0x3d4b9849	0.049705777
234	0xbc326d69	-0.010890343
235	0x3cc505f8	0.024050698
236	0xbcb81940	-0.022472978
237	0x3dc2a411	0.095039494
238	0xbd5a9547	-0.05336502
239	0x3d5a5da6	0.053311966
240	0x3cf5728d	0.029961849
241	0x3dc46d10	0.095911145
242	0x3d60691f	0.05478775
243	0x3d9724a1	0.07380033
244	0x3dcef3b0	0.101050735
245	0x3b702994	0.0036645876
246	0xbdc53457	-0.09629124
247	0x3962de20	0.00021635788
248	0xbd44e542	-0.0480702
249	0x3dd04054	0.101685196
250	0xbda9dbe2	-0.082938924
251	0x3d986c09	0.07442481
252	0x3d9a7072	0.075409785
253	0x3d8e9c05	0.06963352
254	0xbddb343d	-0.10703323
255	0xbde34c24	-0.11098507

shared.4.bias f4 [64]
0	0x3dd41c02	0.103569046
1	0xbd8d0763	-0.068861745
2	0x3ca0a60d	0.01961043
3	0xbd902eca	-0.07040174
4	0xbdeda55a	-0.11603804
5	0x3dc64aec	0.09682259
6	0xbdcffb88	-0.10155398
7	0x3d5c73c0	0.053821325
8	0xbdd3bea3	-0.103390954
9	0xbde816ca	-0.11332472
10	0xbd004e77	-0.03132483
11	0x3df2f4de	0.11863111
12	0x3de3cd2a	0.11123116
13	0xbde621db	-0.11236926
14	0xbd11fae2	-0.03563965
15	0x3d96e728	0.07368308
16	0x3dc8edaa	0.09810956
17	0x3d3e0f2f	0.0464012
18	0xbc9b6785	-0.01897026
19	0xbdfb2577	-0.12263005
20	0xbd9c4b31	-0.07631529
21	0xbd617837	-0.055046286
22	0x3d7e1443	0.06203104
23	0xbae47e96	-0.0017432745
24	0x3dd92e09	0.10604484
25	0xbd3aeac8	-0.04563406
26	0xbd805e10	-0.06267941
27	0x3dcae0da	0.09906168
28	0x3bb89414	0.0056328867
29	0x3d42005c	0.047363624
30	0x3db16775	0.08662311
31	0x3d822ea3	0.063565515
32	0x39fc0f58	0.00048076618
33	0x3dbc667f	0.09199237
34	0x3d2cbe28	0.042173535
35	0x3dc9e2c0	0.09857702
36	0x3dbc0724	0.091810495
37	0x3da8bd2a	0.08239205
38	0xbd000179	-0.031251404
39	0xbc34865b	-0.011018361
40	0xbb8a9cab	-0.004230102
41	0x3cdb3607	0.02675916
42	0x3d16c037	0.036804404
43	0xbdde5dc6	-0.108577296
44	0xbdf73353	-0.12070336
45	0xbd3968a4	-0.04526581
46	0xbc37c5e8	-0.011216618
47	0xbd35826c	-0.044313833
48	0x3d98add3	0.07455029
49	0xbdb9e4c7	-0.09076839
50	0xbcdcdc6d	-0.026960576
51	0x3d2f8f68	0.042861372
52	0x3dc44730	0.095838904
53	0x3df0c49a	0.11756249
54	0xbdcf0793	-0.101088665
55	0x3de0f3b1	0.109839804
56	0xbdd21706	-0.102582976
57	0xbd096156	-0.033540092
58	0xba9224e8	-0.0011149915
59	0x3c85454c	0.016268395
60	0x3d76973f	0.060202833
61	0xbd4abada	-0.0494946
62	0x3dfacb75	0.122458376
63	0x3d196d3e	0.037457697

shared.5.weight f4 [64]
0	0x3f7f9e30	0.9985075
1	0x3f7f9f52	0.9985248
2	0x3f7f9db3	0.99850005
3	0x3f7f9db7	0.9985003
4	0x3f7f9dda	0.9985024
5	0x3f7f9dca	0.9985014
6	0x3f7f9dad	0.9984997
7	0x3f7f9df8	0.99850416
8	0x3f7f9dbb	0.9985005
9	0x3f7f9db4	0.9985001
10	0x3f7f9dc3	0.998501
11	0x3f7f9ddf	0.9985027
12	0x3f7f9dba	0.99850047
13	0x3f7f9db9	0.9985004
14	0x3f7f9dbb	0.9985005
15	0x3f7f9e1e	0.9985064
16	0x3f7f9df1	0.99850374
17	0x3f7f9dba	0.99850047
18	0x3f7f9dbb	0.9985005
19	0x3f7f9dc9	0.99850136
20	0x3f7f9da5	0.9984992
21	0x3f7f9db8	0.99850035
22	0x3f7f9dbb	0.9985005
23	0x3f7f9dbd	0.99850065
24	0x3f7f9dbb	0.9985005
25	0x3f7f9db6	0.9985002
26	0x3f7f9dbc	0.9985006
27	0x3f7f9d8f	0.9984979
28	0x3f7f9db3	0.99850005
29	0x3f7f9db4	0.9985001
30	0x3f7f9dc1	0.9985009
31	0x3f7f9db3	0.99850005
32	0x3f7f9dc8	0.9985013
33	0x3f7f9dc5	0.9985011
34	0x3f7f9dbd	0.99850065
35	0x3f7f9dca	0.9985014
36	0x3f7f9de6	0.9985031
37	0x3f7f9d8a	0.9984976
38	0x3f7f9db7	0.9985003
39	0x3f7f9dbc	0.9985006
40	0x3f7f9db2	0.9985
41	0x3f7f9daf	0.9984998
42	0x3f7f9db5	0.99850017
43	0x3f7f9dec	0.99850345
44	0x3f7f9dcb	0.9985015
45	0x3f7f9db3	0.99850005
46	0x3f7f9dea	0.9985033
47	0x3f7f9daa	0.9984995
48	0x3f7f9da0	0.9984989
49	0x3f7f9dc3	0.998501
50	0x3f7f9e6a	0.99851096
51	0x3f7f9da9	0.99849945
52	0x3f7f9db4	0.9985001
53	0x3f7f9db8	0.99850035
54	0x3f7f9ddf	0.9985027
55	0x3f7f9db4	0.9985001
56	0x3f7f9db0	0.9984999
57	0x3f7f9db3	0.99850005
58	0x3f7f9db5	0.99850017
59	0x3f7f9db5	0.99850017
60	0x3f7f9dbb	0.9985005
61	0x3f7f9dc3	0.998501
62	0x3f7f9db5	0.99850017
63	0x3f7f9db4	0.9985001

shared.5.bias f4 [64]
0	0x3ac4d767	0.0015017808
1	0x3ac42a9a	0.001496631
2	0xba02dbb7	-0.00049918465
3	0xbac340cd	-0.0014896631
4	0xbac18563	-0.0014764484
5	0x3ac36a21	0.0014908948
6	0x3abf7ea8	0.001460989
7	0x3ac4f70d	0.001502724
8	0xbac45bcc	-0.0014980971
9	0x3ac3a7e4	0.0014927355
10	0x3ac2dfbd	0.0014867705
11	0xbac2fa07	-0.0014875539
12	0xbac239e4	-0.0014818278
13	0xbac383d8	-0.0014916612
14	0x3aa9899c	0.0012934688
15	0xbac36f4d	-0.001491049
16	0x3ac381e6	0.0014916032
17	0x3ac207d7	0.0014803362
18	0xbaac914e	-0.0013165863
19	0xbac1d7e5	-0.0014789073
20	0xbac491a7	-0.0014997021
21	0xbac3f1c0	-0.0014949366
22	0xbac260f5	-0.0014829921
23	0x3ac3aa14	0.0014928007
24	0x3ac2eadf	0.0014871022
25	0xbac3bd0d	-0.0014933661
26	0x3ac0c509	0.0014707159
27	0x3ac44658	0.0014974577
28	0xba248d2d	-0.00062771403
29	0xbaa38f4f	-0.0012478622
30	0xbac4728a	-0.0014987749
31	0x3ab614d4	0.0013891705
32	0x3ac5248f	0.0015040803
33	0xbac2a85c	-0.00148512
34	0x3ac4c5d1	0.0015012567
35	0x3ac46879	0.0014984749
36	0x3ac49eae	0.0015000904
37	0x3ac2a3b6	0.0014849815
38	0xbac43ec2	-0.0014972317
39	0x3ac4551b	0.0014978977
40	0x3a85f158	0.0010219021
41	0xbabcb484	-0.001439706
42	0xba86ede0	-0.0010294281
43	0xbac328e5	-0.0014889507
44	0x3ac47cc5	0.0014990797
45	0xbaa54ea7	-0.0012611941
46	0x3ac3d544	0.0014940877
47	0xbac4d9bf	-0.0015018507
48	0x3abd33d3	0.0014435
49	0xbabde9c5	-0.0014489224
50	0x3ac3b306	0.0014930672
51	0x3ac31666	0.0014883995
52	0x3aadc16b	0.0013256496
53	0xbac4d63d	-0.0015017461
54	0x3ac41096	0.0014958556
55	0x39c1e212	0.00036980264
56	0xba48af9d	-0.0007655563
57	0x3ac139c8	0.0014741952
58	0x3ac00ea8	0.0014652805
59	0x3ac38ea8	0.0014919834
60	0xbac325ea	-0.0014888619
61	0xbabed5fb	-0.0014559621
62	0x39d78784	0.00041108963
63	0xbabed289	-0.0014558594

actor.0.weight f4 [3, 64]
0	0xbd91f0ea	-0.07126029
1	0xbd9196b0	-0.071088195
2	0xbdd79278	-0.105259836
3	0x3d358d15	0.044324
4	0xbd6ba6d9	-0.057532165
5	0x3c84202d	0.016128624
6	0xbdca2fce	-0.09872399
7	0xbdc0f186	-0.09421067
8	0xbd75d783	-0.06001998
9	0xbc2e1030	-0.010623977
10	0x3d47d8f2	0.04879088
11	0x3df80887	0.121110015
12	0x3daa3abe	0.083119854
13	0x3dbbc5f2	0.091686144
14	0xbd9ce77a	-0.07661338
15	0xbdbe8810	-0.093032956
16	0x3da15405	0.078773536
17	0xbc83a7ac	-0.016071163
18	0xbda60ff7	-0.08108514
19	0x3dc78a1b	0.097431384
20	0x3d80b0a5	0.06283692
21	0x3b9929ea	0.004674186
22	0xbde37f99	-0.11108322
23	0xbd9538f8	-0.072862566
24	0xbb9f82e9	-0.0048679006
25	0x3ddafaf9	0.106924005
26	0xbcaadda0	-0.020857632
27	0xbd2bb587	-0.041921165
28	0x3da1eab0	0.07906091
29	0xbde74bf0	-0.11293781
30	0xbd411b12	-0.047144957
31	0x3d46580f	0.048423823
32	0xbd115b36	-0.035487376
33	0x3b74977c	0.0037321737
34	0x3ca77c92	0.020445142
35	0xbcf256a4	-0.02958233
36	0xbdf1898d	-0.11793814
37	0xbce06fa7	-0.02739699
38	0xbbaf33e0	-0.00534676
39	0xbb2ee99c	-0.0026689535
40	0x3def4160	0.11682391
41	0x3db2d010	0.08731091
42	0x3cb538c1	0.022121789
43	0xbd71eb06	-0.059062026
44	0xb945ad1a	-0.0001885187
45	0xbc679808	-0.014135368
46	0x3d996b70	0.07491195
47	0x3de135a6	0.10996561
48	0xbd23da31	-0.040003005
49	0xbdc36b93	-0.095420025
50	0xbccd9d7b	-0.025099507
51	0x3dcaa457	0.098946266
52	0x3d8f9953	0.07011666
53	0x3de02d62	0.10946156
54	0x3ca447c7	0.020053757
55	0xbd2719d6	-0.040796123
56	0xbc561bb6	-0.01306813
57	0x3dbd6d77	0.092493944
58	0x3d110747	0.03540733
59	0xbda3a1ab	-0.0798982
60	0xbc11133b	-0.008854683
61	0xbda4d5fd	-0.080486275
62	0xbdde964b	-0.1086851
63	0xbdda5297	-0.10660284
64	0xbc9fa295	-0.019486705
65	0xbc857edc	-0.016295843
66	0x3c850bc7	0.016240967
67	0xbda13a29	-0.07872421
68	0xbdb6f72e	-0.089338645
69	0xbc974887	-0.0184672
70	0xbd547cd6	-0.051876865
71	0xbad03ac2	-0.0015886652
72	0x3d97e9c7	0.07417636
73	0x3cf390a2	0.029732052
74	0xbdae20f0	-0.08502376
75	0xbdb418cc	-0.08793792
76	0x3dd92894	0.10603443
77	0xbdc482d5	-0.09595267
78	0x3dd1ed4d	0.1025034
79	0x3d8527b6	0.06501715
80	0xbd3355af	-0.043782886
81	0xbd6daf30	-0.0580284
82	0xbd801667	-0.06254273
83	0xbd521113	-0.051285814
84	0xbdbe1695	-0.09281651
85	0xbd3659bf	-0.044519182
86	0x3c4a9d8e	0.0123666655
87	0x3dc8d2b2	0.09805812
88	0xbdb36c8f	-0.0876094
89	0xbd7627e8	-0.06009665
90	0xbd96ca90	-0.073628545
91	0xbda3c555	-0.079966225
92	0xbda98531	-0.08277357
93	0xbd90ef61	-0.07076908
94	0xbc91958a	-0.017771501
95	0xbd1628d9	-0.03666005
96	0xbddac572	-0.10682191
97	0x3c7e85bf	0.015534817
98	0x3d8ecb2b	0.06972345
99	0xbdbbb36c	-0.091650814
100	0x3c2151c4	0.009846155
101	0xbccaea49	-0.024769919
102	0xbd3b7fc1	-0.045776132
103	0xbc470b99	-0.012148761
104	0x3d4e358c	0.050344035
105	0xbd7e8e03	-0.06214715
106	0xbdc3cf6d	-0.09561048
107	0xbdbf0498	-0.09327048
108	0xba01c1cb	-0.0004949837
109	0x3dd56a26	0.10420637
110	0xbd946e78	-0.07247633
111	0x3db9036e	0.09033857
112	0x3de0c03d	0.109741665
113	0x3ded5458	0.11588353
114	0x3da8da32	0.082447425
115	0xbd3334cb	-0.04375152
116	0x3d6bd854	0.057579353
117	0x3dd0f17f	0.10202312
118	0x3c8cdc0a	0.017194767
119	0xbda32375	-0.07965747
120	0x3d421c03	0.047389995
121	0x3de3b60a	0.111187056
122	0x3dd724bd	0.10505054
123	0x3d9b0141	0.075685985
124	0x3c20deb6	0.009818723
125	0x3db873d6	0.09006469
126	0x3d76e50c	0.06027703
127	0x3bee3236	0.007269169
128	0xbd4ab391	-0.049487654
129	0xbd09d11a	-0.03364668
130	0x3d4c959f	0.049947377
131	0xbc3a9216	-0.011387369
132	0xbd8afad4	-0.06786123
133	0x3dc4af48	0.09603745
134	0x3b0f5c45	0.0021875065
135	0xbbe174a7	-0.006880361
136	0xbdc5e147	-0.09662109
137	0x3b7ccd19	0.0038574396
138	0x3ccb4d2d	0.024817074
139	0xbd2a4163	-0.041566264
140	0xbd973931	-0.07383955
141	0xbc13c5f6	-0.0090193655
142	0xbd4fee9d	-0.05076467
143	0xbdd788b5	-0.10524122
144	0x3db0b46a	0.08628161
145	0x3dd1a949	0.10237367
146	0xbd8e8248	-0.06958443
147	0x3ddaf107	0.106905036
148	0xbd607155	-0.05479558
149	0x3d3b3e5c	0.045713767
150	0xbdecb4fd	-0.11557958
151	0xbdf2cb1e	-0.11855148
152	0xbda7fb1c	-0.08202192
153	0x3c58899a	0.0132164005
154	0x3de3e0e3	0.11126878
155	0x3da8985f	0.082321875
156	0xbdf56713	-0.119825505
157	0x3dc0d59f	0.09415745
158	0xbd66f575	-0.05638643
159	0x3c80d6cc	0.015727423
160	0xbd3d775d	-0.04625641
161	0xbcb7c9e1	-0.02243513
162	0x3dc43392	0.09580149
163	0xbd504ed1	-0.050856415
164	0x3cb0eccf	0.021597294
165	0xbdce49dc	-0.10072681
166	0xbc56b6ba	-0.013105089
167	0x3d2f0c55	0.04273637
168	0x3d7eab69	0.06217519
169	0xbd5aaa75	-0.053385217
170	0x3d33fb23	0.043940675
171	0x3d8ff3ab	0.07028898
172	0x3cb3b6a9	0.021937685
173	0x3d762514	0.060093954
174	0xba8bf7fe	-0.0010678766
175	0x3c915b50	0.017743737
176	0x3dc7dbf3	0.09758749
177	0x3d99eabb	0.075154744
178	0xbb76abd3	-0.0037639036
179	0xbdc4dc93	-0.09612384
180	0x3d3a7f26	0.045531414
181	0x3d8b6851	0.06807006
182	0xbdb68102	-0.08911325
183	0x3d8551da	0.065097526
184	0x3cd28f3a	0.025703061
185	0x3dc07a65	0.09398345
186	0xbd131443	-0.035907995
187	0xbd923eac	-0.0714086
188	0x3dca97e5	0.09892253
189	0x3ba402f3	0.0050052344
190	0xbd2f4b73	-0.042796563
191	0xbd5bb0c6	-0.05363538

actor.0.bias f4 [3]
0	0x3da414a3	0.08011749
1	0x3d14e217	0.03634843
2	0x3cd00fe0	0.025398195

critic.0.weight f4 [1, 64]
0	0xbd56baa5	-0.05242409
1	0xbdd8fce2	-0.105951086
2	0x3b893b75	0.004187996
3	0x3cf5162f	0.029917805
4	0x3dcb46b3	0.09925594
5	0xbd5c4aaf	-0.05378216
6	0xbc4fbd5b	-0.012679423
7	0xbd7699b4	-0.060205176
8	0x3d55a7ee	0.052162103
9	0xbd063276	-0.032762967
10	0xbdaf5eb4	-0.08562985
11	0x3d638e67	0.055555727
12	0x3cae08e0	0.021244466
13	0x3d0d0db7	0.034436908
14	0xbd5a8d0e	-0.053357176
15	0x3df0db5f	0.11760592
16	0xbd9dfd98	-0.07714385
17	0xbd095d32	-0.033536144
18	0x3d50e60e	0.051000647
19	0x3d796569	0.060887728
20	0x3de27bbd	0.110587575
21	0x3d7b1a7f	0.061304566
22	0x3cb1cef4	0.021705128
23	0xbc25c6da	-0.010118211
24	0xbd8016e4	-0.06254366
25	0x3dc00a23	0.093769334
26	0xbcfe67bb	-0.031055322
27	0xbd53a994	-0.051675394
28	0x3d4df2a0	0.050280213
29	0x3a1d4608	0.000599951
30	0x3d7e5f6a	0.062102713
31	0xbb2777d3	-0.0025553599
32	0xbd90e728	-0.070753396
33	0x3c79343a	0.015210206
34	0xbd496857	-0.04917177
35	0xbced58ce	-0.02897301
36	0xbcc90c48	-0.024541989
37	0xbdd4610f	-0.10370075
38	0x3de5400d	0.11193857
39	0xbd958cf1	-0.07302273
40	0xbddd248b	-0.10797986
41	0xb7baf1d0	-2.228553e-05
42	0x3d6002b0	0.054690063
43	0x3dd2d042	0.10293628
44	0xbc81cc4f	-0.015844492
45	0x3c0a4dd2	0.008441405
46	0xbd959d0c	-0.07305345
47	0x3dcdff54	0.100584656
48	0xbd8a8107	-0.06762891
49	0x3b57c206	0.0032922043
50	0xbde5997c	-0.112109154
51	0xbdd8dcde	-0.10589002
52	0xbd747bca	-0.059688367
53	0x3d878571	0.06617249
54	0xbd668420	-0.056278348
55	0xbd164daf	-0.03669518
56	0x3d76da35	0.060266692
57	0xbbed9d21	-0.0072513972
58	0xbd232ab9	-0.039835665
59	0xbc4f80ac	-0.012664955
60	0x3d0c19c4	0.03420426
61	0x3df09069	0.11746294
62	0xbdc8408b	-0.097779356
63	0x3aedfcd4	0.0018157014

exp_avg f4 [64, 20]
0	0x3a0f50dd	0.00054670667
1	0x399426cf	0.00028257674
2	0xb992628f	-0.00027920722
3	0xb9c14db4	-0.00036869722
4	0x3a1ee903	0.0006061943
5	0xb8178472	-3.6124555e-05
6	0xba1610c2	-0.0005724543
7	0x3884e16c	6.3362386e-05
8	0xba54224b	-0.0008092268
9	0xba4da7cc	-0.0007845133
10	0xb995a73d	-0.00028544097
11	0x39d732f7	0.00041045967
12	0x39c8b39d	0.00038280795
13	0x39b4a312	0.00034453772
14	0xb794693f	-1.7691984e-05
15	0xba05563c	-0.0005086397
16	0x39df8b35	0.00042637592
17	0x383b9fa5	4.4732955e-05
18	0xb98da813	-0.0002701884
19	0xba62ad6f	-0.00086470594
20	0x3a19bd80	0.00058647245
21	0xb96912c9	-0.0002222761
22	0x39cc5298	0.0003897145
23	0x3a411fd9	0.00073671114
24	0xb8cf0160	-9.870785e-05
25	0x3a6c161f	0.0009005982
26	0x39f369f8	0.00046427525
27	0xba12ff33	-0.00056074857
28	0x3a521d3f	0.0008015222
29	0xba14bf99	-0.0005674302
30	0xba749811	-0.0009330521
31	0x3a3cf289	0.00072077714
32	0xb9b029e8	-0.00033600559
33	0x37cd6919	2.4486844e-05
34	0xba11ea41	-0.00055662176
35	0xb998fb73	-0.00029179043
36	0xb9eca03b	-0.0004513281
37	0xba01fe47	-0.000495885
38	0xb9c10b0f	-0.00036820068
39	0x3a423db3	0.00074097066
40	0xb99d7db1	-0.0003003902
41	0x39eef58c	0.00045577844
42	0x36aac136	5.0888875e-06
43	0x3a0a904e	0.00052857853
44	0xb81d5ebb	-3.751994e-05
45	0xb9a07e86	-0.00030611845
46	0x39d7b851	0.00041145322
47	0xb98c0cec	-0.00026712508
48	0xba439c67	-0.00074619654
49	0x3729ac6a	1.0113328e-05
50	0x3ad45d4d	0.0016202122
51	0x3938185b	0.0001755668
52	0x394a5d49	0.00019298973
53	0xb955777a	-0.00020357771
54	0x3a86edee	0.0010294297
55	0x39b1383c	0.0003380197
56	0xb8aa4f57	-8.12101e-05
57	0xba99e463	-0.0011741038
58	0x39b8acf3	0.00035224072
59	0xb8701324	-5.7238285e-05
60	0x39d6532f	0.00040879237
61	0xba1a43c1	-0.000588473
62	0xba648aa7	-0.00087181706
63	0xb9c970f4	-0.00038421864
64	0xba3b3a12	-0.0007142137
65	0xb93f6f08	-0.00018256542
66	0xba4474d3	-0.0007494215
67	0xb96c140b	-0.0002251418
68	0x3a5163b0	0.0007987572
69	0xba5397f5	-0.00080716546
70	0xba2a1c8f	-0.0006489241
71	0xb9b3e760	-0.00034313928
72	0x39740700	0.00023272261
73	0xb995c32e	-0.00028564915
74	0xb9564243	-0.00020433315
75	0x394457ee	0.00018724773
76	0xba26f248	-0.00063685
77	0xb9fb5cdb	-0.00047943633
78	0xba632e05	-0.000866622
79	0xb9d3feb3	-0.00040434822
80	0x39a99d99	0.0003235161
81	0xb80201e1	-3.0996165e-05
82	0x383738bf	4.368345e-05
83	0xba2798e7	-0.00063933287
84	0xba35dbc6	-0.0006937351
85	0x39d3e412	0.00040414982
86	0xb8cfdaeb	-9.911306e-05
87	0x3a251229	0.00062969566
88	0x3991617d	0.0002772919
89	0xb9c15f5f	-0.00036882886
90	0x3b36ecea	0.0027912208
91	0xb9da777d	-0.00041669226
92	0xba2116e1	-0.0006145072
93	0x3a19bb9d	0.00058644434
94	0xb98f19e4	-0.00027294375
95	0x3a2aa12b	0.0006509001
96	0x38df85f3	0.000106584186
97	0xba694102	-0.00088979315
98	0x3bb7f4b5	0.005613888
99	0xb7f2db3e	-2.895074e-05
100	0x399db2d7	0.0003007862
101	0x3a15195c	0.0005687678
102	0x3a6cbbe5	0.0009030684
103	0xba399b38	-0.00070803193
104	0xb808b14d	-3.259005e-05
105	0x3a322d05	0.00067968696
106	0x39a343ab	0.000311402
107	0x3970a524	0.00022949703
108	0x3a23b219	0.0006244495
109	0x3867d2a0	5.527085e-05
110	0x3bafc518	0.0053640716
111	0x3907b4a1	0.00012941893
112	0x3a1ec07f	0.0006055906
113	0xb96e7502	-0.00022741038
114	0xba0fdde6	-0.00054880825
115	0xb9846698	-0.0002525344
116	0xb936aa9f	-0.00017420434
117	0x3b49e504	0.003080667
118	0x3b8d94d1	0.004320719
119	0xb9a7e278	-0.00032021455
120	0xb9ab4fd2	-0.00032675132
121	0xb97f59b3	-0.0002435211
122	0x3a0715ae	0.0005153072
123	0x3a559dea	0.0008148836
124	0x390d264c	0.00013461075
125	0x3a115dfd	0.00055453164
126	0x3a02b2b2	0.0004985734
127	0xb9b868a1	-0.0003517317
128	0x393031fe	0.00016803292
129	0x39bc5245	0.0003591945
130	0xb99cabf2	-0.00029882748
131	0x3871f8ec	5.7690704e-05
132	0xb848900b	-4.7817866e-05
133	0xba4ef266	-0.00078943965
134	0x3a5bcf41	0.000838507
135	0x3a01c077	0.0004949639
136	0xba1e1762	-0.0006030706
137	0xb9e74cac	-0.00044116878
138	0xba44fa68	-0.000751412
139	0x39443916	0.00018713283
140	0x39f62de5	0.0004695497
141	0x3a08e145	0.0005221556
142	0xba26566e	-0.00063452765
143	0x3a1767d5	0.0005775665
144	0xb89ff05d	-7.626482e-05
145	0xb7901d17	-1.7179684e-05
146	0xb9bc0ab6	-0.00035866135
147	0xb9f5449f	-0.00046781168
148	0x3993fcb1	0.00028226295
149	0xba64bc55	-0.00087255734
150	0xbb84c56c	-0.004051855
151	0xb98a723c	-0.00026406522
152	0x3a2bb46f	0.0006550019
153	0x3995a477	0.0002854203
154	0xb9c66065	-0.00037837322
155	0x391f3b68	0.00015185552
156	0x38934ef9	7.024216e-05
157	0x38d4ad19	0.0001014119
158	0xbbba2509	-0.0056806845
159	0xb84a4172	-4.8221504e-05
160	0xba58c20f	-0.0008268663
161	0x39d304d8	0.00040248665
162	0x3a1da865	0.00060141674
163	0xb9e163e5	-0.00042989771
164	0xb9107f43	-0.00013780319
165	0x3a14d7b6	0.00056778954
166	0xb7f067b3	-2.8658518e-05
167	0x3956c816	0.00020483168
168	0xb990f184	-0.00027645763
169	0xba18bd77	-0.00058265723
170	0xba322635	-0.00067958544
171	0x3996c117	0.00028754093
172	0x39527413	0.00020070402
173	0xb87c83a0	-6.0204067e-05
174	0xba30354d	-0.00067218096
175	0xb9e4ee7b	-0.0004366523
176	0x37eb1bb9	2.8027092e-05
177	0x3a0dcb1f	0.00054089905
178	0xba161c5e	-0.0005726273
179	0xb7c20b8b	-2.3131977e-05
180	0x396ae78a	0.00022402234
181	0xba6339a9	-0.0008667955
182	0x398b6aac	0.00026591623
183	0xb917b523	-0.00014467961
184	0xba074718	-0.0005160435
185	0xb9e9f60d	-0.00044624545
186	0xba632ceb	-0.0008666056
187	0x39626aca	0.00021592822
188	0xba45a7b5	-0.0007539944
189	0x3a3bf88f	0.0007170522
190	0x38869530	6.417406e-05
191	0x39bad477	0.00035634983
192	0xb9e2e1d1	-0.00043274325
193	0xb90a26a8	-0.00013175106
194	0x3a1fa48a	0.0006089887
195	0x3a1d2348	0.0005994332
196	0xb9fa3a27	-0.00047727043
197	0x389a0746	7.344647e-05
198	0xbab07f15	-0.0013465608
199	0xba40b0ab	-0.00073505443
200	0xb9c4078a	-0.0003738965
201	0xba609901	-0.0008567721
202	0x392dadb4	0.00016563275
203	0xba402f7b	-0.0007331294
204	0x3957d152	0.00020581976
205	0xba48a002	-0.00076532376
206	0x3a72f370	0.00092678424
207	0x3a0f3d33	0.00054641365
208	0xb990678a	-0.00027542963
209	0xba449e37	-0.00075003825
210	0x3ab43cb8	0.0013751006
211	0xba258a61	-0.00063148706
212	0x3a51225a	0.0007977836
213	0xba36b06d	-0.00069690385
214	0xba0f2d9f	-0.0005461815
215	0xba13859d	-0.0005627515
216	0xb9c0abca	-0.00036749087
217	0x3a145b9f	0.00056594046
218	0x3a54748b	0.00081045245
219	0xba655a4d	-0.00087491126
220	0xb7a329b1	-1.9450528e-05
221	0x3a1fc495	0.00060946617
222	0x3a36c37f	0.000697188
223	0x39f70a74	0.000471193
224	0xb99dca4c	-0.00030096096
225	0x3a5ff2e3	0.0008542968
226	0x39d769ce	0.00041086826
227	0x392ebed8	0.00016665028
228	0xba38b888	-0.000704654
229	0xb9e9010f	-0.00044442012
230	0xbb070c43	-0.0020606674
231	0x3a65a1a9	0.0008759746
232	0x3a226749	0.00061952
233	0xb9ac518f	-0.00032867162
234	0x39a8f702	0.00032227492
235	0x3a2e56c5	0.0006650503
236	0xba0bafa7	-0.00053286034
237	0x3a962c25	0.0011457248
238	0xbabfe2ca	-0.0014639732
239	0xba1e34a6	-0.0006035067
240	0xb8d314bf	-0.00010065128
241	0x3a6684cb	0.00087935914
242	0xb9c94f36	-0.00038396724
243	0xb89156c9	-6.930304e-05
244	0xba23451b	-0.0006228254
245	0xb5873215	-1.007286e-06
246	0x39bdb34e	0.00036182482
247	0x373641c0	1.0863354e-05
248	0xba3f8556	-0.00073059404
249	0x3a4d98cd	0.00078428985
250	0x3af65024	0.0018792194
251	0xba31e362	-0.0006785897
252	0xb920e433	-0.000153438
253	0x39d0b2bc	0.0003980602
254	0xb814306c	-3.5331046e-05
255	0xb9c61911	-0.0003778418

exp_avg_sq f4 [64, 20]
0	0x3218efb3	8.902066e-09
1	0x3121a234	2.3520785e-09
2	0x3123a5c2	2.3813844e-09
3	0x318bf6b2	4.0734784e-09
4	0x323be75f	1.093744e-08
5	0x2e8a7295	6.295867e-11
6	0x3228f9f0	9.835716e-09
7	0x2f0d15aa	1.2831572e-10
8	0x32a7c6c8	1.9531754e-08
9	0x329db740	1.8360538e-08
10	0x321e415d	9.211672e-09
11	0x31acfb14	5.034403e-09
12	0x31969c84	4.3833683e-09
13	0x317318dc	3.5375285e-09
14	0x2e52029f	4.77508e-11
15	0x3203a1ac	7.6619635e-09
16	0x31b9ca72	5.407224e-09
17	0x30a95cb0	1.2322712e-09
18	0x330dbe5e	3.300226e-08
19	0x32bef7b0	2.2231546e-08
20	0x322ffb7b	1.0243521e-08
21	0x30cb3d5b	1.4787632e-09
22	0x319b1fb6	4.514699e-09
23	0x328abc95	1.6151072e-08
24	0x2f9f29f4	2.895174e-10
25	0x32cfc361	2.418682e-08
26	0x31dd35f7	6.4380816e-09
27	0x32208fb8	9.345904e-09
28	0x32a49b66	1.916278e-08
29	0x32242af6	9.555825e-09
30	0x32e47be8	2.659904e-08
31	0x3285267f	1.5500744e-08
32	0x31665a29	3.3520655e-09
33	0x2da0ffd3	1.8303503e-11
34	0x321ec6ed	9.242041e-09
35	0x312dff03	2.531977e-09
36	0x31cf97a2	6.0417316e-09
37	0x32018afe	7.540391e-09
38	0x319e8484	4.6134705e-09
39	0x328c8050	1.6356495e-08
40	0x3138d4d6	2.6896507e-09
41	0x31d3feed	6.16989e-09
42	0x2d9a1336	1.7516304e-11
43	0x320d20dc	8.2147515e-09
44	0x2f2a736c	1.5502416e-10
45	0x314eab41	3.0074292e-09
46	0x31aa640a	4.9590243e-09
47	0x31225ba2	2.362619e-09
48	0x32927f42	1.7054507e-08
49	0x2eb90c8e	8.415056e-11
50	0x33a93fbf	7.881271e-08
51	0x3079c034	9.085881e-10
52	0x309868a5	1.1089197e-09
53	0x30a9ed45	1.2363804e-09
54	0x33078e73	3.1561694e-08
55	0x316b1a01	3.4211782e-09
56	0x2fabf4e6	3.127873e-10
57	0x3345ad16	4.6025058e-08
58	0x31d73009	6.2627845e-09
59	0x2efbd03f	1.14511504e-10
60	0x31ab124c	4.978835e-09
61	0x32311290	1.0306977e-08
62	0x32c213fd	2.2593662e-08
63	0x3198f42e	4.4515422e-09
64	0x328354ba	1.5288936e-08
65	0x308f3f27	1.0422568e-09
66	0x32911d41	1.6893525e-08
67	0x30d7125b	1.5648526e-09
68	0x32a2f064	1.89686e-08
69	0x32a733c6	1.9464903e-08
70	0x3282fe93	1.5249759e-08
71	0x31749f58	3.559725e-09
72	0x30e005df	1.6299814e-09
73	0x312726b7	2.4323705e-09
74	0x30aa3cd2	1.2386414e-09
75	0x30949cef	1.081302e-09
76	0x32508e6c	1.21395765e-08
77	0x3281c8b6	1.510885e-08
78	0x32c12b34	2.2487804e-08
79	0x31adc68d	5.0575353e-09
80	0x31565bda	3.119331e-09
81	0x2e185494	3.463592e-11
82	0x2e9037b6	6.558258e-11
83	0x32525557	1.2243013e-08
84	0x3279aa98	1.4532496e-08
85	0x31a66697	4.842899e-09
86	0x2fa30dc5	2.965931e-10
87	0x324bb39b	1.1856993e-08
88	0x31207749	2.335087e-09
89	0x318c3d4d	4.0815054e-09
90	0x347b5b72	2.3409464e-07
91	0x31b34a47	5.21803e-09
92	0x32413f25	1.1248436e-08
93	0x322ff72c	1.0242541e-08
94	0x3117c512	2.2085413e-09
95	0x325b459a	1.2763303e-08
96	0x2fddab02	4.0321174e-10
97	0x33036054	3.0588424e-08
98	0x358100ed	9.611518e-07
99	0x2e7890e2	5.6517353e-11
100	0x3139518c	2.6967397e-09
101	0x3223dda8	9.5382475e-09
102	0x32cf78da	2.4152929e-08
103	0x32819d47	1.5089098e-08
104	0x2e57c199	4.905729e-11
105	0x326a107a	1.3624339e-08
106	0x3145875e	2.874422e-09
107	0x30da929b	1.5903255e-09
108	0x3245f86d	1.1523395e-08
109	0x2f0a6576	1.2587073e-10
110	0x356877d8	8.660113e-07
111	0x300da9c6	5.1536764e-10
112	0x323b2851	1.08939995e-08
113	0x30d3fbc1	1.5423823e-09
114	0x321bbdf0	9.065374e-09
115	0x3103f4ff	1.9202273e-09
116	0x3089c879	1.002504e-09
117	0x3496cc5a	2.8088363e-07
118	0x35183889	5.670668e-07
119	0x316552a4	3.3370862e-09
120	0x315aa9f8	3.1819791e-09
121	0x30f30e95	1.7684721e-09
122	0x320841ba	7.931186e-09
123	0x32aa52bc	1.9828228e-08
124	0x3019ec9a	5.5997307e-10
125	0x321e89f9	9.228182e-09
126	0x32002251	7.458383e-09
127	0x317b76dd	3.6592873e-09
128	0x306f9ab4	8.716754e-10
129	0x31867576	3.913267e-09
130	0x319103b4	4.2204764e-09
131	0x2f007589	1.1683289e-10
132	0x2e968f60	6.846679e-11
133	0x329f65e5	1.8556372e-08
134	0x32b4696e	2.1002702e-08
135	0x31fb4ef4	7.3140374e-09
136	0x3238e6c9	1.0762684e-08
137	0x31f080b9	6.9995534e-09
138	0x32917c3c	1.6936717e-08
139	0x308ede49	1.0395037e-09
140	0x31e1aa1b	6.5677006e-09
141	0x320d86e0	8.237947e-09
142	0x324bcdca	1.1862946e-08
143	0x322e4eb5	1.0146029e-08
144	0x2f3fedaa	1.7455784e-10
145	0x2e0ca06c	3.1974798e-11
146	0x3183086c	3.8135592e-09
147	0x31dfb69f	6.510916e-09
148	0x31267586	2.4222984e-09
149	0x32c391c2	2.276727e-08
150	0x350338d2	4.888399e-07
151	0x3114dade	2.1661246e-09
152	0x325b7d08	1.27759066e-08
153	0x3126e23f	2.4284785e-09
154	0x319337d3	4.2846096e-09
155	0x304ceb2f	7.4548984e-10
156	0x2f851a4d	2.4211247e-10
157	0x32d012df	2.4222969e-08
158	0x35820094	9.685923e-07
159	0x2f15c012	1.3619708e-10
160	0x32aedd6d	2.0356959e-08
161	0x31a5b76e	4.8229856e-09
162	0x3238f921	1.0766855e-08
163	0x31bd4c6c	5.509312e-09
164	0x301c3a75	5.683554e-10
165	0x3224ce7d	9.593006e-09
166	0x2ddee600	2.5340618e-11
167	0x30abcd22	1.250019e-09
168	0x311ce851	2.2833044e-09
169	0x322dde36	1.012045e-08
170	0x326ce45c	1.3788931e-08
171	0x31295342	2.4640063e-09
172	0x30a516d0	1.2011814e-09
173	0x2eef603f	1.08855584e-10
174	0x32672852	1.34551374e-08
175	0x31c32ddb	5.68046e-09
176	0x2dce8149	2.3476903e-11
177	0x321600d6	8.731339e-09
178	0x3229d0c8	9.884566e-09
179	0x2d98f583	1.7389428e-11
180	0x30cdb8ae	1.4968202e-09
181	0x32c05a44	2.239279e-08
182	0x3110aa8c	2.1051703e-09
183	0x302ccc39	6.2863453e-10
184	0x32084cf6	7.933741e-09
185	0x31cb7428	5.921283e-09
186	0x32c07822	2.2406372e-08
187	0x30be8658	1.3862502e-09
188	0x3292d3d2	1.7092962e-08
189	0x3282dc9b	1.5234312e-08
190	0x3222f62c	9.485614e-09
191	0x318169ca	3.766421e-09
192	0x31c0f3f5	5.61567e-09
193	0x300e8d7a	5.186035e-10
194	0x323c0b7a	1.094565e-08
195	0x3236024c	1.05943165e-08
196	0x31ecf58a	6.8964185e-09
197	0x31f6c467	7.1818707e-09
198	0x33895fbc	6.3969736e-08
199	0x32899dd8	1.6020678e-08
200	0x318f20f6	4.165595e-09
201	0x32bc01c3	2.1886882e-08
202	0x3068612a	8.4539187e-10
203	0x3289c0ef	1.6036635e-08
204	0x30b16873	1.2908131e-09
205	0x32965305	1.7500051e-08
206	0x32db9b32	2.556553e-08
207	0x321a52d0	8.982809e-09
208	0x311e4809	2.3032973e-09
209	0x32913563	1.69045e-08
210	0x3375502e	5.711643e-08
211	0x324fbc0b	1.2091742e-08
212	0x32a1e58d	1.8847254e-08
213	0x32787616	1.44623495e-08
214	0x3219f6da	8.9619e-09
215	0x32233898	9.500717e-09
216	0x318ddeca	4.1289683e-09
217	0x32b6039e	2.1189233e-08
218	0x330295c8	3.040421e-08
219	0x32c3d6d6	2.2798684e-08
220	0x2d4cd07c	1.164235e-11
221	0x323ead82	1.1098907e-08
222	0x3279cd48	1.4540383e-08
223	0x31e58c82	6.680751e-09
224	0x3138074f	2.6779678e-09
225	0x32bc1486	2.1895413e-08
226	0x31b0db06	5.1471742e-09
227	0x306e69ce	8.6734253e-10
228	0x327e56bc	1.4804467e-08
229	0x31ca9abd	5.8965655e-09
230	0x340ba81b	1.300654e-07
231	0x32c42fbe	2.2839114e-08
232	0x3244963a	1.1442859e-08
233	0x315d3d53	3.2194591e-09
234	0x3154c666	3.0962837e-09
235	0x3261d79a	1.3145746e-08
236	0x32116661	8.463389e-09
237	0x3349b42d	4.696283e-08
238	0x338af648	6.470924e-08
239	0x323c32d3	1.0954596e-08
240	0x2fa69cc2	3.0306607e-10
241	0x32c5d710	2.3031618e-08
242	0x3196de0c	4.3908184e-09
243	0x2f2a1a7d	1.547082e-10
244	0x324531e7	1.1478256e-08
245	0x2dc6bbf6	2.2593465e-11
246	0x31877b62	3.943044e-09
247	0x2ddd273b	2.5142213e-11
248	0x3288c891	1.592369e-08
249	0x329de9f3	1.8383593e-08
250	0x33eafa9d	1.09420604e-07
251	0x326b10c1	1.368261e-08
252	0x3040eeea	7.018871e-10
253	0x31a2366d	4.721008e-09
254	0x2e2a4879	3.8717893e-11
255	0x3192b2ae	4.2694728e-09

exp_avg f4 [64]
0	0xbaf6766b	-0.0018803602
1	0xba10b86b	-0.00055206445
2	0x3ba504ea	0.005035986
3	0x3a383c6a	0.00070280454
4	0x3c032f3a	0.008006865
5	0x3c0e9c38	0.008704238
6	0xba87da7b	-0.0010364795
7	0xbc129090	-0.008945599
8	0xba295aa1	-0.0006460343
9	0xb9b0d685	-0.00033729165
10	0x3a20b4dd	0.00061304664
11	0xbb24b2ef	-0.0025131067
12	0x3bb84ce8	0.0056244023
13	0xba8f6971	-0.0010941458
14	0xb8b66a2e	-8.698214e-05
15	0xbb1fdb1d	-0.0024392076
16	0xbc53066b	-0.012879948
17	0x3ac65c68	0.001513374
18	0xbab388e2	-0.001369741
19	0xbb23e85d	-0.0025010325
20	0xba3ea32a	-0.0007272238
21	0xba2e4da3	-0.0006649142
22	0xb70f9382	-8.5578085e-06
23	0x3ac1cfdb	0.0014786677
24	0xb9f65df0	-0.00046990765
25	0xbb573e2f	-0.003284346
26	0x3afd7ca3	0.0019339513
27	0xba77cd4c	-0.0009452894
28	0xbbc2b8ed	-0.005942455
29	0xb8eba3b0	-0.000112361624
30	0xbabf1fbd	-0.0014581602
31	0x3b371109	0.0027933738
32	0xba25f151	-0.00063302094
33	0x3a681f40	0.0008854754
34	0xbad89618	-0.0016524224
35	0x3b8b914c	0.004259264
36	0xbae60b82	-0.0017551037
37	0xb9b5fa72	-0.00034709607
38	0xbb2c458f	-0.0026286577
39	0x3bae19f5	0.005313153
40	0x3b64e85e	0.003492854
41	0x38f4b24f	0.00011668039
42	0xbb1a6841	-0.0023560675
43	0xba4a42dc	-0.00077156513
44	0xbc59e277	-0.013298622
45	0x3a9dbfd3	0.0012035317
46	0xbbcf3305	-0.0063232207
47	0x3b9324dc	0.004490478
48	0xba57540a	-0.0008214122
49	0xb96e26f0	-0.00022711954
50	0x3aba6254	0.0014219978
51	0xba267b40	-0.0006350763
52	0xba8270a5	-0.0009951784
53	0x3a1e23a0	0.000603253
54	0x3ad62314	0.0016337358
55	0x3b68bd3a	0.0035513178
56	0xba1aa39e	-0.00058990146
57	0x3b7486b9	0.0037311746
58	0x3a685e5c	0.00088641583
59	0x39de179b	0.00042360727
60	0xbb8b14fe	-0.004244446
61	0x3bad0e09	0.005281214
62	0x3c27e25b	0.010246838
63	0xb8fbda83	-0.00012009314

exp_avg_sq f4 [64]
0	0x34141878	1.3792476e-07
1	0x3237d44f	1.0700275e-08
2	0x354db5bc	7.663291e-07
3	0x33412881	4.4973152e-08
4	0x36010303	1.922425e-06
5	0x361ac0b0	2.3059947e-06
6	0x33127bb3	3.4105778e-08
7	0x36203af8	2.3876182e-06
8	0x3257bd4d	1.2557689e-08
9	0x332549de	3.8484238e-08
10	0x329abe5a	1.8014521e-08
11	0x3453ee2c	1.9737553e-07
12	0x3580dc7d	9.600914e-07
13	0x332d0424	4.0283467e-08
14	0x31601767	3.2609593e-09
15	0x345a4608	2.032831e-07
16	0x36a5cb4a	4.941049e-06
17	0x33a70aed	7.778531e-08
18	0x33757132	5.714646e-08
19	0x345d09f5	2.0585851e-07
20	0x32883b38	1.5859413e-08
21	0x326461a0	1.3293544e-08
22	0x2f00fc71	1.1731217e-10
23	0x33991ff1	7.130428e-08
24	0x31ebd776	6.8638952e-09
25	0x34b80b8c	3.4281072e-07
26	0x33f2228c	1.1275287e-07
27	0x32f463e8	2.845077e-08
28	0x35904076	1.0747597e-06
29	0x301e45d0	5.7579275e-10
30	0x33be64ac	8.8658766e-08
31	0x34856aec	2.4850976e-07
32	0x324f3027	1.2059934e-08
33	0x32fc6f57	2.9387293e-08
34	0x33d7edd5	1.0054979e-07
35	0x3517523c	5.637155e-07
36	0x33e45892	1.0633188e-07
37	0x31a03eca	4.663751e-09
38	0x345f4752	2.079444e-07
39	0x356b3436	8.76203e-07
40	0x34e32c39	4.231422e-07
41	0x31264d0e	2.419998e-09
42	0x344297ac	1.8122836e-07
43	0x3299526e	1.7849029e-08
44	0x36b0a629	5.2645523e-06
45	0x33d8f39e	1.01025975e-07
46	0x35a4de54	1.2283658e-06
47	0x3525bfc5	6.174635e-07
48	0x32bfeaac	2.2342043e-08
49	0x32258146	9.633657e-09
50	0x33855cf7	6.210205e-08
51	0x3250a939	1.214567e-08
52	0x339bcbf3	7.254848e-08
53	0x32cb16ba	2.3642645e-08
54	0x33b3d767	8.3745185e-08
55	0x34ed88bc	4.4244177e-07
56	0x3234449c	1.0492979e-08
57	0x34e9c907	4.35459e-07
58	0x3319985b	3.5761655e-08
59	0x3226597f	9.682821e-09
60	0x350f54a4	5.339482e-07
61	0x3560b9d2	8.3716907e-07
62	0x3657ddae	3.216653e-06
63	0x329117c8	1.6891036e-08

exp_avg f4 [64]
0	0x3b84aa3a	0.004048613
1	0x3b85abc5	0.0040793144
2	0x3b94e33a	0.004543689
3	0x3b863783	0.004095973
4	0x3bbe75ad	0.005812368
5	0x3bf3ade0	0.007436499
6	0x3b8592fe	0.0040763607
7	0x3a503137	0.0007941904
8	0x3b86196b	0.0040923855
9	0x3b75fc6f	0.0037534495
10	0x3b8a694d	0.0042239786
11	0x3b7c9d16	0.003854578
12	0x3ba0a74a	0.004902755
13	0x3b84ea21	0.0040562307
14	0x3b86bc63	0.004111813
15	0x3b809c59	0.003924888
16	0x3aded9eb	0.00170022
17	0x3b89e404	0.00420809
18	0x3b84b178	0.0040494762
19	0x3b82fdaf	0.0039975266
20	0x3b86196b	0.0040923855
21	0x3b86196b	0.0040923855
22	0x3b86113f	0.0040914114
23	0x3b898a59	0.0041974005
24	0x3b861625	0.0040919953
25	0x3b61d390	0.0034458376
26	0x3b884b1d	0.004159345
27	0x3b85f8da	0.0040885033
28	0x3b521eba	0.0032061771
29	0x3b86196b	0.0040923855
30	0x3b819814	0.0039548967
31	0x3ba2ff13	0.004974255
32	0x3b86196b	0.0040923855
33	0x3b870f82	0.0041217217
34	0x3b7fa2fb	0.0039007056
35	0x3b891464	0.004183339
36	0x3b80b868	0.003928233
37	0x3b8462f7	0.004040118
38	0x3b78c77e	0.0037960703
39	0x3ba3dcbc	0.005000679
40	0x3ba2a08c	0.0049629863
41	0x3b866450	0.0041013137
42	0x3b72f80a	0.0037074112
43	0x3b86196b	0.0040923855
44	0x39bf867c	0.00036530558
45	0x3b8c1c82	0.0042758593
46	0x3b47429a	0.0030404688
47	0x3b9dc08d	0.0048142136
48	0x3b861a70	0.004092507
49	0x3b856586	0.0040709404
50	0x3b8a3c2e	0.0042185998
51	0x3b86196b	0.0040923855
52	0x3b7e4b40	0.0038802177
53	0x3b8760b8	0.004131403
54	0x3b87de5d	0.004146381
55	0x3b9da094	0.004810402
56	0x3b86196b	0.0040923855
57	0x3ba41dc9	0.0050084335
58	0x3b8759d7	0.004130583
59	0x3b87c75f	0.00414364
60	0x3b7788db	0.0037770781
61	0x3b99207b	0.0046730614
62	0x3c00d3af	0.007862969
63	0x3b84cc23	0.0040526553
