models/NVDA.pth (torch, 84074 bytes, 33 tensors)

shared.0.weight f4 [64, 20]
-0.20161742 -0.019271918 -0.18785687 -0.18434238 0.08942189 -0.12894578 0.06881953 0.19043055
0.21118788 0.065060705 0.08035213 -0.14234532 -0.10534672 -0.091727294 -0.09160457 -0.14166775
-0.13315728 0.06164923 0.065170296 0.16743803 0.05808431 -0.17135191 0.1845535 0.043983035
-0.17493661 -0.05240611 0.08638303 0.010712297 0.12752339 0.095942035 -0.17007966 -0.043359768
0.05035501 -0.2083603 0.19483367 -0.21502881 0.04212308 -0.097689 0.030598825 -0.09977165
0.1374289 -0.089175224 -0.08747585 -0.033264607 0.05577006 0.0593127 -0.13273928 -0.21465416
-0.02317644 0.18998893 0.068498336 -0.04844205 0.041186318 0.15555966 0.19449067 0.18349351
-0.17573684 0.0143756345 0.07590176 0.1961665 -0.06147988 -0.21079953 -0.21241751 -0.17170884
0.153515 -0.14743474 -0.055114307 0.07578586 0.13151184 -0.12681124 -0.09397429 0.05761362
-0.19815259 -0.17619938 -0.038949292 -0.08035572 0.18095325 0.051363457 0.047546685 0.11364566
0.15012603 0.13850938 -0.015079257 0.18117265 0.11168362 -0.19976486 -0.08711167 -0.21853021
-0.10109391 0.20915988 -0.16668132 -0.08076289 0.22146963 0.060549613 0.106715105 -0.049483918
0.1214707 0.019350974 -0.18807606 0.15660632 -0.21040781 0.034680016 -0.073541015 -0.120383956
-0.18627585 0.08474851 -0.059839416 0.19490333 -0.068939306 -0.19224578 0.19514512 0.03144434
0.11405828 0.0236977 -0.19211456 -0.18868987 0.066373155 -0.083254814 0.019264976 -0.2149295
0.005306895 0.15368365 -0.17013441 0.050701305 0.21312134 -0.20890643 0.11288249 -0.020746622
-0.060531206 0.16415408 -0.17068632 -0.09989996 0.1367276 -0.13187535 -0.059366703 0.19528523
0.016619738 0.09623339 0.009647296 0.00031079727 -0.061605986 0.18713787 0.17624587 -0.18316007
0.119726256 -0.14807887 -0.036811624 -0.060075745 0.120089866 0.14137807 -0.082771346 0.09165411
0.12316597 -0.20883216 0.20994185 0.07326233 -0.15932481 0.0010758033 0.095069766 -0.21818838
0.13329472 0.15162593 -0.1885205 0.06781279 0.079496376 0.10412831 -0.08979049 -0.15194778
0.08806345 0.14920513 -0.09279703 -0.1994944 -0.113046266 -0.103188984 0.077648535 -0.12806356
0.014209883 0.03766989 0.08955487 0.114374936 0.16335946 -0.013258132 -0.15975334 0.12936968
-0.0935709 -0.05729521 -0.14095777 -0.14911073 0.1071392 -0.034573805 -0.17692535 0.011774828
0.0070173414 -0.15932445 0.13926317 0.078083254 0.11353898 0.08201531 0.012761348 0.0079889875
0.011473774 0.021104967 -0.026906801 0.07078406 0.10293806 -0.16954161 -0.021740245 0.15523952
0.061767697 -0.035077162 0.11253297 0.15751863 -0.026335578 -0.14109151 0.105369896 -0.15872143
0.17259718 -0.14440583 -0.11935688 -0.20685399 0.22083673 -0.010886453 0.14078511 -0.16750528
-0.058215287 0.16361928 0.1301042 0.06998385 0.08853684 0.112774745 0.05107417 0.005928995
-0.020016132 -0.22186312 -0.021226684 0.13858548 0.015758168 0.15868115 -0.052704807 -0.04773567
0.08965956 -0.13333869 0.1935039 -0.20946336 0.1022871 -0.06793199 -0.050803177 0.057321418
0.023094848 -0.12547486 0.2108424 -0.10646593 -0.104918316 -0.1814997 -0.006500366 -0.019944113
00000000: cc74 4ebe 24e0 9dbc 8d5d 40be 40c4 3cbe
00000010: d322 b73d 5d0a 04be 41f1 8c3d 3a00 433e
00000020: a341 583e 8c3e 853d a88f a43d f9c2 11be
00000030: 05c0 d7bd 85db bbbd 2d9b bbbd 5a11 11be
00000040: 625a 08be e783 7c3d 0178 853d e074 2b3e
00000050: d0e9 6d3d e076 2fbe 98fb 3c3e 8e27 343d
00000060: 9522 33be caa7 56bd 96e9 b03d a182 2f3c
00000070: 7e95 023e 427d c43d 5d29 2ebe 039a 31bd
00000080: 0e41 4e3d 675c 55be 7a82 473e 8330 5cbe
00000090: 4089 2c3d 2c11 c8bd 63aa fa3c 1455 ccbd
000000a0: 29ba 0c3e 80a1 b6bd 8a26 b3bd 7840 08bd
000000b0: 256f 643d e0f1 723d ceec 07be 4dce 5bbe
000000c0: 84dc bdbc 758c 423e db48 8c3d 2c6b 46bd
000000d0: fcb2 283d 084b 1f3e 9028 473e b9e5 3b3e
000000e0: 5cf4 33be c887 6b3c 6272 9b3d dfdf 483e
000000f0: 54d2 7bbd d5db 57be fa83 59be 71d4 2fbe
00000100: 0933 1d3e 22f9 16be 8abf 61bd 9e35 9b3d
00000110: 0aab 063e ceda 01be 9875 c0bd 42fc 6b3d
00000120: 83e8 4abe 9c6d 34be 4b89 1fbd 8a91 a4bd
00000130: cf4b 393e 7d62 523d 50c0 423d 0ebf e83d
00000140: a3ba 193e 67d5 0d3e fd0e 77bc 5385 393e
00000150: 62ba e43d 298f 4cbe 9a67 b2bd 62c6 5fbe
00000160: 530a cfbd 022e 563e 82ae 2abe 0467 a5bd
00000170: efc8 623e df02 783d 738d da3d a6af 4abd
00000180: a1c5 f83d ef85 9e3c 0397 40be 685d 203e
00000190: 2575 57be a20c 0e3d ac9c 96bd dd8b f6bd
000001a0: 19bf 3ebe a090 ad3d 2d1a 75bd bd94 473e
000001b0: 0d30 8dbd 14dc 44be 1fd4 473e c8cb 003d
000001c0: 6397 e93d ae21 c23c aeb9 44be eb37 41be
000001d0: a6ee 873d 8081 aabd 95d1 9d3c 7b16 5cbe
000001e0: 76e5 ad3b 3f5f 1d3e b737 2ebe 2cac 4f3d
000001f0: 7b3c 5a3e 91eb 55be ef2e e73d d2f4 a9bc
00000200: 92ef 77bd 0218 283e 65c8 2ebe 5a98 ccbd
00000210: 5202 0c3e 550a 07be 802a 73bd daf8 473e
00000220: 1e26 883c 0316 c53d b10f 1e3c 81f2 a239
00000230: 8f56 7cbd 12a1 3f3e cc79 343e 508e 3bbe
00000240: 0a33 f53d fda1 17be c9c7 16bd fc11 76bd
00000250: adf1 f53d 6ac5 103e 0684 a9bd 26b5 bb3d
00000260: 713e fc3d 19d8 55be fffa 563e 8f0a 963d
00000270: 0b26 23be f801 8d3a f0b3 c23d c66c 5fbe
00000280: 697e 083e d443 1b3e 850b 41be 6fe1 8a3d
00000290: ffce a23d 3941 d53d 14e4 b7bd 3398 1bbe
000002a0: 9c5a b43d 3bc9 183e 5f0c bebd 4348 4cbe
000002b0: cd84 e7bd bf54 d3bd 3206 9f3d 1823 03be
000002c0: 92d0 683c be4b 1a3d 8b68 b73d 683d ea3d
000002d0: b447 273e a338 59bc 6196 23be 7c79 043e
000002e0: 1aa2 bfbd 62ae 6abd 3c57 10be 7cb0 18be
000002f0: cc6b db3d 439d 0dbd eb2b 35be 35eb 403c
00000300: baf1 e53b f325 23be 019b 0e3e 1dea 9f3d
00000310: 2087 e83d a5f7 a73d f914 513c 3ee4 023c
00000320: 7ffc 3b3c 53e4 ac3c a76b dcbc 3cf7 903d
00000330: 31d1 d23d 519c 2dbe 9918 b2bc 1cf7 1e3e
00000340: 2000 7d3d 12ad 0fbd b077 e63d 904c 213e
00000350: b6bd d7bc 4b7a 10be 2ccc d73d df87 22be
00000360: 51bd 303e 1fdf 13be 6171 f4bd 88d1 53be
00000370: 0623 623e 185d 32bc f929 103e 8186 2bbe
00000380: 2773 6ebd d08b 273e 093a 053e b153 8f3d
00000390: ce52 b53d 72f6 e63d 2633 513d 0448 c23b
000003a0: dff8 a3bc 1630 63be 95e3 adbc 5ae9 0d3e
000003b0: 4617 813c 507d 223e ffe0 57bd 7a86 43bd
000003c0: 6e9f b73d f089 08be e325 463e 907d 56be
000003d0: e67b d13d ed1f 8bbd fe16 50bd ddc9 6a3d
000003e0: 6831 bd3c 7b7c 00be 12e7 573e cf0a dabd
000003f0: 6adf d6bd 0fdb 39be 0601 d5bb d661 a3bc

shared.0.bias f4 [64]
0.17682214 -0.17749396 -0.1527948 -0.01033219 -0.19073804 0.14909299 -0.13776933 -0.06587935
0.05001466 0.08105135 0.21642835 -0.17499493 0.072269775 -0.034236148 0.004959764 -0.16380939
-0.16628022 -0.16437756 0.18226285 0.15199918 -0.050446566 -0.21828431 -0.22135504 0.08052038
0.068977125 0.0015099742 0.22142121 -0.0023944387 0.018145308 -0.14305437 -0.10733501 0.13407305
0.11578548 -0.015623555 -0.21582265 -0.20272538 -0.17205842 0.090827785 0.16010982 -0.13685447
0.067812234 -0.21105973 0.003835107 -0.12975647 0.13916558 0.033242058 -0.056383632 -0.049862184
-0.13487968 0.05076056 0.06426809 0.047797285 0.10124083 0.04086429 -0.03071337 -0.16139166
-0.06257208 0.10225636 -0.20075901 0.08676998 -0.11251132 -0.08768571 -0.092165336 -0.11555281
00000000: dd10 353e fac0 35be 3d76 1cbe 5948 29bc
00000010: d550 43be d5ab 183e 6713 0dbe c1eb 86bd
00000020: 2cdc 4c3d 40fe a53d 659f 5d3e df31 33be
00000030: 2d02 943d 343b 0cbd 8485 a23b a6bd 27be
00000040: 5d45 2abe 9752 28be 1da3 3a3e aca5 1b3e
00000050: 0fa1 4ebd ec85 5fbe e5aa 62be dee7 a43d
00000060: e143 8d3d 54ea c53a 3ebc 623e 04ec 1cbb
00000070: 78a5 943c d87c 12be 75d2 dbbd 724a 093e
00000080: f020 ed3d f0f9 7fbc 9d00 5dbe 3e97 4fbe
00000090: 1530 30be eb03 ba3d d4f3 233e 9423 0cbe
000000a0: 24e1 8a3d 0b20 58be 6b56 7b3b e1de 04be
000000b0: 6c81 0e3e d328 083d 86f2 66bd 4a3c 4cbd
000000c0: e61d 0abe 4eea 4f3d fd9e 833d 16c7 433d
000000d0: 5a57 cf3d 5061 273d 9b9a fbbc db43 25be
000000e0: ca25 80bd c86b d13d c593 4dbe 76b4 b13d
000000f0: 566c e6bd 9194 b3bd 2ec1 bcbd f4a6 ecbd

shared.1.weight f4 [64]
0.9985 0.99850005 0.9984998 0.99850017 0.99850005 0.998499 0.99850005 0.9985001
0.9985002 0.99849993 0.99850404 0.9985002 0.9985021 0.99849916 0.99850005 0.998501
0.99850005 0.9985016 0.9984994 0.99850166 0.998498 0.99850005 0.99850005 0.99851304
0.99849975 0.9985 0.99850035 0.99849945 0.9985025 0.9985002 0.99850005 0.99849814
0.99849784 0.99850005 0.99850005 0.99850005 0.99850017 0.9984996 0.99849916 0.9985002
0.99850136 0.9985 0.9985009 0.99850005 0.99849534 0.9985003 0.9985021 0.99850065
0.99850035 0.9985001 0.9985076 0.9985005 0.9984997 0.99849945 0.998499 0.99849993
0.9985068 0.9985009 0.99850005 0.998501 0.9985016 0.9985009 0.99849945 0.99850005
00000000: b29d 7f3f b39d 7f3f af9d 7f3f b59d 7f3f
00000010: b39d 7f3f a19d 7f3f b39d 7f3f b49d 7f3f
00000020: b69d 7f3f b19d 7f3f f69d 7f3f b69d 7f3f
00000030: d59d 7f3f a49d 7f3f b39d 7f3f c39d 7f3f
00000040: b39d 7f3f cd9d 7f3f a89d 7f3f ce9d 7f3f
00000050: 919d 7f3f b39d 7f3f b39d 7f3f 8d9e 7f3f
00000060: ae9d 7f3f b29d 7f3f b89d 7f3f a99d 7f3f
00000070: dc9d 7f3f b69d 7f3f b39d 7f3f 939d 7f3f
00000080: 8e9d 7f3f b39d 7f3f b39d 7f3f b39d 7f3f
00000090: b59d 7f3f ab9d 7f3f a49d 7f3f b69d 7f3f
000000a0: c99d 7f3f b29d 7f3f c19d 7f3f b39d 7f3f
000000b0: 649d 7f3f b79d 7f3f d59d 7f3f bd9d 7f3f
000000c0: b89d 7f3f b49d 7f3f 329e 7f3f bb9d 7f3f
000000d0: ad9d 7f3f a99d 7f3f a19d 7f3f b19d 7f3f
000000e0: 249e 7f3f c19d 7f3f b39d 7f3f c39d 7f3f
000000f0: cd9d 7f3f c19d 7f3f a99d 7f3f b39d 7f3f

shared.1.bias f4 [64]
-0.0014933606 0.0 -0.00088300725 -0.0015009133 0.0 0.0012733822 0.0 -0.0014973646
0.0014636128 0.0014862083 -0.0014824521 -0.0014654343 0.001500902 -0.0014762362 0.0014139074 0.0014852603
0.0 0.0014083609 -0.0014994964 -0.001475641 0.0014195523 0.00037799735 0.0 0.0014994475
0.0014118125 -0.0014980731 -0.0012405184 0.0014942553 0.0015058313 0.0014983412 -0.001470074 -0.0015036771
-0.0014895308 0.0 0.0 0.0 0.0014840683 0.0014878361 -0.0014965738 -0.00013167672
0.0015019363 -0.0014675522 -0.0014966058 -0.0009278843 0.0014873862 0.0014677776 0.0014505957 -0.0013681478
0.0012625847 0.0014992929 0.0015054734 0.0014939486 0.0014345997 0.0015011419 0.0014412855 -0.0012036895
-0.001422199 -0.0013671134 0.0 0.0014768676 -0.0014940975 0.0015019189 -0.0014994504 0.0014835403
00000000: debc c3ba 0000 0000 9d79 67ba 4bba c4ba
00000010: 0000 0000 9ee7 a63a 0000 0000 3843 c4ba
00000020: b2d6 bf3a e0cc c23a d74e c2ba d113 c0ba
00000030: eab9 c43a 447e c1ba dc52 b93a 11ad c23a
00000040: 0000 0000 c098 b83a c08a c4ba 4c6a c1ba
00000050: 4510 ba3a f22d c639 0000 0000 1c89 c43a
00000060: 910c b93a fe5a c4ba e498 a2ba e3da c33a
00000070: 505f c53a fd63 c43a 80af c0ba 0817 c5ba
00000080: 5c3c c3ba 0000 0000 0000 0000 0000 0000
00000090: 1285 c23a 7f03 c33a af28 c4ba b312 0ab9
000000a0: 9fdc c43a e15a c0ba c229 c4ba 433d 73ba
000000b0: 66f4 c23a 7262 c03a ea21 be3a 6c53 b3ba
000000c0: 507d a53a ec83 c43a 4e53 c53a 99d0 c33a
000000d0: 2e09 bc3a f7c1 c43a 84e9 bc3a 1ec5 9dba
000000e0: 1469 baba b730 b3ba 0000 0000 7493 c13a
000000f0: 98d5 c3ba 09dc c43a 3589 c4ba 5a73 c23a

shared.4.weight f4 [64, 64]
-0.053428322 0.071084455 0.08564783 0.07050781 -0.099747464 -0.04936407 0.021618545 0.053061493
0.00065056764 0.03879647 0.02658454 0.04553016 0.08620415 0.12501144 -0.02309847 -0.06773383
-0.047019493 0.07602213 -0.07404265 -0.05850053 0.024250954 -0.104732014 -0.09138084 -0.022826508
0.07180088 0.06035539 -0.063624434 -0.0084840385 0.009387973 0.09966427 0.10029742 0.019896029
0.104810834 0.067691706 0.062228657 0.08003478 0.12146569 -0.078008115 -0.085823186 0.03847248
0.055338923 0.104345 0.014875623 -0.09300253 0.006591968 -0.117911346 -0.11766646 -0.040939156
0.02917474 0.022672372 0.023467688 0.048970487 0.049544483 0.081595205 0.12264582 -0.052783426
0.0186196 0.038563907 0.013377418 -0.1063586 -0.106464386 0.031557053 -0.079626136 0.09030011
0.0029240435 0.0609568 0.09634449 0.099991046 -0.022019368 -0.004630554 -0.02879478 -0.006503355
0.0072920476 0.070375495 -0.036025576 0.07659714 -0.061481025 -0.04029147 0.024805192 0.049644686
-0.036406264 -0.04916613 -0.0493436 -0.11335553 -0.11075167 0.051822666 0.11685168 0.030722827
0.018550003 0.06937368 0.051128827 -0.04692154 -0.08023663 0.059905 -0.1003552 0.055772703
0.038567714 0.067813225 -0.11369776 0.09425949 -0.10167033 -0.06705129 -0.09830376 -0.04430401
-0.11935121 0.070344284 0.08159262 0.06866518 -0.09511576 -0.08674653 -0.089143336 0.08563284
0.05318947 0.11509802 0.0056772646 0.045866076 0.087797 0.068116136 0.09350214 0.032642543
0.05195091 -0.09037479 -0.12231434 0.0015325592 -0.08886454 0.11026216 0.119798735 0.07496158
0.04882459 -0.07955369 0.09963889 -0.0518962 -0.04688926 0.08820539 -0.044878285 0.12126105
0.011556756 0.09176224 -0.015940303 0.044075403 0.02021678 0.008557119 0.108238064 0.108638704
0.123291105 0.010640162 0.104607396 -0.02390423 -0.040678967 0.08847762 -0.08030029 -0.05383454
-0.040326692 -0.06681844 -0.03735845 -0.029112833 0.09755507 0.0973077 0.052250568 -0.072603665
-0.017761957 0.070201494 -0.03536795 -0.012905493 0.04998994 -0.05171176 -0.122814015 0.07970205
-0.10308782 0.07646679 -0.016180169 0.0776877 0.010180455 0.10138897 0.12185244 0.09030551
0.031421155 -0.038203962 0.12119952 0.01145699 0.1063103 0.11167132 -0.06888497 -0.11301461
0.087182105 -0.06328407 0.038567584 0.060311493 -0.09137125 -0.00045466033 -0.046217624 -0.040897764
0.047181558 -0.015065133 0.08067246 0.08709823 -0.01772678 0.10756467 0.104584165 0.03559852
-0.0048392243 -0.002432167 -0.04452844 -0.07845053 -0.07660295 0.03778558 0.03743176 0.06742241
-0.04398736 -0.07904666 0.040221035 -0.000406271 0.08386768 -0.046884857 0.09842857 -0.123191126
-0.056918282 0.033797808 -0.09070985 -0.10290292 -0.044179026 0.10146599 -0.06556112 0.10105901
-0.07344838 0.07784606 -0.03252104 -0.074716784 0.07094868 0.026804056 -0.07347089 0.09593006
-0.092849195 0.019919943 -0.12023582 0.09189126 0.10551844 0.102115534 0.019713514 0.09085628
0.0062499014 -0.060808063 0.084306836 0.034867257 0.1131703 0.08510176 0.03808807 0.01621969
-0.08081808 -0.10397048 0.103896745 0.103287384 0.080791235 0.026577799 0.057225 0.023125509
00000000: a8d7 5abd ba94 913d 2168 af3d 6666 903d
00000010: 6648 ccbd fb31 4abd 6019 b13c 0257 593d
00000020: db8a 2a3a 0ce9 1e3d d2c7 d93c d57d 3a3d
00000030: cd8b b03d 0003 003e 0139 bdbc 09b8 8abd
00000040: 8397 40bd 7eb1 9b3d aca3 97bd 409e 6fbd
00000050: f0a9 c63c bd7d d6bd e125 bbbd a8fe babc
00000060: 570c 933d 3737 773d 874d 82bd a300 0bbc
00000070: 03d0 193c c81c cc3d bc68 cd3d fffc a23c
00000080: 10a7 d63d f3a1 8a3d 7ae3 7e3d 46e9 a33d
00000090: 01c3 f83d b8c2 9fbd 11c4 afbd 5295 1d3d
000000a0: 11ab 623d d5b2 d53d e3b8 733c 1c78 bebd
000000b0: 6f01 d83b 817b f1bd 1dfb f0bd d1af 27bd
000000c0: ddff ee3c 69bb b93c 4f3f c03c 4795 483d
000000d0: 28ef 4a3d 631b a73d bb2d fb3d 6f33 58bd
000000e0: 2288 983c 30f5 1d3d f52c 5b3c 8ad2 d9bd
000000f0: 000a dabd f841 013d 0713 a3bd 44ef b83d
00000100: 4fa1 3f3b d6ad 793d 4350 c53d 1bc8 cc3d
00000110: f661 b4bc e7bb 97bb 08e3 ebbc 191a d5bb
00000120: 21f2 ee3b 0721 903d 8e8f 13bd f6de 9c3d
00000130: 87d3 7bbd ab08 25bd 4234 cb3c 3a58 4b3d
00000140: bc1e 15bd 6d62 49bd 841c 4abd f226 e8bd
00000150: c6d1 e2bd 0144 543d ef4f ef3d 70ae fb3c
00000160: 2df6 973c ca13 8e3d 766c 513d cd30 40bd
00000170: 1a53 a4bd f25e 753d 0787 cdbd eb71 643d
00000180: 2ef9 1d3d a9e1 8a3d 5fda e8bd 1f0b c13d
00000190: 8938 d0bd 3052 89bd 7b53 c9bd 1f78 35bd
000001a0: 686e f4bd aa10 903d 081a a73d 54a0 8c3d
000001b0: 0dcc c2bd 2aa8 b1bd c890 b6bd 4560 af3d
000001c0: 34dd 593d 83b8 eb3d 5908 ba3b 11de 3b3d
000001d0: eace b33d 7980 8b3d 0d7e bf3d 30b4 053d
000001e0: 7aca 543d 6b16 b9bd f17f fabd 27e0 c83a
000001f0: 9dfe b5bd 21d1 e13d 0a59 f53d 7585 993d
00000200: 4bfc 473d 0ced a2bd 790f cc3d 1c91 54bd
00000210: f40e 40bd 07a5 b43d 4bd2 37bd b757 f83d
00000220: 8c58 3d3c d7ed bb3d 3d95 82bc 6988 343d
00000230: a99d a53c 2933 0c3c ebab dd3d f87d de3d
00000240: 0c80 fc3d 1354 2e3c 673c d63d ced2 c3bc
00000250: fd9e 26bd c133 b53d 7a74 a4bd 9b81 5cbd
00000260: 9a2d 25bd 1bd8 88bd 2d05 19bd 097e eebc
00000270: f4ca c73d 4249 c73d b104 563d 3bb1 94bd
00000280: 8681 91bc cdc5 8f3d fcdd 10bd 9071 53bc
00000290: 40c2 4c3d b6cf 53bd ea85 fbbd d43a a33d
000002a0: b51f d3bd 9f9a 9c3d 468c 84bc bb1a 9f3d
000002b0: eccb 263c 05a5 cf3d c68d f93d 18f2 b83d
000002c0: 78b3 003d c27b 1cbd 7437 f83d 19b6 3b3c
000002d0: 37b9 d93d efb3 e43d 9013 8dbd 3474 e7bd
000002e0: 888c b23d 149b 81bd 0bf9 1d3d 2f09 773d
000002f0: da20 bbbd 7a5f eeb9 b14e 3dbd 6a84 27bd
00000300: 7341 413d bfd3 76bc 9a37 a53d 8f60 b23d
00000310: c137 91bc de4a dc3d 3930 d63d c1cf 113d
00000320: 5b92 9ebb fe64 1fbb 7463 36bd acaa a0bd
00000330: 02e2 9cbd 0dc5 1a3d 0c52 193d c314 8a3d
00000340: 172c 34bd 37e3 a1bd d0be 243d c500 d5b9
00000350: d1c2 ab3d 560a 40bd eb94 c93d a14b fcbd
00000360: 2523 69bd 926f 0a3d 16c6 b9bd c4be d2bd
00000370: 11f5 34bd 67cd cf3d e944 86bd 07f8 ce3d
00000380: 1b6c 96bd c16d 9f3d c834 05bd 1d05 99bd
00000390: 8b4d 913d 2e94 db3c e877 96bd fb76 c43d
000003a0: b827 bebd 262f a33c 333e f6bd 7c31 bc3d
000003b0: 0d1a d83d f321 d13d 3c7e a13c db12 ba3d
000003c0: f9cb cc3b e011 79bd 10a9 ac3d f8d0 0e3d
000003d0: d5c5 e73d d549 ae3d 3c02 1c3d 28df 843c
000003e0: f383 a5bd 7aee d4bd d1c7 d43d 5688 d33d
000003f0: e075 a53d afb9 d93c c364 6a3d b571 bd3c

shared.4.bias f4 [64]
-0.02558892 -0.024969809 0.0325692 -0.037238143 0.05514863 0.07617831 0.11249877 0.07625428
0.015088583 0.044289738 -0.06085789 0.041021675 -0.110971086 -0.103092834 0.091739 0.0796622
0.022826891 0.0036236374 0.096167974 0.059834745 0.07987199 -0.006506135 0.034138113 -0.09335212
-0.09484022 -0.10360831 0.12057187 -0.08027937 0.09942669 -0.017518904 0.07849226 0.02949054
0.06683784 -0.021680258 0.012123299 -0.07590694 -0.020652996 0.024528159 -0.054737955 0.04383047
-0.023468142 -0.026011342 0.069427885 0.104983956 -0.0843642 -0.0919608 0.012619373 0.055194713
-0.067706056 0.003459695 0.06176029 0.09267009 -0.12479374 0.05024776 0.12124226 -0.10224531
-0.0964575 0.12185003 -0.06603366 0.0026076857 0.07557447 0.08068674 0.016846165 -0.034925755
00000000: db9f d1bc 7c8d ccbc 4867 053d 0687 18bd
00000010: 88e3 613d 6003 9c3d c165 e63d 342b 9c3d
00000020: 1b36 773c 2869 353d 1f46 79bd 5806 283d
00000030: cf44 e3bd 5622 d3bd a8e1 bb3d ef25 a33d
00000040: 76ff ba3c 8c7a 6d3b b7f3 c43d 4715 753d
00000050: ed93 a33d 6b31 d5bb 68d4 0b3d 652f bfbd
00000060: 973b c2bd 9830 d4bd 62ee f63d 8369 a4bd
00000070: 38a0 cb3d ce83 8fbc 8dc0 a03d 2596 f13c
00000080: 47e2 883d cc9a b1bc cda0 463c 1975 9bbd
00000090: 7930 a9bc 47ef c83c e834 60bd 9487 333d
000000a0: 4340 c0bc bd15 d5bc 3530 8e3d d401 d73d
000000b0: 23c7 acbd f255 bcbd 7dc1 4e3c da13 623d
000000c0: 79a9 8abd 0dbc 623b 5cf8 7c3d d1c9 bd3d
000000d0: dc93 ffbd 98d0 4d3d dd4d f83d fd65 d1bd
000000e0: 828b c5bd 828c f93d a83c 87bd b5e5 2a3b
000000f0: cac6 9a3d 173f a53d f800 8a3c 4f0e 0fbd

shared.5.weight f4 [64]
0.9985007 0.9985003 0.9985145 0.9985013 0.99850076 0.9984997 0.99850225 0.9985017
0.9985008 0.9985036 0.99850994 0.9985003 0.99850035 0.99850065 0.99850065 0.99850386
0.998505 0.99850804 0.9985017 0.9985012 0.9985007 0.99849975 0.99849844 0.99850005
0.99858457 0.9985008 0.99850136 0.99850285 0.9984996 0.9985 0.9985005 0.99850017
0.998501 0.9984998 0.99850047 0.9985001 0.9985011 0.998501 0.9985006 0.9985003
0.99850017 0.99850106 0.998503 0.9985007 0.9985012 0.9985003 0.9985002 0.9985053
0.9985001 0.99850184 0.9985 0.9985002 0.9985031 0.99850065 0.99850005 0.9985002
0.99850065 0.99850005 0.9985001 0.9985013 0.998502 0.99849963 0.9985008 0.9985002
00000000: be9d 7f3f b79d 7f3f a59e 7f3f c89d 7f3f
00000010: bf9d 7f3f ad9d 7f3f d89d 7f3f cf9d 7f3f
00000020: c09d 7f3f ef9d 7f3f 599e 7f3f b79d 7f3f
00000030: b89d 7f3f bd9d 7f3f bd9d 7f3f f39d 7f3f
00000040: 069e 7f3f 399e 7f3f cf9d 7f3f c69d 7f3f
00000050: be9d 7f3f ae9d 7f3f 989d 7f3f b39d 7f3f
00000060: 3da3 7f3f c09d 7f3f c99d 7f3f e29d 7f3f
00000070: ab9d 7f3f b29d 7f3f bb9d 7f3f b59d 7f3f
00000080: c39d 7f3f af9d 7f3f ba9d 7f3f b49d 7f3f
00000090: c59d 7f3f c39d 7f3f bc9d 7f3f b79d 7f3f
000000a0: b59d 7f3f c49d 7f3f e59d 7f3f be9d 7f3f
000000b0: c69d 7f3f b79d 7f3f b69d 7f3f 0b9e 7f3f
000000c0: b49d 7f3f d19d 7f3f b29d 7f3f b69d 7f3f
000000d0: e69d 7f3f bd9d 7f3f b39d 7f3f b69d 7f3f
000000e0: bd9d 7f3f b39d 7f3f b49d 7f3f c89d 7f3f
000000f0: d49d 7f3f ac9d 7f3f c09d 7f3f b69d 7f3f

shared.5.bias f4 [64]
0.0014940663 -0.0014817873 0.0015025972 -0.0014998782 0.0015012671 -0.0014945831 -0.0014940469 0.0014993997
-0.0014938107 0.0014962195 0.0014941924 -0.0014826952 0.001501285 0.0014954251 -0.001480589 0.0014929554
0.0014983184 0.00150195 0.001497282 -0.0014946514 0.0015048126 -0.001501225 -0.0015015644 -0.0012818059
0.0015016778 -0.0014947156 -0.0014945792 -0.0014735318 -0.0014975832 -0.0014974858 0.0015044656 -0.001488841
0.0014972243 -0.0014985368 -0.0014980114 -0.0014378391 -0.0014974845 -0.0014997739 0.0014950102 0.0014619663
0.0014883317 -0.0014864504 -0.0014947952 0.0015008524 -0.0014973779 -0.0014903563 0.0014896321 0.0014934442
0.0014512466 0.0014902323 -0.001500052 -0.0014841734 -0.0014955616 0.0014992476 -0.00030224357 -0.0014893976
-0.0009632013 -0.00056876696 0.0014892053 -0.0014921313 -0.0014849429 -0.0015031963 -0.0014889799 -0.0014945609
00000000: 8cd4 c33a 8838 c2ba ccf2 c43a 9097 c4ba
00000010: 2ac6 c43a e3e5 c3ba e5d3 c3ba 8187 c43a
00000020: f8cb c3ba cc1c c43a c7d8 c33a ff56 c2ba
00000030: c4c6 c43a 2402 c43a 5310 c2ba 45af c33a
00000040: 3963 c43a 14dd c43a 7240 c43a 2ee8 c3ba
00000050: 223d c53a c1c4 c4ba 24d0 c4ba 4502 a8ba
00000060: f2d3 c43a 55ea c3ba c2e5 c3ba 8623 c1ba
00000070: 8e4a c4ba 4947 c4ba 7d31 c53a 3725 c3ba
00000080: 833e c43a 8d6a c4ba ec58 c4ba e075 bcba
00000090: 3e47 c4ba 1094 c4ba 38f4 c33a 739f bf3a
000000a0: 2014 c33a 00d5 c2ba 01ed c3ba 40b8 c43a
000000b0: aa43 c4ba 0f58 c3ba c23f c33a acbf c33a
000000c0: c137 be3a e653 c33a 659d c4ba 9888 c2ba
000000d0: b806 c4ba 6782 c43a 7276 9eb9 e437 c3ba
000000e0: 587f 7cba 4e19 15ba 7031 c33a 9e93 c3ba
000000f0: 6aa2 c2ba e606 c5ba e029 c3ba 24e5 c3ba

actor.0.weight f4 [3, 64]
0.052729595 -0.06834976 0.05467313 -0.0018138997 -0.09895853 0.052577723 0.068327874 -0.02521199
0.05517115 0.050674934 0.11954298 0.07089727 0.03237646 0.003976895 -0.05298631 -0.072973676
0.07731756 -0.08162228 0.10811421 0.11876797 0.0061214822 -0.07085799 0.075878724 0.11542493
0.03172114 -0.10633848 -0.11065033 -0.09453713 -0.070859104 -0.09819635 0.038333908 0.0753684
-0.06482503 -0.04823411 0.10753395 0.07524414 0.022613939 -0.08127931 0.01215883 0.00061511726
-0.06860396 0.051559594 0.10714201 0.12317186 -0.12013037 0.07896223 0.03647502 -0.113698944
-0.054492544 0.11110391 -0.058653325 0.10348665 -0.091428936 -0.03865686 0.023728969 -0.023316067
0.051183905 0.054197337 0.00064127444 0.045963973 -0.07422416 0.10919601 -0.041630108 -0.0762266
0.025417248 0.03201222 0.11857333 0.08175866 0.012863469 0.0057639456 0.07548451 0.0337811
-0.09820365 -0.046366848 0.01654039 -0.009868925 -0.059652586 -0.07720759 0.013599887 0.025832063
0.06337541 -0.09686986 0.07637562 -0.036583535 0.015521832 -0.0874213 -0.015313992 0.015894316
-0.013586468 0.108275354 -0.055442836 -0.048041325 -0.026068145 0.021595597 0.0827019 -0.10990483
0.07255381 -0.009191906 -0.024108898 -0.12031601 -0.08290068 0.062266167 0.09286769 0.0861961
0.007006 0.10711605 -0.020972861 -0.009782772 0.110002264 -0.06531782 0.09636433 -0.07975318
0.11321092 -0.0056259222 -0.10762397 0.0007129628 0.11495263 0.06503282 -0.1095186 -0.04327501
0.12230018 -0.082643226 -0.028421076 0.038066637 -0.049771313 -0.09442492 0.109538995 -0.07087144
-0.07471807 0.087071 -0.010189232 -0.039140943 -0.012801717 -0.04259925 -0.099138044 0.08616593
-0.10992683 0.10521166 0.11749554 -0.12069694 -0.088879 0.030936161 -0.089569524 -0.05383148
0.07712011 -0.05718344 -0.047140695 0.07881377 0.062178828 -0.0752782 0.06699816 0.06303476
0.05011295 0.07456866 0.05084884 -0.014763057 0.11740266 0.026896177 -0.03082881 -0.10198634
-0.085127726 0.043644663 -0.08881566 0.11202711 -0.092256114 -0.02253408 -0.0011660184 -0.11590918
-0.013295246 0.10473383 -0.059808057 0.06968463 0.076466836 -0.09899646 0.113992244 0.012602663
0.07509452 0.020251732 -0.11935016 0.06802316 0.021107519 -0.09908442 0.089711495 0.08024478
-0.0018687062 0.006210305 -0.039447304 -0.018717078 0.0701625 -0.0014562542 0.093404956 -0.026862271
00000000: fdfa 573d f5fa 8bbd eff0 5f3d 60c0 edba
00000010: c5aa cabd bd5b 573d 7cef 8b3d 6089 cebc
00000020: 25fb 613d 8590 4f3d f3d2 f43d 9732 913d
00000030: 2e9d 043d 9d50 823b 2c08 59bd 3973 95bd
00000040: ab58 9e3d 9529 a7bd fc6a dd3d 9f3c f33d
00000050: b796 c83b fe1d 91bd 4e66 9b3d e863 ec3d
00000060: 07ee 013d fdc7 d9bd a49c e2bd af9c c1bd
00000070: 941e 91bd 2b1b c9bd 0404 1d3d bf5a 9a3d
00000080: fcc2 84bd 2191 45bd c23a dc3d 9a19 9a3d
00000090: de40 b93c c475 a6bd d435 473c d23f 213a
000000a0: 3c80 8cbd 2730 533d 456d db3d 8741 fc3d
000000b0: e906 f6bd f3b6 a13d d566 153d feda e8bd
000000c0: 9333 5fbd 728a e33d 783e 70bd cff0 d33d
000000d0: 183f bbbd a856 1ebd 4163 c23c 5601 bfbc
000000e0: 37a6 513d 07fe 5d3d 331b 283a b844 3c3d
000000f0: d602 98bd 28a2 df3d 5584 2abd b11c 9cbd
00000100: d537 d03c 3f1f 033d 93d6 f23d 1671 a73d
00000110: 4dc1 523c 7bdf bc3b 9f97 9a3d 0d5e 0a3d
00000120: ff1e c9bd 2aeb 3dbd b67f 873c 46b1 21bc
00000130: 4556 74bd 031f 9ebd 0fd2 5e3c c39d d33c
00000140: f8ca 813d b563 c6bd d26a 9c3d 9ed8 15bd
00000150: 484f 7e3c f009 b3bd 8ae7 7abc cc34 823c
00000160: c799 5ebc 78bf dd3d 0718 63bd fbc6 44bd
00000170: dd8c d5bc 40e9 b03c 9d5f a93d c915 e1bd
00000180: 1897 943d a699 16bc 0680 c5bc 3e68 f6bd
00000190: d5c7 a9bd cf0a 7f3d 6a31 be3d 9587 b03d
000001a0: 9692 e53b a95f db3d 47cf abbc eb47 20bc
000001b0: de48 e13d 59c5 85bd a95a c53d a355 a3bd
000001c0: 20db e73d a859 b8bb f569 dcbd 20e6 3a3a
000001d0: 496c eb3d ed2f 853d 4a4b e0bd 2341 31bd
000001e0: 8478 fa3d da40 a9bd 51d3 e8bc c3eb 1b3d
000001f0: 01dd 4bbd da61 c1bd fb55 e03d 0c25 91bd
00000200: ca05 99bd 4852 b23d bdf0 26bc 4152 20bd
00000210: 4bbe 51bc 8d7c 2ebd e308 cbbd c377 b03d
00000220: 5121 e1bd 3679 d73d 80a1 f03d f52f f7bd
00000230: 3106 b6bd d56d fd3c 3a70 b7bd 667e 5cbd
00000240: 26f1 9d3d 2f39 6abd 9a16 41bd 1d69 a13d
00000250: 3aaf 7e3d 752b 9abd 5536 893d 5e18 813d
00000260: 3d43 4d3d 74b7 983d e046 503d c0e0 71bc
00000270: ce70 f03d 5f55 dc3c b38c fcbc 37de d0bd
00000280: 7257 aebd bfc4 323d fce4 b5bd 786e e53d
00000290: c6f0 bcbd 6499 b8bc 16d5 98ba cb61 edbd
000002a0: 4ed4 59bc b17e d63d 4bf9 74bd d1b6 8e3d
000002b0: a59a 9c3d a8be cabd c474 e93d 667b 4e3c
000002c0: 28cb 993d f6e6 a53c db6d f4bd ba4f 8b3d
000002d0: ade9 ac3c c6ec cabd a9ba b73d 6057 a43d
000002e0: 60ef f4ba d07f cb3b 7f93 21bd 8f54 99bc
000002f0: 5bb1 8f3d c8df beba 194b bf3d 440e dcbc

actor.0.bias f4 [3]
-0.031867787 -0.042885836 0.006373376
00000000: cc87 02bd 0fa9 2fbd c1d7 d03b

critic.0.weight f4 [1, 64]
-0.07882742 0.018840898 -0.10797035 0.073353514 -0.07147834 0.018576622 0.06552119 -0.07502165
0.022035148 -0.067284934 -0.09178682 0.010317321 -0.11638271 -0.0717129 0.115604065 -0.084660344
-0.093959294 -0.07937281 -0.06760273 0.026940104 -0.010300609 0.080594726 0.116695985 0.047207005
-0.08443606 0.117496945 0.034062285 0.1132976 0.08047762 0.012070936 -0.009040774 0.019357499
-0.08157332 0.032513984 0.10414682 0.04307013 0.101684846 0.065379776 -0.038463246 -0.11867047
-0.08251134 0.09944151 0.07206573 -0.038996216 0.0351672 0.07221671 -0.08931284 -0.068330824
-0.022999307 -0.085077986 0.11432347 0.006343416 0.10761779 -0.0570486 -0.00073718966 0.087778956
0.111538075 0.009541707 -0.05472449 0.11534445 0.0736989 0.056931447 0.04042039 0.0073485957
00000000: 4570 a1bd 3a58 9a3c 8f1f ddbd 5e3a 963d
00000010: 3c63 92bd 002e 983c f92f 863d f3a4 99bd
00000020: 0e83 b43c afcc 89bd bafa bbbd fb09 293c
00000030: 0f5a eebd 37de 92bd d3c1 ec3d 6762 adbd
00000040: bb6d c0bd 368e a2bd 4d73 8abd 7eb1 dc3c
00000050: e3c3 28bc d90e a53d 4efe ee3d 225c 413d
00000060: d0ec acbd 3da2 f03d e584 0b3d 9208 e83d
00000070: 73d1 a43d 2dc5 453c c11f 14bc 9e93 9e3c
00000080: ea0f a7bd 622d 053d ee4a d53d 4e6a 303d
00000090: 2540 d03d d5e5 853d a38b 1dbd 8109 f3bd
000000a0: b5fb a8bd fea7 cb3d 3397 933d 7fba 1fbd
000000b0: 7b0b 103d 5be6 933d a6e9 b6bd 08f1 8bbd
000000c0: 0b69 bcbc 5e3d aebd 6c22 ea3d 6edc cf3b
000000d0: b766 dc3d cbab 69bd f63f 41ba 74c5 b33d
000000e0: 136e e43d d254 1c3c c926 60bd b639 ec3d
000000f0: 73ef 963d f330 693d da8f 253d 7dcc f03b

exp_avg f4 [64, 20]
-0.00082907075 -6.6931374e-05 -0.000747874 -0.00073371787 0.00034852224 -0.00056238973 0.00024790392 0.0007540574
0.00084322365 0.0002514041 0.004599557 -0.00068441965 -0.00047859602 -0.0003790589 0.00026101232 -0.0005717456
-0.00056710176 -0.000176514 0.004029982 0.0006977024 0.00024128669 -0.0007025229 0.0007629746 0.00018778795
-0.0007180071 -0.0002142638 0.00036225276 5.38949e-05 0.0005344678 0.00040480174 -0.0005144027 -0.0001793127
0.00021198297 -0.00085668365 0.0008253979 -0.0008790878 0.00018440856 -0.00040235402 0.00016354196 -0.0004118076
0.000566212 -0.00036615325 -0.0003658368 -0.00013907375 0.00022730332 0.0002372557 -0.0005521484 -0.00087164214
-7.502044e-05 0.00079575914 0.0005421463 -0.00018810932 0.00017839865 0.0006404594 0.0008383128 0.00077813107
-0.0007087652 0.0001225392 0.00045706058 0.00080837694 -0.00025519205 -0.00088666775 -0.0008925626 -0.00067584903
0.0007236214 -0.00044535144 -2.0244823e-05 0.00056444196 0.0008203942 -0.0002611178 0.004723438 0.0004586991
-0.0007143043 -0.0007249812 0.00044521835 -0.00023216149 0.0010058833 0.0022712306 0.007924136 0.0004927644
0.00061820814 0.0005737323 -6.0475388e-05 0.00075048604 0.00046360344 -0.0008162382 -0.0003533711 -0.00089035
-0.00040754906 0.0008688312 -0.0004914279 -0.00033259642 0.0009122823 0.00025138247 0.00046588315 -0.00020221013
0.0005097353 8.1833205e-05 -0.00071153714 0.0006449861 -0.0008650684 0.00012641962 -0.00032670217 -0.0005369912
-0.00083999307 0.0002649784 -0.00034299912 0.0006734041 -0.00043702192 -0.0009682486 0.0005081922 -3.6317e-05
0.00037964564 0.0001004667 -0.00078476936 -0.00086381676 9.6271935e-05 -0.0015588009 -0.0002946856 -0.00089368556
2.5134414e-05 0.0006350413 -0.0006966662 0.00021456716 0.0008767384 -0.0008563297 0.0004690789 -8.391331e-05
-0.0002453569 0.0006805356 -0.000538758 -0.00041424972 0.00056372274 -0.0005434697 -0.00022432492 0.0008056737
7.6369266e-05 0.0003742243 7.107464e-05 4.6045516e-06 -0.00025570847 0.00080723944 0.0007939723 -0.00066521514
0.0005995446 -0.00047313224 1.7722425e-05 -8.285756e-05 0.00067223085 0.0007474725 0.00273838 0.0005076805
0.0005504663 -0.0008586159 0.0012293 0.00033283568 -0.00049076515 0.0010943828 0.005703657 -0.0008778157
0.0005492821 0.0006413955 -0.00075055426 0.0003284238 0.00039313408 0.00051271304 -0.00024819383 -0.00043605524
0.00059943093 0.00089338486 -0.0011126298 -0.00052410405 -0.00029662118 -0.00042599585 0.0001283728 -0.0003373539
0.0003405045 0.0020878664 -0.00061739783 0.00046866896 0.00067240046 -4.9373648e-05 -0.0006633772 0.0005347335
-0.00037650147 -0.00026140714 -0.0006177984 -0.000707336 0.00031535423 -0.00029942975 -0.0047131726 -4.819825e-05
-4.8621394e-05 -0.0006558767 3.8535374e-05 0.00019220122 0.00031365457 -0.00076433516 -0.0031436444 1.8397548e-05
5.0402326e-05 9.052367e-05 -0.00011268981 0.0002751256 0.00040622958 -0.0006912803 -3.8675797e-05 0.00071419793
0.00038346837 4.6826022e-05 0.005458582 0.00080335763 3.4257828e-06 -0.0005812109 0.0010587354 -0.0004703759
0.00089894515 0.0009872533 0.0032284476 -0.00082856114 0.00090777583 -2.8067137e-05 0.0006270313 -0.00062130333
-0.00017427195 0.00075765856 0.0006567982 0.00042833568 0.00051674165 0.00063491997 0.0014121623 0.00017967887
-3.2340029e-06 -0.00091197906 2.8208928e-05 0.0006549136 0.00023759401 0.0017329594 6.3841624e-05 -0.0001963775
0.0003705913 -0.00058492704 0.00072979997 -0.0009804979 0.0002615086 -0.00048063288 -0.0004653271 -8.981921e-05
-0.00026825015 -0.0008923138 -0.003472194 -0.000749253 -0.0005948385 -0.00074668665 -0.00049879454 -0.00026173345
00000000: ff55 59ba 825d 8cb8 f90c 44ba f956 40ba
00000010: ddb9 b639 566d 13ba 1af9 8139 efab 453a
00000020: c80b 5d3a e3ce 8339 e1b7 963b a06a 33ba
00000030: 12ec fab9 6dbc c6b9 7bd8 8839 33e1 15ba
00000040: 8ea9 14ba 9e16 39b9 f00d 843b 04e6 363a
00000050: e701 7d39 8429 38ba 5c02 483a f2e8 4439
00000060: a438 3cba 00ac 60b9 beec bd39 350d 6238
00000070: 871b 0c3a 923b d439 fbd8 06ba e305 3cb9
00000080: bf47 5e39 1193 60ba 845f 583a 9572 66ba
00000090: cc5d 4139 0bf3 d2b9 767c 2b39 e1e7 d7b9
000000a0: d86d 143a 42f8 bfb9 c9cd bfb9 53d4 11b9
000000b0: 4558 6e39 d8c7 7839 0dbe 10ba ea7e 64ba
000000c0: 4b54 9db8 7e9a 503a d31e 0e3a 363f 45b9
000000d0: 8610 3b39 81e4 273a 38c2 5b3a 7efb 4b3a
000000e0: 6dcc 39ba de7d 0039 a2a1 ef39 42e9 533a
000000f0: 4ccb 85b9 446f 68ba ddfa 69ba 762b 31ba
00000100: 69b1 3d3a 0f7e e9b9 6dd3 a9b7 0ff7 133a
00000110: b90f 573a a3e6 88b9 12c7 9a3b 8d7d f039
00000120: 2640 3bba aa0c 3eba 326c e939 6070 73b9
00000130: d8d7 833a edd8 143b 3cd4 013c dc2c 013a
00000140: 3f0f 223a 8666 163a f4a6 7db8 44bc 443a
00000150: cd0f f339 d1f8 55ba ab44 b9b9 6166 69ba
00000160: 4fac d5b9 46c2 633a 2bd3 00ba 5660 aeb9
00000170: 3b26 6f3a fccb 8339 c741 f439 5e08 54b9
00000180: c29f 053a de9d ab38 7386 3aba 4914 293a
00000190: c2c5 62ba 828f 0439 3949 abb9 dfc4 0cba
000001a0: fb32 5cba ccec 8a39 90d4 b3b9 6287 303a
000001b0: 1720 e5b9 10d2 7dba 3438 053a 1553 18b8
000001c0: 2d0b c739 a6b1 d238 fbb8 4dba c371 62ba
000001d0: 9ae5 c938 ae50 ccba 0880 9ab9 3946 6aba
000001e0: bed7 d237 e678 263a 7aa0 36ba 6ffd 6039
000001f0: ebd4 653a 507b 60ba b4ee f539 9efa afb8
00000200: 3fa3 80b9 f965 323a 703b 0dba a82f d9b9
00000210: cbc6 133a a277 0eba c338 6bb9 d933 533a
00000220: 7028 a038 8933 c439 e80d 9538 cc80 9a36
00000230: 9c10 86b9 ec9c 533a 9422 503a d561 2eba
00000240: c22a 1d3a bc0e f8b9 9eaa 9437 d0c3 adb8
00000250: a638 303a 08f2 433a 6576 333b dd15 053a
00000260: 2b4d 103a bd14 61ba 7720 a13a 7380 ae39
00000270: b1a6 00ba 6571 8f3a bee5 ba3b 371d 66ba
00000280: b3fd 0f3a 5323 283a d8c0 44ba 4c30 ac39
00000290: 901d ce39 9767 063a 0320 82b9 589e e4b9
000002a0: 2123 1d3a 0b32 6a3a a9d5 91ba 0764 09ba
000002b0: d283 9bb9 3258 dfb9 d09b 0639 e0de b0b9
000002c0: be85 b239 96d4 083b ded8 21ba afb7 f539
000002d0: 0844 303a 8d16 4fb8 7ee6 2dba 5c2d 0c3a
000002e0: 2c65 c5b9 790d 89b9 c0f3 21ba 846c 39ba
000002f0: 2156 a539 c8fc 9cb9 f570 9abb 7a28 4ab8
00000300: d3ee 4bb8 24ef 2bba 0ba1 2138 9f89 4939
00000310: 0172 a439 aa5d 48ba 9a05 4ebb 6f54 9a37
00000320: 1667 5338 86d7 bd38 e253 ecb8 bc3e 9039
00000330: 36fb d439 0937 35ba d237 22b8 0339 3b3a
00000340: 410c c939 0f67 4438 e8dd b23b 6b98 523a
00000350: 80e6 6536 675c 18ba 44c5 8a3a c99c f6b9
00000360: 30a7 6b3a b966 813a 5d94 533b cc33 59ba
00000370: cef7 6d3a b871 ebb7 5c5f 243a f6de 22ba
00000380: c5bc 36b9 9b9d 463a fb2c 2c3a 3e92 e039
00000390: f275 073a c270 263a 4e18 b93a 2e68 3c39
000003a0: bf07 59b6 e111 6fba 36a2 ec37 82ae 2b3a
000003b0: a822 7939 7824 e33a b6e2 8538 afea 4db9
000003c0: ec4b c239 ca55 19ba 0c50 3f3a 0d84 80ba
000003d0: 171b 8939 74fd fbb9 25f7 f3b9 525d bcb8
000003e0: eda3 8cb9 2aea 69ba c08d 63bb 8569 44ba
000003f0: f0ee 1bba 4bbd 43ba 89c1 02ba 4539 89b9

exp_avg_sq f4 [64, 20]
2.0465615e-08 1.6253947e-10 1.6782824e-08 1.616509e-08 3.7428096e-09 9.463669e-09 1.8431481e-09 1.6748842e-08
2.0940718e-08 1.891269e-09 6.391051e-07 1.4506285e-08 6.9884107e-09 4.2813366e-09 2.299541e-09 1.0097463e-08
1.0012383e-08 6.345039e-09 4.858241e-07 1.4514694e-08 1.7361187e-09 1.4705625e-08 1.7329917e-08 1.0511859e-09
1.5361607e-08 1.3718804e-09 3.911848e-09 8.79514e-11 8.500772e-09 4.8751634e-09 7.945723e-09 9.609559e-10
1.3391621e-09 2.1851125e-08 2.0278144e-08 2.3013126e-08 1.0116677e-09 4.8765014e-09 8.0531104e-10 5.053169e-09
9.548298e-09 3.9873935e-09 3.9816914e-09 5.802e-10 1.5713184e-09 1.7273829e-09 9.077883e-09 2.2600712e-08
2.2187377e-10 1.8934784e-08 9.21931e-09 1.0972089e-09 9.679676e-10 1.22153185e-08 2.0911648e-08 1.7981124e-08
1.4998614e-08 2.1442301e-09 8.67477e-09 1.9446766e-08 1.9417556e-09 2.3547361e-08 2.3793142e-08 1.3638258e-08
1.5556811e-08 6.336066e-09 3.4339084e-10 9.399192e-09 1.984879e-08 2.4893296e-09 6.555961e-07 6.224904e-09
1.5397859e-08 1.5650711e-08 5.8699587e-09 1.7018896e-09 2.988357e-08 1.5341725e-07 1.8532431e-06 7.24405e-09
1.1381609e-08 9.797252e-09 1.09992265e-10 1.6769285e-08 6.397963e-09 1.9840554e-08 3.7183474e-09 2.3593454e-08
4.952122e-09 2.2466555e-08 7.2546356e-09 3.297229e-09 2.477563e-08 1.884274e-09 6.4604744e-09 1.2208818e-09
7.734492e-09 2.168661e-10 1.5334457e-08 1.2387487e-08 2.228082e-08 4.7343146e-10 3.2530618e-09 8.820384e-09
2.121688e-08 2.0676447e-09 3.7981756e-09 1.3378482e-08 6.2527246e-09 2.8893782e-08 9.941639e-09 3.229802e-10
4.269998e-09 3.0195862e-10 1.8517252e-08 2.2525308e-08 5.381241e-10 9.103927e-08 6.661547e-09 2.3825308e-08
1.9269511e-11 1.20024835e-08 1.4454167e-08 1.3727216e-09 2.2876108e-08 2.1840867e-08 6.556617e-09 2.1100491e-10
1.7991164e-09 1.3779686e-08 8.727663e-09 5.115239e-09 9.460954e-09 8.797012e-09 1.5038045e-09 1.93222e-08
1.7377423e-10 4.15945e-09 1.8372023e-10 7.662418e-13 1.9496142e-09 1.9608626e-08 1.879778e-08 1.3240738e-08
1.0635309e-08 6.6644805e-09 5.5768588e-11 2.7634925e-10 1.34558364e-08 1.6527657e-08 2.2114708e-07 7.60914e-09
8.950941e-09 2.194978e-08 4.4987075e-08 3.2436325e-09 7.369906e-09 3.662502e-08 9.644284e-07 2.2973285e-08
8.986097e-09 1.2190547e-08 1.679119e-08 3.3008352e-09 4.7757576e-09 8.009091e-09 1.930765e-09 5.680072e-09
1.1244435e-08 2.4419348e-08 4.2466723e-08 8.044835e-09 2.5857838e-09 5.406428e-09 5.5442684e-10 3.4027803e-09
3.8446144e-09 1.5074689e-07 1.566877e-08 6.622167e-09 1.3463591e-08 9.015769e-11 1.2970746e-08 8.756059e-09
4.2641912e-09 2.1864128e-09 1.1507986e-08 1.497427e-08 3.124215e-09 2.8988358e-09 6.8411225e-07 2.791341e-10
1.1787529e-10 1.2810253e-08 9.9365974e-11 1.1011257e-09 3.2266825e-09 2.866367e-08 3.033026e-07 1.1879783e-11
7.64473e-11 2.821646e-10 3.810681e-10 2.3413966e-09 5.047464e-09 1.4136585e-08 1.9235906e-10 1.5522877e-08
4.803637e-09 6.060249e-10 9.180417e-07 2.0027437e-08 1.7853971e-10 1.0060626e-08 3.3844984e-08 6.7221553e-09
2.5015865e-08 4.7389754e-08 3.3822033e-07 2.0444359e-08 2.4534396e-08 2.8178695e-11 1.1766182e-08 1.14808305e-08
9.1265145e-10 1.7237461e-08 1.3021795e-08 5.5544778e-09 8.100065e-09 1.2241581e-08 6.6606255e-08 1.0888325e-09
1.9619412e-11 2.4762054e-08 5.3137196e-11 1.2847922e-08 1.8190791e-09 9.687736e-08 3.8872044e-10 1.1436166e-09
4.0923256e-09 1.01859685e-08 1.5889567e-08 2.8597578e-08 2.0937025e-09 6.975073e-09 6.478623e-09 2.6633407e-10
2.1612179e-09 2.3629417e-08 3.5843854e-07 1.6631086e-08 1.0500333e-08 1.6601538e-08 7.3687016e-09 2.0098851e-09
00000000: 5dcc af32 cbb6 322f d229 9032 69db 8a32
00000010: 1a9a 8031 a895 2232 0252 fd30 18df 8f32
00000020: 20e1 b332 8ef7 0131 f88e 2b35 5137 7932
00000030: b61e f031 091b 9331 f405 1e31 1d79 2d32
00000040: ed02 2c32 8e03 da31 9469 0235 4d5c 7932
00000050: 3f9c ee30 06a4 7c32 e4dc 9432 5179 9030
00000060: 88f4 8332 c08c bc30 fb68 8631 3d68 c12e
00000070: ca0a 1232 6482 a731 a981 0832 a112 8430
00000080: 940d b830 22b3 bb32 1c30 ae32 66ae c532
00000090: e50a 8b30 298e a731 ba5c 5d30 25a0 ad31
000000a0: dc09 2432 7c01 8931 54cf 8831 f27b 1f30
000000b0: daf5 d730 e268 ed30 f4f4 1b32 7e23 c232
000000c0: eaf3 732f 08a6 a232 f462 1e32 9bcc 9630
000000d0: 5509 8530 8adb 5132 33a1 b332 e974 9a32
000000e0: 4dd6 8032 b259 1331 0b08 1532 e40b a732
000000f0: ba6f 0531 3245 ca32 ac61 cc32 b14d 6a32
00000100: caa1 8532 a0b4 d931 f7c7 bc2f 157a 2132
00000110: f37f aa32 c010 2b31 39fc 2f35 d6e2 d531
00000120: 4044 8432 4770 8632 b4b0 c931 ebe7 e930
00000130: 5559 0033 03bb 2434 f3bc f835 56e7 f831
00000140: d988 4332 c550 2832 24e0 f12e 0c0c 9032
00000150: 14d5 db31 d76d aa32 dc85 7f31 8eaa ca32
00000160: 5327 aa31 7afc c032 7344 f931 7795 6231
00000170: 30d2 d432 807c 0131 effa dd31 f6cb a730
00000180: a8e0 0432 6172 6e2f d4b8 8332 bed0 5432
00000190: 0b64 bf32 c722 0230 788c 5f31 7688 1732
000001a0: 6a40 b632 6416 0e31 1b81 8231 30d7 6532
000001b0: 8cd7 d631 1932 f832 cacb 2a32 6c8f b12f
000001c0: 4db7 9231 e600 a62f de0f 9f32 ad7d c132
000001d0: 1eeb 1330 5e81 c333 96e3 e431 68a8 cc32
000001e0: 157f a92d 7b33 4e32 1952 7832 59aa bc30
000001f0: 1881 c432 939c bb32 9d48 e131 9a00 682f
00000200: c844 f730 b3bb 6c32 abf0 1532 1ec2 af31
00000210: b789 2232 ab21 1732 6bae ce30 f8f9 a532
00000220: 1911 3f2f e9ea 8e31 a600 4a2f 8aad 572b
00000230: faf9 0531 d36f a832 c178 a132 6279 6332
00000240: 95b6 3632 64fd e431 d945 752e b3ec 972f
00000250: 652b 6732 b4f8 8d32 7274 6d34 5ab9 0232
00000260: a8c6 1932 148c bc32 d037 4133 96e6 5e31
00000270: 613a fd31 a34d 1d33 8271 8135 ca56 c532
00000280: 4661 1a32 986e 5132 383c 9032 e8d4 6231
00000290: 0218 a431 5b98 0932 61ae 0431 712a c331
000002a0: 8c2d 4132 b7c2 d132 a864 3633 8f35 0a32
000002b0: 97b1 3131 72c3 b931 5266 1830 58d6 6931
000002c0: 9619 8431 fddc 2134 fd97 8632 3289 e331
000002d0: 804d 6732 4442 c62e f2d5 5e32 8e6d 1632
000002e0: 3984 9231 c83f 1631 a8b4 4532 c5a0 8032
000002f0: c6b1 5631 dc34 4731 d6a3 3735 a274 992f
00000300: f29a 012f 1714 5c32 1282 da2e 6b56 9730
00000310: 66bc 5d31 1438 f632 98d5 a234 c9fd 502d
00000320: 011c a82e 231f 9b2f 917e d12f 49e6 2031
00000330: f66d ad31 5cdd 7232 4380 532f 2b57 8532
00000340: 3d0d a531 3695 2630 586f 7635 cd08 ac32
00000350: 764e 442f 1ad7 2c32 f45c 1133 b4f8 e631
00000360: 78e2 d632 9689 4b33 a694 b534 9f9d af32
00000370: b5bf d232 c8dc f72d 3724 4a32 3a3d 4532
00000380: 23de 7a30 9411 9432 76b6 5f32 b4d9 be31
00000390: 7628 0b32 0b4f 5232 2d09 8f33 e3a5 9530
000003a0: fd92 ac2d 55b4 d432 2ab3 692e c2b9 5c32
000003b0: 2803 fa30 e40a d033 8ab3 d52f 6f2d 9d30
000003c0: 7a9c 8c31 5dfe 2e32 877d 8832 bda6 f532
000003d0: cee0 0f31 64a9 ef31 929a de31 306b 922f
000003e0: 8c84 1431 a3f9 ca32 6b6f c034 25dc 8e32
000003f0: f464 3432 2b9b 8e32 c92f fd31 461e 0a31

exp_avg f4 [64]
0.0096333325 -0.00035975265 -0.00015804355 0.009474788 -0.00039569827 0.0006361126 -0.00022895484 0.0053729843
-0.0022596868 -0.0073980424 0.010327074 0.0011062197 -0.0072971084 0.0011768782 -0.00080270495 -0.0041691954
-0.0003529932 -0.0015281272 0.008161027 0.004917977 -0.0020534322 -0.00056624005 -0.0005453279 -0.023047691
-0.00052545575 0.004645123 0.0024200547 -0.009189696 -0.0050421227 -0.0022156013 0.00050885347 0.01148106
0.0051618083 0.00028561536 -0.00053450925 -0.0004716697 -0.0021299329 -0.002565351 0.00529843 -0.00020266298
-0.003581206 0.00042154087 0.009467515 1.3363393e-05 -0.004656004 -0.0012521588 -0.0013659905 0.0008542367
-0.00059726776 -0.0025560982 -0.008105521 -0.007814954 -0.0022347344 -0.0050017415 -0.0025235477 0.00018070535
0.0049460917 0.0022650636 -0.00044167286 -0.00070699654 0.012394635 -0.0054911133 0.0040599294 -0.0016735264
00000000: 20d5 1d3c 2f9d bcb9 7eb8 25b9 243c 1b3c
00000010: b975 cfb9 cbc0 263a 9913 70b9 dc0f b03b
00000020: 4117 14bb 476b f2bb e332 293c 93fe 903a
00000030: 951c efbb 7b41 9a3a 9e6c 52ba bf9d 88bb
00000040: f211 b9b9 714b c8ba d4b5 053c fb26 a13b
00000050: e092 06bb ba6f 14ba 56f4 0eba 83ce bcbc
00000060: bdbe 09ba 1e36 983b c899 1e3b 6190 16bc
00000070: 6438 a5bb 9f33 11bb 9464 053a 0e1b 3c3c
00000080: 6324 a93b a5be 9539 4f1e 0cba 6f4a f7b9
00000090: 5896 0bbb 731f 28bb 749e ad3b ee81 54b9
000000a0: abb2 6abb 4202 dd39 a31d 1b3c 5633 6037
000000b0: 6491 98bb 7a1f a4ba 090b b3ba dbee 5f3a
000000c0: f691 1cba 3684 27bb 05cd 04bc 4b0a 00bc
000000d0: 9f74 12bb a6e5 a3bb 1b62 25bb b97b 3d39
000000e0: d312 a23b 7671 143b 5490 e7b9 bc55 39ba
000000f0: de12 4b3c ccee b3bb 2809 853b 3a5a dbba

exp_avg_sq f4 [64]
2.824262e-06 3.9551677e-09 3.648061e-09 2.6462517e-06 4.779901e-09 1.605553e-08 1.6581e-09 8.556657e-07
1.6560786e-07 1.6927373e-06 3.2637877e-06 4.7472312e-08 1.5822958e-06 4.6186248e-08 2.3485164e-08 5.521497e-07
3.845357e-09 7.0586594e-08 1.9915421e-06 7.298355e-07 1.6473666e-07 9.828169e-09 9.0122505e-09 1.5918447e-05
1.5684709e-08 6.5374684e-07 1.9122469e-07 2.5296667e-06 7.4096306e-07 1.4415905e-07 8.294466e-09 3.870663e-06
7.975911e-07 2.4059128e-09 8.648044e-09 6.7486714e-09 1.3854101e-07 2.0937063e-07 8.4121956e-07 1.558229e-09
3.793133e-07 6.009129e-09 2.692609e-06 2.6663545e-09 6.7474696e-07 5.2143974e-08 6.135445e-08 2.890528e-08
1.4767096e-08 1.9487403e-07 1.923706e-06 1.8298687e-06 1.7071075e-07 7.395106e-07 2.2659042e-07 3.5404473e-09
8.4206494e-07 1.896015e-07 5.940456e-09 1.7150628e-08 4.6437135e-06 8.851127e-07 4.8753026e-07 8.7279055e-08
00000000: 7488 3d36 06e6 8731 5eb1 7a31 4296 3136
00000010: 743c a431 7cea 8932 35e3 e330 e6b0 6535
00000020: f1d1 3134 0332 e335 7207 5b36 5ce4 4b33
00000030: 455f d435 515e 4633 6cbc c932 7037 1435
00000040: 1e20 8431 6495 9733 6fa6 0536 eae9 4335
00000050: 78e2 3034 bfd8 2832 4cd4 1a32 9b88 8537
00000060: 0abb 8632 247d 2f35 7153 4d34 58c3 2936
00000070: 98e6 4635 23ca 1a34 727f 0e32 bee0 8136
00000080: 0b1a 5635 4455 2531 8092 1432 f1e1 e731
00000090: ddc1 1434 5ccf 6034 2bd0 6135 4f29 d630
000000a0: 6ca4 cb34 dc78 ce31 acb2 3436 013b 3731
000000b0: 4220 3535 e8f4 5f33 f7c1 8333 624b f832
000000c0: 60b2 7d32 913e 5134 0419 0136 cf99 f535
000000d0: 9d4c 3734 c882 4635 b34c 7334 354c 7331
000000e0: 430a 6235 4395 4b34 ce1c cc31 a152 9332
000000f0: 32d1 9b36 7b98 6d35 d3de 0235 2b6e bb33

exp_avg f4 [64]
0.006459536 0.0040923855 0.004100191 0.004421652 0.0040923855 0.0040869303 0.0040923855 0.0043326574
0.0038657968 0.003673503 0.0064028506 0.004183829 0.002517585 0.004241513 0.0040116287 0.003832445
0.0040923855 0.0040106364 0.00538308 0.004916335 0.003712834 0.0040924638 0.0040923855 0.0012698098
0.004052059 0.0043839905 0.0043392153 0.0033147188 0.0035014814 0.003990459 0.004107586 0.0059513715
0.005000442 0.0040923855 0.0040923855 0.0040923855 0.004050791 0.0037533962 0.0047277818 0.0040923133
0.0037994678 0.0041944347 0.0050429343 0.004094283 0.0022766343 0.0040237624 0.003822559 0.004123909
0.004047029 0.003884298 0.0026028529 0.0031233148 0.0037871394 0.003543848 0.0039618067 0.0041056834
0.004889592 0.0042356686 0.0040923855 0.0038611856 0.005133204 0.0036501815 0.0047535663 0.0039381124
00000000: 84aa d33b 6b19 863b e55a 863b 81e3 903b
00000010: 6b19 863b a8eb 853b 6b19 863b f7f8 8d3b
00000020: 4f59 7d3b 27bf 703b 01cf d13b 8018 893b
00000030: 11fe 243b 64fc 8a3b fb73 833b c229 7b3b
00000040: 6b19 863b a86b 833b 8c64 b03b 3519 a13b
00000050: 0553 733b 131a 863b 6b19 863b bf6f a63a
00000060: 22c7 843b 94a7 8f3b fa2f 8e3b c13b 593b
00000070: 1c79 653b 65c2 823b ee98 863b b903 c33b
00000080: bfda a33b 6b19 863b 6b19 863b 6b19 863b
00000090: 7fbc 843b 8afb 753b 82eb 9a3b d018 863b
000000a0: 7e00 793b 7871 893b 333f a53b 5629 863b
000000b0: 9633 153b c4d9 833b e683 7a3b db21 873b
000000c0: f19c 843b b58f 7e3b a094 2a3b 87b0 4c3b
000000d0: a831 783b e73f 683b 0bd2 813b f888 863b
000000e0: df38 a03b 5dcb 8a3b 6b19 863b f20b 7d3b
000000f0: 7034 a83b e237 6f3b cec3 9b3b 480b 813b

exp_avg_sq f4 [64]
1.2477752e-06 4.984019e-07 5.000293e-07 5.815001e-07 4.984019e-07 4.9465524e-07 4.984019e-07 5.586832e-07
4.460853e-07 4.0140227e-07 1.2302233e-06 5.2152495e-07 1.891165e-07 5.342996e-07 4.795891e-07 4.36716e-07
4.984019e-07 4.808801e-07 8.61512e-07 7.1904316e-07 4.0763925e-07 4.984177e-07 4.984019e-07 4.9600224e-08
4.8830555e-07 5.7277737e-07 5.6020167e-07 3.2720425e-07 3.6780972e-07 4.742109e-07 5.0215175e-07 1.0465192e-06
7.38414e-07 4.984019e-07 4.984019e-07 4.984019e-07 4.8849455e-07 4.1767345e-07 6.6483614e-07 4.985145e-07
4.3004178e-07 5.2374736e-07 7.5805445e-07 4.9882226e-07 1.5192532e-07 4.821672e-07 4.3561457e-07 5.068033e-07
4.8784773e-07 4.4869617e-07 2.0455708e-07 2.9005085e-07 4.28587e-07 3.7303326e-07 4.659595e-07 5.0115835e-07
7.207578e-07 5.3530607e-07 4.984019e-07 4.446984e-07 7.8698713e-07 3.983867e-07 6.711244e-07 4.6162364e-07
00000000: 3b79 a735 ebc9 0535 c039 0635 6218 1c35
00000010: ebc9 0535 73c8 0435 ebc9 0535 6bf8 1535
00000020: 7f7d ef34 4f80 d734 271e a535 ecfe 0b35
00000030: f30f 4b34 ca6c 0f35 1dbd 0035 ca75 ea34
00000040: ebc9 0535 d415 0135 a742 6735 4504 4135
00000050: 83d9 da34 01cb 0535 ebc9 0535 0608 5533
00000060: 1a14 0335 f6c0 1935 c460 1635 9caa af34
00000070: 6277 c534 0d97 fe34 9bcb 0635 2076 8c35
00000080: 6c37 4635 ebc9 0535 ebc9 0535 ebc9 0535
00000090: 1721 0335 9a3c e034 3177 3235 a8d1 0535
000000a0: 7ee0 e634 a597 0c35 1b7d 4b35 cee6 0535
000000b0: ea20 2334 476e 0135 69de e934 420b 0835
000000c0: a4f4 0235 55e4 f034 39a4 5b34 49b8 9b34
000000d0: 8c18 e634 4d45 c834 fc28 fa34 5787 0635
000000e0: 197a 4135 f4b1 0f35 ebc9 0535 e2be ee34
000000f0: 5841 5335 dae1 d534 5127 3435 12d5 f734

exp_avg f4 [64]
0.0015545019 0.0 3.3076336e-05 0.0018240017 0.0 -6.98204e-05 0.0 0.0010858247
-0.0004171148 -0.001399112 0.0016484166 0.00028163454 -0.0013589935 0.00021374834 -0.00015340323 -0.0007288153
0.0 -0.00022592185 0.0012876621 0.0007592172 -0.0004269284 -8.6173026e-07 0.0 -0.0043692808
-0.0001661468 0.00067899405 0.00020911946 -0.0017002136 -0.0010000579 -0.00040933487 0.00012785156 0.0019520726
0.00079997303 0.0 0.0 0.0 -0.0003155097 -0.00054606854 0.0008065019 -6.530399e-06
-0.0007316607 0.00018687472 0.0016102304 4.7821264e-05 -0.0009717325 -0.0002722266 -0.00028732524 0.0001259801
-6.95294e-05 -0.00047638 -0.0014868181 -0.0014932874 -0.0004830147 -0.0008455257 -0.00045774697 6.50337e-05
0.0008864829 0.0002592058 0.0 -0.00023796821 0.0024029969 -0.0010589032 0.00080981845 -0.00030333377
00000000: 6ec0 cb3a 0000 0000 72bb 0a38 5713 ef3a
00000010: 0000 0000 8b6c 92b8 0000 0000 3b52 8e3a
00000020: 33b0 dab9 6962 b7ba af0f d83a 59a8 9339
00000030: 4120 b2ba a221 6039 deda 20b9 f80d 3fba
00000040: 0000 0000 6fe5 6cb9 c5c6 a83a 3406 473a
00000050: 5cd5 dfb9 a751 67b5 0000 0000 2f2c 8fbb
00000060: b137 2eb9 85fe 313a 1447 5b39 b4d9 deba
00000070: 6014 83ba ff9b d6b9 e40f 0639 b0dc ff3a
00000080: 48b5 513a 0000 0000 0000 0000 0000 0000
00000090: ff6a a5b9 0a26 0fba 6d6b 533a b31f dbb6
000000a0: ebcc 3fba cdf3 4339 5e0e d33a b193 4838
000000b0: ddbb 7eba a3b9 8eb9 24a4 96b9 8719 0439
000000c0: 50d0 91b8 a4c2 f9b9 56e1 c2ba 69ba c3ba
000000d0: 233d fdb9 45a6 5dba c2fd efb9 b462 8838
000000e0: dc62 683a 03e6 8739 0000 0000 1b87 79b9
000000f0: 997b 1d3b e5ca 8aba ff49 543a c508 9fb9
