models/NVDA_v3.pth (torch, 91078 bytes, 33 tensors)

shared.0.weight f4 [64, 27]
00000000: 0b72 58bd 256c 2e3d ba44 23be f2c5 a1bc
00000010: d1d8 df3d 5ebc d93d 3306 a2bd 47b2 aa3d
00000020: 478d df3d c80d 1cbe 3a56 883d a165 183d
00000030: 7790 9d3d 8cab 6c3d 5c00 92bd a046 463c
00000040: b45d 05be 796a 92bd 50b0 693d 4d5b 403e
00000050: d864 153e 6f11 b73d 82f1 9fbd ff89 e73d
00000060: 615c 1f3e 5ca3 2f3e 8582 a23d 4bf1 2ebd
00000070: f68e 4fbc 07be cfbd 362f 33be 1eae 3c3e
00000080: a982 4abb 429e 14bd 663e 23be 63b5 c4bc
00000090: 2fa8 55bd 0aac 2c3e def5 ce3d ef79 d8bc
000000a0: 8f0b a3bd 0c3f 32be ba5f 0c3d 1245 3fbe
000000b0: f7e5 f9bd d810 483d 0f72 40be 0a47 2f3e
000000c0: 952a 06bd 98de cfbd 116f db3d fd94 803d
000000d0: f8d3 f6bd 2a12 183e e328 22be 30d6 403e
000000e0: e0bd c73d 4929 cbbd 5f40 353e 77e2 843d
000000f0: 9e00 3a3e 2e99 70bd f2e9 953d 2ad1 c6bd
00000100: 2ead b13c bdee d5bc ead1 22be ae4c 66bd
00000110: 8613 f23d 981d 06bd cde4 1c3e e421 04be
00000120: c25d 183e b26b f2bd 033a 953d 4a38 c73d
00000130: e753 1c3d ada7 28be 1235 1cbe 649e 9cbc
00000140: 53e6 423e 096d 17be 8b62 dd3d 3bab 68bd
00000150: 5acc 683d 6704 bdbc 9f41 3fbd 930c 2abe
00000160: d2f7 df3d 4d9c aebd b8ce 223e 16e9 843d
00000170: db9f af3d 6787 913c e43d 9cbd 86c8 6d3d
00000180: e55e ce3d 989a b8bd 4c0c 0fbe 0968 bd3d
00000190: 0dd5 03bd a836 513d 5f2c 1abe b5f6 2cbe
000001a0: ae8f 91bd 113d e2bc c42e 27be 9d02 bd3d
000001b0: fac0 173e 9bcc 4c3d 8327 dd3d ae63 313e
000001c0: 7999 bbbd 7895 24be c091 073d d3ca 263e
000001d0: 5d7a 98bd 54ea 2c3e 0453 85bd 4b7a 003d
000001e0: 90d5 3dbe ea4a fdbd 20c5 9d3d 3a47 3a3e
000001f0: 1c22 1e3d 8813 81bd 18be ba3d b29e 363d
00000200: 6ae1 dfbd 15a6 af3c 1cb4 f7bd 7c47 2bbd
00000210: 7161 9e3d 4bca 253e 326c 41be a57a 223e
00000220: 2632 083e 7e65 db3d 9286 e23d 11b3 43bc
00000230: 06e5 dfbd b881 a9bd 14b5 76bb ba71 25bd
00000240: dbeb e83d 0182 203c 697f 423e 6269 2cbe
00000250: 3f14 db3d f5a5 66bc c17a 433e 05b6 30be
00000260: c86b 93bd d6c0 223d 529b 19be ec10 b33d
00000270: cd91 d73d da7a fe3d 5034 243e e8d0 c7bd
00000280: 38e0 18be cc5a 2cbe 4878 bdbd d196 eb3c
00000290: 3c68 b6bd b1bb 653d 8680 8d3c adc1 8dbc
000002a0: f573 473d 7180 24bd a11f ff3c 0cc0 0d3e
000002b0: a92b b5bd d029 15bd 5fbb 0cbe 0fbc 15be
000002c0: c066 44bd 01e5 9fbd 3678 dc3c 5663 f5bd
000002d0: a32e 04be 7f11 853d 134b 963d 1f98 24be
000002e0: 9df2 3cbe 189f d83d db0c 39be 08f1 073e
000002f0: 4e1f 73bd 8d3d 00be 075d 41be fa5a 1b3e
00000300: 56ac 7fbd 8685 283e 7b39 a33c 8316 183e
00000310: a788 a5bd 0f76 05be c663 e3bd 9385 31be
00000320: 5bd8 b53d 077e 093e 85b7 1e3e 0c99 e03d
00000330: d549 2a3e 0c37 3c3e 52d4 37bb b261 253c
00000340: 3e2f 13be 9d88 6fbd 155c ae3d 735f 93bc
00000350: 9a10 883d 6ef4 b03d 0a86 8f3d 0606 173e
00000360: dc81 86bd c4eb 0abb 88a4 64bd d220 373e
00000370: 94bf ea3d 669d b5bd 99f4 be3d ab85 a9bd
00000380: 24eb 1b3e 311e babd b8eb b73d 998c 443d
00000390: c6ff eebb 3159 0ebe 1b8e 7ebd 4dcb 143e
000003a0: 78f9 293e 723f 353c 447d 0abe b919 1f3e
000003b0: e565 ffbd 23a6 06be 0c41 95ba a0f9 5abd
000003c0: 7f84 3d3c bbdb b9bd 2a02 76bd 7d2f 773d
000003d0: 73cd 1dbe f896 383e a7ad e53d 097f 6ebc
000003e0: a6e5 a0bc fd47 2abe 124c ca3d 67b8 c73d
000003f0: 3dcc 453d fdec 01be 3eaa b1bd 981f 6a3d
-0.052843135 0.042583603 -0.15944186 -0.019747708 0.10930026 0.10631631 -0.07911339 0.08334785
0.109156184 -0.15239632 0.066570714 0.037206296 0.0769357 0.057780787 -0.07128975 0.012101799
-0.13024026 -0.07149214 0.05705291 0.18784828 0.1458925 0.08938872 -0.07809736 0.113056175
0.15562584 0.1715216 0.07935051 -0.042710584 -0.012668362 -0.10143667 -0.17498478 0.18425795
-0.0030900633 -0.03628374 -0.15941772 -0.024012273 -0.052162345 0.16862503 0.10105489 -0.02642533
-0.07961189 -0.17406863 0.03427098 -0.18678692 -0.122020654 0.04884419 -0.1879351 0.17116943
-0.032755453 -0.10149878 0.107145436 0.06278417 -0.120521486 0.14850679 -0.1583591 0.18831706
0.09753013 -0.09919984 0.17700337 0.06488507 0.18164298 -0.058739834 0.07320012 -0.09707864
0.021689024 -0.026114816 -0.15900388 -0.05622547 0.1182013 -0.032743067 0.15321656 -0.12903553
0.14879516 -0.118369475 0.072864555 0.09727533 0.038165953 -0.16470213 -0.1525462 -0.019118495
0.19033174 -0.14787687 0.10809811 -0.056803923 0.05683551 -0.023073388 -0.04669344 -0.16606359
0.1093594 -0.08525906 0.1589917 0.0648977 0.08575412 0.01776476 -0.07628992 0.058052562
0.100766934 -0.090138614 -0.13969535 0.09248359 -0.032185603 0.051077515 -0.15055989 -0.16890986
-0.07107483 -0.02761701 -0.16326433 0.09229014 0.14819708 0.049999814 0.10798552 0.17323181
-0.09160132 -0.16072643 0.033097982 0.16288309 -0.07445214 0.16886264 -0.065099746 0.031366628
-0.18538499 -0.12367804 0.07703614 0.18191233 0.038606748 -0.063025534 0.09118289 0.044584937
-0.10931666 0.021441499 -0.120949 -0.04181622 0.07733429 0.1619045 -0.1888893 0.15867098
0.1330038 0.107127175 0.110608235 -0.011944548 -0.10932355 -0.08276695 -0.0037644552 -0.04039166
0.11373111 0.00979662 0.18993916 -0.16837075 0.10697221 -0.014077653 0.19089796 -0.17256935
-0.07198292 0.039734684 -0.15000656 0.08743462 0.10525856 0.12425776 0.1603558 -0.097566426
-0.14929283 -0.16831511 -0.092514575 0.028758438 -0.089066 0.0560872 0.017273199 -0.017304266
0.04869457 -0.040161554 0.031143012 0.13842791 -0.08846218 -0.03641683 -0.13743351 -0.1462252
-0.047949553 -0.07807351 0.02691279 -0.119818375 -0.12908415 0.06497478 0.07338538 -0.16073655
-0.18451925 0.1057722 -0.1807131 0.1327554 -0.059356026 -0.1252348 -0.18883143 0.15171424
-0.06242021 0.16457185 0.01992487 0.14852338 -0.08082705 -0.13033317 -0.11103015 -0.17336111
0.08879157 0.13426982 0.15499695 0.109666914 0.16629727 0.18380374 -0.0028050137 0.010094093
-0.1437349 -0.058479894 0.08513657 -0.01798985 0.066437915 0.08640371 0.07007988 0.14748392
-0.065677375 -0.0021197656 -0.05582097 0.17883614 0.11462322 -0.08867912 0.09323997 -0.08277448
0.15226418 -0.0908779 0.08980507 0.047985647 -0.007293674 -0.13901211 -0.06214724 0.14530678
0.16599071 0.01106249 -0.13524348 0.15537156 -0.12470607 -0.13149314 -0.0011387183 -0.053460717
0.011567234 -0.090751134 -0.060060658 0.060348023 -0.15410404 0.1802634 0.11214762 -0.014556655
-0.019640755 -0.16629024 0.098777905 0.09751969 0.04829048 -0.1268806 -0.08675049 0.057159036

shared.0.bias f4 [64]
00000000: 3fb1 6cbd 5f11 813d f0c9 cabd e937 123e
00000010: fbeb 073e 9401 1cbe 67b6 d73d 860e d9bd
00000020: 8a96 393e e1d1 35be f157 9d3d 4983 7bbb
00000030: 31a4 4f3d cb77 083d 7c63 debd 0567 1a3e
00000040: 2a66 f2bd 9cef 7ebd 1566 5bbd caa5 b93d
00000050: 6b77 263e 8a50 ddbd 9ad3 b23d 2d74 f73b
00000060: 0334 0bbe ffb8 9d3c c6ef 0b3d bafd 483d
00000070: cfc9 c23d 7f36 afbd 11a9 b33d e82e 36be
00000080: ef97 b7bd 7ec0 2abe 60c1 b53d ea94 8a3c
00000090: 1092 2f3c 14f1 82bd 15f3 ae3d 1052 403e
000000a0: be86 c3bb 44ce 42be 57fd 1c3c 4a05 393d
000000b0: a4bd c1bd 6d38 063e 4484 09be f898 473d
000000c0: 0ca6 12bd da6f c63c 3b92 133d 6140 87bd
000000d0: 2fe1 333e 5c77 cb3d 8cef b7bd f8c2 4a3c
000000e0: bcaf 2fbd 4591 2bbe 6538 e5bd c29f 30bd
000000f0: 8631 b83d d6dc adbd c4a3 0cbe e3b9 903c
-0.057786223 0.063021414 -0.09901798 0.1427914 0.13273613 -0.15234977 0.10532837 -0.10598473
0.18123832 -0.17755844 0.07682789 -0.0038377813 0.050693695 0.03331737 -0.10858819 0.15078361
-0.118358925 -0.062240228 -0.05356415 0.09064825 0.16256492 -0.10806377 0.08731766 0.007551691
-0.1359406 0.019253252 0.034164213 0.049070098 0.09511148 -0.08555316 0.08772481 -0.17791331
-0.08964526 -0.16674992 0.08874774 0.01691671 0.010715976 -0.06393638 0.08542458 0.18781304
-0.0059669903 -0.19023997 0.009581885 0.04517106 -0.09459999 0.13107462 -0.13429362 0.048729867
-0.035802886 0.024223257 0.036028128 -0.06604076 0.1756637 0.09934875 -0.08981237 0.012375586
-0.042892203 -0.16754635 -0.11192397 -0.043121107 0.08993821 -0.08489387 -0.13734347 0.017666763

shared.1.weight f4 [64]
00000000: 999d 7f3f e39d 7f3f b49d 7f3f 069e 7f3f
00000010: e29d 7f3f b19d 7f3f c49d 7f3f b29d 7f3f
00000020: e99d 7f3f b39d 7f3f 9f9d 7f3f b19d 7f3f
00000030: b39d 7f3f e99d 7f3f c49d 7f3f b89d 7f3f
00000040: b29d 7f3f b49d 7f3f a39d 7f3f c29d 7f3f
00000050: b69d 7f3f b39d 7f3f d59d 7f3f b99d 7f3f
00000060: b69d 7f3f 609e 7f3f b19d 7f3f 179e 7f3f
00000070: d49d 7f3f bf9d 7f3f 1e9e 7f3f b99d 7f3f
00000080: 989d 7f3f b19d 7f3f b39d 7f3f b69d 7f3f
00000090: b79d 7f3f b69d 7f3f ac9d 7f3f 8d9d 7f3f
000000a0: b39d 7f3f c39d 7f3f 919f 7f3f ce9d 7f3f
000000b0: bf9d 7f3f b79d 7f3f b39d 7f3f b19d 7f3f
000000c0: b59d 7f3f b39d 7f3f 9f9d 7f3f ae9d 7f3f
000000d0: 9c9d 7f3f 809d 7f3f b39d 7f3f ab9d 7f3f
000000e0: be9d 7f3f a89d 7f3f b89d 7f3f b69d 7f3f
000000f0: d49d 7f3f b59d 7f3f b79d 7f3f ad9d 7f3f
0.9984985 0.9985029 0.9985001 0.998505 0.99850285 0.99849993 0.99850106 0.9985
0.99850327 0.99850005 0.99849886 0.99849993 0.99850005 0.99850327 0.99850106 0.99850035
0.9985 0.9985001 0.9984991 0.99850094 0.9985002 0.99850005 0.9985021 0.9985004
0.9985002 0.99851036 0.99849993 0.998506 0.998502 0.99850076 0.9985064 0.9985004
0.99849844 0.99849993 0.99850005 0.9985002 0.9985003 0.9985002 0.99849963 0.9984978
0.99850005 0.998501 0.99852854 0.99850166 0.99850076 0.9985003 0.99850005 0.99849993
0.99850017 0.99850005 0.99849886 0.99849975 0.9984987 0.998497 0.99850005 0.9984996
0.9985007 0.9984994 0.99850035 0.9985002 0.998502 0.99850017 0.9985003 0.9984997

shared.1.bias f4 [64]
00000000: aba4 c4ba 7d84 c0ba 0aa8 bcba 0dbe bf3a
00000010: de2e 93ba df4e 43ba 452f bfba bf18 8c3a
00000020: f7b1 c43a 0000 0000 6803 c4ba 62f0 b63a
00000030: 6f64 b3ba 3f22 bd3a 1854 c03a f9b8 c43a
00000040: 0e05 adba 0414 c43a 9ae1 d138 fcf4 c3ba
00000050: e834 bdba 81a9 43ba be7f c3ba 4b9e b6ba
00000060: 6704 c23a e693 c33a 0547 b6ba 124d a6ba
00000070: 35ed ae39 f4dd c2ba cc6e c33a 71bb b7ba
00000080: ae97 c33a 7450 4bba 0aef be3a 30cb 74ba
00000090: fea1 bc3a 17fd 33b9 8ce2 c2ba 3aed c4ba
000000a0: 0000 0000 cfaa c03a 7221 c43a f01f c43a
000000b0: 64c9 c23a 1356 bb3a 0000 0000 f8bb c4ba
000000c0: 4a0d 9c3a fc82 923a a006 07ba 2294 c4ba
000000d0: 052d c43a fbb0 c13a c96b 403a b49f c23a
000000e0: c9f0 c2ba a8cc c3ba e13a c0ba 0f8b bb3a
000000f0: ecb7 c33a d983 a9ba c105 c2ba 8c0c ba3a
-0.0015002688 -0.0014687922 -0.0014393341 0.0014628783 -0.0011229177 -0.00074504124 -0.0014586231 0.0010688527
0.0015006651 0.0 -0.0014954628 0.0013957138 -0.0013686548 0.0014429762 0.0014673499 0.001500874
-0.0013200359 0.0014959578 0.00010007918 -0.001495033 -0.0014435323 -0.0007463918 -0.001491539 -0.0013932673
0.0014802337 0.0014921397 -0.0013906664 -0.0012687764 0.000333646 -0.0014867173 0.0014910339 -0.0014017654
0.0014922523 -0.0007755824 0.0014567089 -0.00093381386 0.0014391539 -0.00017165054 -0.0014868542 -0.0015024312
0.0 0.0014699342 0.0014963581 0.0014963131 0.0014861044 0.001429262 0.0 -0.0015009632
0.0011905816 0.0011177952 -0.00051508285 -0.001499776 0.001496703 0.0014777476 0.000734028 0.0014848621
-0.0014872785 -0.0014938312 -0.0014665985 0.001430841 0.0014932132 -0.001293297 -0.001480274 0.0014194413

shared.4.weight f4 [64, 64]
00000000: 3a4a 9f3d a059 eabd b076 61bd 3dd4 18bd
00000010: 40a8 813c b25f 0b3d 6d79 8d3d 840e f4bd
00000020: a896 f5bb 8516 b7bd 3e72 c4bd 2bd1 0f3d
00000030: f86e 883c 2a74 e93c e7ed 653d 9778 9cbd
00000040: fbe7 ef3d 5332 893d dc1a d6bd e494 6fbd
00000050: 3285 9ebc 421a 81bb e8b4 b53d a973 14bc
00000060: ea06 153d 7944 263d 8223 aa3d 98b2 5f3d
00000070: 98d9 003e d6ca 35bc 94f7 603d 944b c03c
00000080: 6c4b e53d 1199 c4bd 7b87 da3d b953 8b3c
00000090: 9409 bebc 365c 843c 7531 703d fd37 c13d
000000a0: 616e 36bb 3578 b53d 22ae 473d 89ae 33bd
000000b0: ef9c b83d 349e 2b3c 333f 31bd d340 3bbd
000000c0: 55ca f6bd 9299 9e3d 750f ab3d 15a4 e7bd
000000d0: db44 a8bd d6b3 d53d 290b e1bd aca7 9abd
000000e0: e596 823c 5ea5 92bd 1f80 d4bd ff37 a43d
000000f0: 2133 5a3d a52b bbbd 8063 e1bd 43c2 853c
00000100: 2dc8 e33d 5e70 cc3d 33e8 f73d 2f58 6bbc
00000110: 1cde 22bd 219f f2bd 0b53 03bd 1853 e83c
00000120: a26d 953d 8aaa b53a 302e 32bb 352f f63d
00000130: 358c 9d3d 83a2 28bc 48e3 973d 5369 f2bd
00000140: 59aa 663d 99d7 38bd 0474 bdbd 9733 edbd
00000150: dd64 dabb c47d 9dbb 3b88 96bd 054d 743b
00000160: 4ebe 06bc 29da 363d 4f23 81bd 08b8 e03d
00000170: e3f8 ab3d 5602 5e3d 31a2 543d dbef 9ebd
00000180: bcc4 08bd 8b6c 9a3d b0f1 babd 57ed 23bd
00000190: 1344 ffbc af9c 69bd 70d7 c0bc 4e41 5bbd
000001a0: 97e4 943d 1730 0fbc 136b b43d 8ae0 bebc
000001b0: 5a94 94bd 3d0f c03d 7378 88bc aa83 5bbd
000001c0: 1922 dcbd 1fb9 413d 7ecb a6bd bd08 eebc
000001d0: acf8 cfbd 7f9a 4dbd 1e99 55bc 60f3 ab3d
000001e0: 641f 9cbd 229c 2f3d 554f f2bd cb60 bf3c
000001f0: 7915 053b b8d0 fbbd 5e7f e73b 51a5 bd3d
00000200: 5f61 c0bd 09ae 50bd 67d6 283d a88f ccbd
00000210: f1bd ef3c c4dc 833b b5d3 8f3d 3467 89bd
00000220: d775 6d3d 7120 953d 73c8 81bc 7110 ea3c
00000230: a2e7 b83a c369 d33d 0e20 f73d df5a 7f3d
00000240: 1ac3 9a3d 09b2 9d3d d2d9 b13d e960 843d
00000250: b6ca b13d da18 a93d 08df 0838 7ad6 8a3d
00000260: 639a b5bd 6435 eb3d 50de e2bd 817c eb3d
00000270: 0667 763d 72c9 ebbd 2a72 74bd 25d5 f2bd
00000280: 088d bd3d 2b71 eb3c 9986 ab3d c94d a6bd
00000290: 5fd1 f03c 6ad0 3ebd 50d3 dabd d0de 33bc
000002a0: d14f 3cbd 54d1 97bd 217e 133d abf5 a43d
000002b0: ab01 ad3b 4cdf 8f3a 4e67 2db9 3c6e 1d3d
000002c0: 4e94 be3d 2c13 b53d cfcc fbbd a2cc bb3b
000002d0: 2953 a8bc 3fed 993d 0ca5 693d 9793 ecba
000002e0: 88de ce3d 43ca ad3c e693 aebd 0a4d 5a3d
000002f0: 7e13 d33c 5a54 c5bd 7ca7 dfbc 9b45 ec3d
00000300: 3de5 783d 8673 23bc 981c d3bd 1e13 3c3c
00000310: 562f ed3d 39f3 a63b 5f9c f6bd 9a6f 43bc
00000320: 8aa5 873d a7de a7bd 468e 5e3d d8a3 ab3b
00000330: d470 883c 8979 7f3d 2c2a 36bc 7075 35bd
00000340: 7f0e 91bc 42bf 86bd 8c80 223d 0e33 4ebd
00000350: 3b5e 17bd 5a99 aebd a411 db3d dcf1 b8bd
00000360: e0b4 1d3d 9b61 97bc fe4f 6bbd fe6c 753c
00000370: 0bae 9ebd 5de8 fcbd d64f 8b3d 8bac 73bd
00000380: a407 8a3c 0071 fabd 4c23 56bc fd40 60bd
00000390: 5ca7 803c db17 10bd e43e aabd 0ac8 f33d
000003a0: adc4 3cbd b59e 353c 5c47 b83d 3df5 00bd
000003b0: 1b52 f5bc c696 5dbc 416a 823d 3f1e e7bd
000003c0: 2cf3 dc3d 382b 6a3d 6690 22bd 044f 99bd
000003d0: 154d a23d 8e7a 91bd 486f b43d 21ce 7abc
000003e0: e3f1 57bc 42ba e43d 256e 1cbc 0303 973d
000003f0: 2398 dc3d e42d c93d 5e09 293c ba85 123c
0.077778295 -0.11442876 -0.05504483 -0.03731178 0.015827298 0.03402681 0.06907926 -0.11916831
-0.0074947663 -0.08939842 -0.095921025 0.035111587 0.016654477 0.028497774 0.056135084 -0.07640188
0.11714169 0.06699052 -0.10454342 -0.058491603 -0.019350622 -0.0039398978 0.08872396 -0.009060779
0.036383547 0.040592644 0.08307554 0.05461368 0.12583005 -0.011095723 0.05492361 0.023473538
0.11196026 -0.095995076 0.10670372 0.017007696 -0.023197927 0.01615725 0.058640916 0.09434507
-0.0027836787 0.08860818 0.04875005 -0.04386762 0.09014308 0.01047473 -0.043273162 -0.045716118
-0.120503105 0.07744135 0.083525576 -0.11310593 -0.08216258 0.104346916 -0.10988457 -0.07551512
0.015941093 -0.071604475 -0.10376 0.08018493 0.053271417 -0.09139184 -0.11005306 0.016327983
0.11122165 0.0998237 0.12104835 -0.014364286 -0.0397626 -0.11846758 -0.032061618 0.028359935
0.072963014 0.0013860029 -0.0027188174 0.12020723 0.07692758 -0.010292652 0.07416397 -0.11836495
0.0563148 -0.045127485 -0.09250644 -0.115821056 -0.006664856 -0.004806252 -0.07350203 0.0037277353
-0.008224083 0.044641647 -0.06305563 0.10972601 0.08397081 0.054201446 0.05191249 -0.077605926
-0.033390746 0.07540234 -0.091281295 -0.040021267 -0.03116039 -0.05703419 -0.023540229 -0.053529076
0.072701626 -0.008739493 0.08809485 -0.023300428 -0.07254858 0.093779065 -0.016658997 -0.05359236
-0.10748691 0.047295686 -0.08144282 -0.029056901 -0.10154852 -0.050196167 -0.013036994 0.083960295
-0.07623175 0.04287351 -0.11831538 0.023361584 0.0020306988 -0.12295669 0.007064744 0.09260047
-0.09393572 -0.050947223 0.041220095 -0.09988338 0.029265376 0.00402412 0.07022802 -0.067091376
0.05797371 0.07281578 -0.015842652 0.028572293 0.0014107118 0.10322907 0.12066661 0.06234252
0.07556744 0.07699973 0.08684124 0.06463797 0.08681242 0.08256693 3.263264e-05 0.067791894
-0.088673376 0.11484793 -0.11077559 0.114983566 0.060156845 -0.11513032 -0.059679188 -0.1185706
0.09255415 0.028740486 0.08375282 -0.08120305 0.02939671 -0.046585478 -0.10684836 -0.010978416
-0.045974556 -0.07412973 0.036008958 0.0805467 0.00527974 0.0010976582 -0.0001653705 0.038435206
0.093056306 0.08841547 -0.122949235 0.0057311812 -0.020547466 0.07515954 0.057042167 -0.0018049356
0.10101038 0.02121461 -0.08524303 0.053296126 0.02576613 -0.096352294 -0.027301542 0.11536714
0.060765494 -0.009976273 -0.10308188 0.011479167 0.11581294 0.0050949124 -0.12041544 -0.011928463
0.06623371 -0.081967644 0.0543349 0.0052380376 0.016655363 0.062371764 -0.011118453 -0.04430145
-0.017707108 -0.06579448 0.039673373 -0.05034166 -0.0369551 -0.08525343 0.10696724 -0.09030506
0.038502574 -0.01847916 -0.057449333 0.014979599 -0.0774804 -0.12349007 0.06802337 -0.05949072
0.016849346 -0.12228584 -0.013069939 -0.054749478 0.015704803 -0.035179 -0.08312777 0.11903389
-0.046086002 0.011085202 0.08997986 -0.031483877 -0.029946378 -0.013524717 0.063679226 -0.11285066
0.10788569 0.057170123 -0.03968849 -0.07485774 0.079248585 -0.071034536 0.08810288 -0.015307934
-0.013180229 0.11168338 -0.009547745 0.07373621 0.10771205 0.09823206 0.010317175 0.008943016

shared.4.bias f4 [64]
00000000: d04b d73d 353c cfbd 13bc b3bd 3488 c5bd
00000010: 8e92 ed3c c8c8 99bd c28d b73d 65bb f1bc
00000020: 2b76 d5bd 769b cabd b458 b83d 7f5e 77bd
00000030: 432c e9bc bbab 8d3d 20e5 833d 1dc4 db3d
00000040: aa4f ffbd 2308 b33c 878a fc3d d31b d03d
00000050: f32c aabd b226 95bd d6eb a93c 8ffc d7bd
00000060: 8951 edbd 3081 98bd d8c9 33bd 9fe1 b0bd
00000070: 9338 843d d8eb 35bd 3f11 aebc c87c cd3d
00000080: 5b38 923d fe33 01bd 4426 fcbc 2ce9 b6bb
00000090: 0911 fd3b 51dc 9fbd 19bb 8abd 7c45 803d
000000a0: 31ce f63d be7f ccbd dc07 67bd 0f79 cd3d
000000b0: 9e0b f33d b2c1 a0bc 8001 f2bd 4623 a63d
000000c0: 32c9 84bb adcd 09bd c791 fb3d f193 d53b
000000d0: 78d8 00be 80bb fd3d 64cb 19bd 8456 993b
000000e0: d185 343d ce8d a13b 7807 a8bd bdb2 5abd
000000f0: 79d8 7a3d d808 35bd c9ac 11bd ef50 b3bd
0.10512507 -0.101189055 -0.08776107 -0.09645119 0.029000547 -0.07508999 0.08962585 -0.029508302
-0.104229294 -0.09892933 0.09001294 -0.060392853 -0.028463488 0.069175206 0.064401865 0.10730765
-0.124663666 0.021854466 0.123311095 0.10161557 -0.08309355 -0.07282771 0.020742338 -0.105462186
-0.11587817 -0.074465156 -0.043893665 -0.08636784 0.06456103 -0.04441437 -0.021248458 0.10033566
0.07139655 -0.031543724 -0.030779965 -0.0055819955 0.007722978 -0.07805694 -0.06773967 0.06263253
0.12051047 -0.099853024 -0.05640398 0.10032856 0.1186745 -0.019623611 -0.11816692 0.081121966
-0.0040523047 -0.033643413 0.12283664 0.00651788 -0.12582576 0.123892784 -0.037547484 0.004679503
0.04407293 0.0049302345 -0.082045496 -0.053393114 0.0612416 -0.044197887 -0.03556517 -0.08755671

shared.5.weight f4 [64]
00000000: 279e 7f3f bb9d 7f3f 2b9e 7f3f a59d 7f3f
00000010: af9d 7f3f 259e 7f3f 439e 7f3f b99d 7f3f
00000020: ad9d 7f3f c49d 7f3f 59a0 7f3f ab9d 7f3f
00000030: b99d 7f3f 129e 7f3f ab9d 7f3f 999d 7f3f
00000040: f39d 7f3f bf9d 7f3f b09d 7f3f ac9d 7f3f
00000050: bb9d 7f3f b39d 7f3f e19d 7f3f cd9d 7f3f
00000060: b19d 7f3f f59d 7f3f 3a9e 7f3f b29d 7f3f
00000070: d39d 7f3f b49d 7f3f b99d 7f3f d99d 7f3f
00000080: d19d 7f3f 359e 7f3f e59d 7f3f be9d 7f3f
00000090: b49d 7f3f ca9d 7f3f d29d 7f3f ef9d 7f3f
000000a0: df9d 7f3f c69d 7f3f b99d 7f3f b99d 7f3f
000000b0: bc9d 7f3f ae9d 7f3f 3d9f 7f3f ec9d 7f3f
000000c0: 969d 7f3f ae9d 7f3f bb9d 7f3f bd9d 7f3f
000000d0: aa9d 7f3f a49d 7f3f c29d 7f3f cd9d 7f3f
000000e0: ae9d 7f3f b99d 7f3f a79d 7f3f b59d 7f3f
000000f0: b49d 7f3f ce9d 7f3f ca9d 7f3f b39d 7f3f
0.99850696 0.9985005 0.9985072 0.9984992 0.9984998 0.99850684 0.99850863 0.9985004
0.9984997 0.99850106 0.99854046 0.9984996 0.9985004 0.9985057 0.9984996 0.9984985
0.99850386 0.99850076 0.9984999 0.99849963 0.9985005 0.99850005 0.9985028 0.9985016
0.99849993 0.998504 0.9985081 0.9985 0.99850196 0.9985001 0.9985004 0.9985023
0.99850184 0.9985078 0.998503 0.9985007 0.9985001 0.9985014 0.9985019 0.9985036
0.9985027 0.9985012 0.9985004 0.9985004 0.9985006 0.99849975 0.99852353 0.99850345
0.9984983 0.99849975 0.9985005 0.99850065 0.9984995 0.99849916 0.99850094 0.9985016
0.99849975 0.9985004 0.99849933 0.99850017 0.9985001 0.99850166 0.9985014 0.99850005

shared.5.bias f4 [64]
00000000: 029b c43a d401 c53a 6686 c43a f435 c43a
00000010: 5e28 c4ba 6054 c3ba 26f7 c33a 6b93 c13a
00000020: 36c3 b83a a1f0 c43a 9cfd c43a 6c14 c43a
00000030: 2ccb c43a 7c15 c4ba ca89 c4ba c030 c4ba
00000040: 940a c4ba 9469 b43a 52fc c3ba fdf1 c2ba
00000050: 5571 b9ba 0515 ac3a 8add c3ba 80c7 c03a
00000060: 5edb aa3a 54ff c2ba 8625 c53a b683 c1ba
00000070: 5583 c13a f693 b3ba 304a c13a bdbb c43a
00000080: afb7 c43a d826 c3ba 73c6 c43a 4c80 c4ba
00000090: 39b5 a03a dd56 c43a 625c c43a 4624 c3ba
000000a0: f6fa c2ba d342 c53a 5dd6 aaba 863c c33a
000000b0: 0ee3 c1ba c216 c2ba f0a2 c43a 9294 c33a
000000c0: 5ee1 c3ba 5b4c c03a 0cf5 c23a 22be c43a
000000d0: f771 c4ba 35f6 bc3a 05f8 c2ba d31b c23a
000000e0: 8e66 c43a 2f85 c4ba 9b61 bdba f1f4 6bba
000000f0: 468f c33a 80f1 c3ba e8e4 c13a 6dc0 803a
0.0014999809 0.0015030452 0.0014993667 0.0014969693 -0.0014965644 -0.0014902465 0.0014950975 0.0014768665
0.0014096263 0.0015025326 0.0015029195 0.00149597 0.0015014163 -0.0014960016 -0.0014994678 -0.0014968142
-0.0014956766 0.0013764375 -0.0014952517 -0.0014873144 -0.0014148155 0.0013128823 -0.0014943343 0.0014707893
0.0013035347 -0.0014877119 0.001504109 -0.0014763984 0.0014763871 -0.0013700712 0.0014746841 0.0015009564
0.0015008355 -0.0014888896 0.0015012756 -0.0014991849 0.001226104 0.00149795 0.0014981146 -0.001488813
-0.0014875818 0.0015049822 -0.0013033856 0.0014895357 -0.0014792399 -0.0014807808 0.0015002172 0.0014921597
-0.0014944484 0.0014671193 0.0014874055 0.0015010277 -0.0014987577 0.0014416637 -0.0014874941 0.0014809318
0.0014984177 -0.0014993305 -0.0014448644 -0.00090010377 0.0014920018 -0.0014949292 0.0014792951 0.0009822972

actor.0.weight f4 [3, 64]
00000000: d98a 6abc e5b7 c1bd c0f2 e03d 734b 8f3d
00000010: 6a07 ab3d be5c b73d 1bf5 d4bd f7d4 95bd
00000020: 6557 86bd 7c20 34bd e49f f9bc a24b ee3b
00000030: d2a7 ee3d 969e aa3d 5e5d c73d 81e0 73bb
00000040: cc98 31bd 28d0 f6bd a1dd c7bd 8573 773d
00000050: 7ee6 fb3d 2440 ad3d 66d4 a03d 485c e43d
00000060: 3e1c 9e3c 7621 fc3d 08f8 4dbd d736 d63d
00000070: 129f a1bd 2a6a ad3d b20e 67bc c80e e73d
00000080: 8417 f4bd b552 12bc 75a3 c93c 0ef8 bbbb
00000090: a2f0 343b f565 0abd 5c0a 8b3d 0a7b 0fbd
000000a0: e1d0 ae3d e4bd 543c 5623 ddbd 45eb b73d
000000b0: f187 b13d a72d af3c 02fa d13d 5468 11bd
000000c0: bc03 f83c 5588 523c d52f 2d3d 5ebe 7abd
000000d0: a9ed 7abc 8dce a43d 6f55 fabb 8b1b f33d
000000e0: fc09 b5bc a0f4 8fbd 27e1 8e3d 9ee0 d73d
000000f0: dc4f 7abd c33b 4cbb 9562 103d 6334 4e3d
00000100: 9a34 f3bd 1a97 f4ba 64b2 e23d 2b14 26bd
00000110: fbe6 cc3d fafc eabc 0a50 e7bc f329 dfbb
00000120: 64de d53d b061 9abd f457 823d 0955 9c3d
00000130: 9652 973c 3ad4 26bd bdff f03d 514b bc3d
00000140: 6e6a f53c cb3b 433d 9895 0cbd 3e83 b03d
00000150: 229a 01bd 7c9f 763d d043 e4bd f544 75bd
00000160: 66f3 e7bd 1ae5 703c 6d06 c03d 8fa1 883c
00000170: d091 48bb eb5b ba3c 11f0 7fbd 4091 afbd
00000180: 0437 eabb 2ba4 29bd 7a8d d0bc 2fe5 b3bd
00000190: 2c6b a53c aeb6 2e3d 4fda cb3d bdc3 eabd
000001a0: ced1 e93c 74af cc3d 3dd0 bbbc 5c12 b5bd
000001b0: 1c96 89bd 413f d3bd 5c45 67bd 8a8e a6bd
000001c0: 8f1d c93d 493f a1bd 7d27 9abd 90b0 b1bd
000001d0: 42f7 22bd 9d25 65bd 7c01 743c 2b1e 833c
000001e0: 6b87 83bd 8d53 96bc 4e5b 26bd 632f b53c
000001f0: d38e 5bbd adee 4e3d f00a fc3d 91e7 8a3d
00000200: 516e a1bd dd4c bb3d 6fa5 133d d79d 47bc
00000210: cf6d f1bd fea8 e43d c71b 5abd ba36 9bbc
00000220: 0d0c c3bc ba88 e3bd edd7 afbd f9a0 97bc
00000230: 1d26 9abd 2c58 8d3c 388d a53c 1786 513d
00000240: 7fe4 d1bc d3fb efbd 7dd0 bb3d 457c e33d
00000250: d0bb d43b 7210 dabd d3cb 27bc a060 c2bd
00000260: 72e5 6d3d 1746 11bd 3094 863d cd52 a73d
00000270: 13b8 8dbd 19b3 843d d8b2 0a3c af5e 2bbd
00000280: 66f2 b63d 5fd5 bebc 1b3f 053d 75d8 3d3c
00000290: dc91 603d a900 95bb 2060 85ba a55f e73d
000002a0: 4aac 02bd 1189 85bd e8bc c93b b5bb de3d
000002b0: ad5d ed3d 493c 98bc d68d e7bd 141f 733d
000002c0: d427 8dbd e716 e03c 49d6 993d 66c1 64bd
000002d0: e0cb d43d 1859 c5bd 8ea0 cbbd 9253 bf3d
000002e0: 742d 653d b8ed eb3d 8e99 fa3d bf5b 1abd
000002f0: 3397 9ebd 5347 d13d 2e6f b43c 57f8 ad3d
-0.01431533 -0.09458903 0.10983801 0.06996813 0.083510235 0.08953236 -0.10398313 -0.073160104
-0.06559638 -0.043976292 -0.03047175 0.0072721997 0.11653103 0.08331029 0.09734605 -0.0037212672
-0.04335861 -0.120514214 -0.09759069 0.060412902 0.12299822 0.084594995 0.07853012 0.11150414
0.019300576 0.1231107 -0.05028537 0.104596786 -0.078916684 0.08467515 -0.014102625 0.11282116
-0.11918548 -0.008930852 0.024614075 -0.0057363575 0.0027609249 -0.03378864 0.06789085 -0.03502945
0.08535934 0.012984727 -0.107977554 0.08980421 0.08668507 0.021384073 0.10252763 -0.035499886
0.030275218 0.012849887 0.042281944 -0.061216705 -0.015315452 0.08047209 -0.007639579 0.11870488
-0.022099487 -0.070290804 0.06976538 0.10540889 -0.061111316 -0.003116355 0.035250265 0.05034293
-0.11875267 -0.0018660754 0.110691816 -0.040546577 0.100049935 -0.028685082 -0.028236408 -0.0068104207
0.10442808 -0.07538164 0.06364432 0.07633407 0.018471997 -0.04072974 0.11767528 0.09194053
0.029957976 0.047664445 -0.03432235 0.086187825 -0.031641133 0.06021069 -0.11145747 -0.059880216
-0.113257214 0.01470306 0.093762256 0.0166786 -0.003060449 0.022748908 -0.062484805 -0.08572626
-0.0071476717 -0.04141633 -0.025458086 -0.08783948 0.020192705 0.042654686 0.099537484 -0.11463115
0.028542425 0.099944025 -0.022926444 -0.088413924 -0.06718084 -0.10314799 -0.05646263 -0.08132656
0.09820091 -0.07873399 -0.07527063 -0.08676255 -0.039786585 -0.055944074 0.014892932 0.016005596
-0.06422313 -0.018350387 -0.04061442 0.022117322 -0.053603005 0.050520588 0.12306774 0.06782449
-0.07882369 0.0914552 0.03604644 -0.012183628 -0.117885225 0.11165045 -0.053249147 -0.018946994
-0.023809457 -0.11110063 -0.085861064 -0.018509375 -0.07526801 0.017253958 0.02020894 0.05115327
-0.02562165 -0.117179535 0.09170625 0.11107687 0.0064921156 -0.10647668 -0.010241467 -0.09491086
0.058080144 -0.035467234 0.06571233 0.0817009 -0.06919875 0.06479473 0.008465491 -0.041838344
0.089329526 -0.023295103 0.032530885 0.011587252 0.054826602 -0.004547198 -0.0010175742 0.112975396
-0.03190259 -0.06520284 0.0061565526 0.10875646 0.11590133 -0.018583434 -0.1130635 0.05935581
-0.06892362 0.02735467 0.07511575 -0.0558485 0.103904486 -0.09636134 -0.09942733 0.09342112
0.05595155 0.11519951 0.122363195 -0.037685152 -0.07743683 0.10218682 0.02202567 0.08494633

actor.0.bias f4 [3]
00000000: b17d 9b3d 7bb8 133d 87ef 033d
0.07592333 0.036064606 0.032210853

critic.0.weight f4 [1, 64]
00000000: 2a49 b2bd cea8 80bd ae23 dabd 99db c3bc
00000010: 36ba 3b3d 4ce8 f13d c32a f4bd 2552 89bc
00000020: 02ab c1bd 82ad 7ebd f412 cdbd 3879 6cbd
00000030: 243b 37bd 9763 ed3d 4dbe 953c 36e3 af3d
00000040: 61fa ed3d 95e5 cfbd f770 483c df06 ab3d
00000050: 4157 f73d 2900 b3bd 77e2 bb3c 120b b5bd
00000060: a7b6 cebd e6da e73d 2683 38bd 294a 993c
00000070: b69b a9bd b9de 673a b566 d4bd 8b59 eebc
00000080: 40bc a9bd 5b77 d13d 7fae a3bd a5c2 c03d
00000090: b768 f9bd 6792 7ebd 8e4f bfbd 2444 923d
000000a0: 485e 793d 2fa5 93bc 6ddb de3d 58a2 92bc
000000b0: cccb 473c c435 d53d 5e9d debd 9e48 ddbd
000000c0: c061 493d 5e4a 81bd 8aa3 c8bb 9785 81bd
000000d0: 066e 9f3c b341 3fbd 7461 e93c 29eb a8bd
000000e0: 41d1 77bd bd11 cd3c 43fd 9f3d b839 ebba
000000f0: 49d2 30bd 573d b33d 4b58 72bd 20fb 91bd
-0.08705361 -0.06282197 -0.106513366 -0.023908423 0.04583188 0.11811885 -0.11922219 -0.016762802
-0.09456445 -0.06217719 -0.10013381 -0.05773279 -0.044734135 0.11591261 0.018279219 0.08588259
0.116200216 -0.10151211 0.012233964 0.0835092 0.12077189 -0.08740265 0.022935135 -0.08840002
-0.10093432 0.113210484 -0.045046948 0.01871212 -0.08281653 0.0008845139 -0.10371152 -0.029095432
-0.08287859 0.102278434 -0.07992267 0.094121255 -0.12178176 -0.06215134 -0.09341346 0.07141903
0.06088093 -0.018023102 0.10881696 -0.017899677 0.012194585 0.104106456 -0.10869859 -0.10804866
0.049165487 -0.063130125 -0.006123011 -0.06324308 0.019461643 -0.046693515 0.028488852 -0.08247978
-0.060502294 0.025032872 0.07811978 -0.0017946279 -0.043169294 0.08751934 -0.059166234 -0.071279764

exp_avg f4 [64, 27]
00000000: 5f80 66b9 e89b 3739 fe38 3eba 0308 40b9
00000010: f888 b139 0056 a839 bdf7 deb9 234d 4a39
00000020: a5af 9b39 3d48 56ba c9b5 6a3b 9945 1cb8
00000030: f76a 6139 3fb4 7b39 fc3c df38 8b6a b3b7
00000040: a47e 3eba 3a4d afba b049 463b 6af9 6c3a
00000050: 85e3 7a3b ce12 9339 af7b cdb9 ce54 9939
00000060: 7571 5e3a abde 7f3b d3bf 02b9 cffd 3ab9
00000070: 36da 65b7 e983 d5b9 0b95 3dba b4e8 433a
00000080: d80a 60b8 428f 63b9 2245 4dba f1d5 98b9
00000090: 1236 09ba 7c77 6f3b c95e b338 4641 b4b9
000000a0: 59b9 acb9 ca0e a5b9 04da 07b9 02e0 8cba
000000b0: 97fe 54bb be9c 163b 5137 2eba 3b4b 8a3b
000000c0: 678e 2eb9 bf34 09ba 4080 ee39 268e f539
000000d0: 4347 b33a f210 9cb8 d8e5 2aba d86f 533a
000000e0: 8a8e d539 624b e0b9 0f54 373a 0eac 8639
000000f0: 59aa 423a d111 78b9 161f 9b39 1a23 e9b9
00000100: cfce 8f3a 2d28 20b9 e1c8 34ba 8406 75b9
00000110: 7396 1e3a 200f 35b9 32ea 193a 0ea7 82ba
00000120: 2ecd f63a 0e36 f2b9 0888 b53a b7a8 e439
00000130: efef 1a39 092a 29ba 6f2a 13ba 7a13 453a
00000140: f3b1 283a 24a5 1fba c90f f539 b28e 33b9
00000150: 857e a539 e2a2 2bb8 0342 45b9 f215 36ba
00000160: f538 e939 6652 bab9 c5cf 2c3a 6fa3 b2ba
00000170: 4aa0 c639 0441 a138 7897 a5b9 7ea1 8638
00000180: f1a7 d839 a2cc c0b9 7a46 50ba 808d ddba
00000190: 9a0f 46b9 fae9 bdba 6fb9 16ba bb6c 2dba
000001a0: fc34 a1b9 81a2 59b9 dac5 22bb a397 2a3a
000001b0: 23fd 1f3a c526 3c39 ff7f ea39 1fc0 323a
000001c0: c437 d0b9 04bb 28ba 0766 2939 0bd3 383a
000001d0: 7e86 8db9 2814 413a 56a8 ab38 caed 1c39
000001e0: ab17 42ba deaa 05ba a17c b139 d700 4a3a
000001f0: 5bc3 5439 16ea 9db9 898a 27ba 3973 4339
00000200: dd3f 3cb9 d60e 9a38 a623 f0b9 97c1 c4b6
00000210: 717b b639 4d08 803a 9442 47ba 8e3b 2b3a
00000220: 098e 0d3a e850 d439 320c dd39 657e deb8
00000230: 92e8 06ba 8b24 d3b9 7171 b2b8 0a49 89b9
00000240: 45b2 bc39 ac66 c7b8 bf1a 343a 0c7c 44ba
00000250: 9877 e739 3700 56b8 30df 413a 61c9 56ba
00000260: f238 8cba 7709 f438 a490 22ba d21e 103a
00000270: 7bd0 ed39 ecf4 fc39 28f6 1d3a 53dd cfb9
00000280: 1ba7 80ba 061f 57ba 266d c8b9 aad0 e238
00000290: ee55 c1b9 3009 6739 aec7 af38 e347 9fb8
000002a0: 4517 4e39 33cc 39b9 d15d b938 3089 0b3a
000002b0: a81c 8e3a cdaa 4fb9 1788 1cba 3bdf 1dba
000002c0: a63e 48b8 25fd bbb9 c781 9d38 e5d5 2bba
000002d0: 5988 533a 8463 ab39 f783 e43a 108e 39ba
000002e0: f558 4dba e5e3 273a 8bfe 2cba ebf7 fd3a
000002f0: a58e bcb9 b056 07ba 1084 4eba dde5 1e3a
00000300: 838e 92b9 6bb2 293a ed17 5e38 d630 173a
00000310: 358e ccb9 5e51 21ba 3ce1 0cba eb97 79ba
00000320: 70af 9c39 3dc5 063a dc49 273a 8dc7 e539
00000330: 4885 273a 336b 313a 42e4 f9b9 358d 04b9
00000340: c1a5 1bba 341f a7b9 5a86 b239 7ce4 b6b8
00000350: 815c ed38 807a b939 79e0 b4b8 3aa7 0e3a
00000360: 67ce 8eb9 8278 35b8 f829 a1b9 2cfe 123a
00000370: cbd9 4b39 449a 3fba d280 76b8 3689 5cba
00000380: 3d7c bf38 e3f8 6cba ef50 f1bb 208b 2bb9
00000390: 4f0c 70b9 f120 16ba a352 77ba 79a2 e639
000003a0: b1fd 2039 de13 5fbb 87b8 65bb a992 c139
000003b0: 52fc c9bb b32a 1eba b05f 2db9 7ff0 09ba
000003c0: 83fd acb9 fa6e 16bc 45d9 26b9 2e5d 8339
000003d0: e7bc 27ba 600f 3f3a f306 e839 7228 c0b8
000003e0: dd69 f7b8 3ccd 3dba 24a1 bd39 1fcb b739
000003f0: e729 1539 2608 3cba d573 d4b9 1277 5c39
-0.00021982331 0.0001751032 -0.00072564173 -0.00018313531 0.0003386212 0.00032107532 -0.0004252772 0.00019292957
0.0002969477 -0.00081742165 0.0035813919 -3.7258116e-05 0.0002149752 0.00024004372 0.00010644828 -2.1388076e-05
-0.0007266796 -0.0013374456 0.0030256324 0.0009039851 0.0038282585 0.00028052035 -0.00039192798 0.00029245618
0.00084855343 0.0039042633 -0.00012469226 -0.00017832893 -1.370027e-05 -0.00040724807 -0.0007231987 0.0007473335
-5.341586e-05 -0.00021701775 -0.0007830431 -0.00029151098 -0.00052341924 0.0036539724 8.55304e-05 -0.00034380908
-0.0003294449 -0.0003148227 -0.0001295582 -0.0010747912 -0.003250038 0.002298161 -0.0006645816 0.004220394
-0.00016646982 -0.0005233995 0.0004549045 0.0004683595 0.0013677854 -7.441816e-05 -0.0006519235 0.0008065677
0.00040732726 -0.00042780774 0.00069934217 0.00025686662 0.00074258965 -0.0002365776 0.00029587065 -0.00044467376
0.0010971668 -0.00015273756 -0.00068963884 -0.00023367448 0.00060496404 -0.0001726714 0.00058713846 -0.0009967999
0.0018829459 -0.0004619811 0.0013849745 0.0004361325 0.00014775967 -0.0006453102 -0.0005613928 0.0007517856
0.0006435208 -0.00060899765 0.00046741802 -0.00017123928 0.00031565517 -4.0921273e-05 -0.00018811975 -0.0006946019
0.0004448366 -0.00035538076 0.00065922394 -0.0013629029 0.00037884928 7.689188e-05 -0.00031584105 6.419698e-05
0.00041323857 -0.00036773557 -0.0007945072 -0.0016903132 -0.00018888563 -0.0014489286 -0.00057496777 -0.00066156284
-0.0003074779 -0.0002075527 -0.0024837167 0.0006507581 0.0006103089 0.0001794352 0.00044727323 0.00068187894
-0.000397144 -0.0006436559 0.00016155104 0.0007050491 -0.0002699382 0.0007365369 8.1852704e-05 0.00014965903
-0.00074040395 -0.00050990086 0.00033852927 0.00077058136 0.00020290671 -0.0003011978 -0.0006391188 0.00018639573
-0.00017952868 7.346056e-05 -0.00045802927 -5.863792e-06 0.00034805716 0.0009768099 -0.00076011685 0.00065320067
0.0005399888 0.0004049607 0.0004216149 -0.00010609328 -0.000514635 -0.00040272283 -8.5088315e-05 -0.00026185095
0.00035990975 -9.5081836e-05 0.00068704406 -0.0007495291 0.00044148858 -5.1021776e-05 0.0007395623 -0.000819346
-0.0010698123 0.000116365896 -0.00062013627 0.00054977566 0.00045359493 0.00048247667 0.0006025755 -0.00039647016
-0.0009815426 -0.0008206222 -0.00038228295 0.000108153865 -0.0003687585 0.000220333 8.3818435e-05 -7.595101e-05
0.0001965436 -0.00017719045 8.838962e-05 0.0005322872 0.001084228 -0.00019804687 -0.00059712067 -0.00060223386
-4.774206e-05 -0.00035856027 7.510516e-05 -0.0006555005 0.00080693286 0.00032689807 0.0017434348 -0.0007078359
-0.0007833385 0.00064045034 -0.0006599209 0.0019376253 -0.00035964433 -0.0005162759 -0.0007877955 0.0006061474
-0.0002795347 0.0006473425 5.2951207e-05 0.000576747 -0.00039015865 -0.0006153787 -0.0005374139 -0.0009521234
0.0002988535 0.0005141085 0.00063815503 0.0004382696 0.0006390405 0.0006767988 -0.00047663046 -0.00012641105
-0.000593748 -0.0003187597 0.00034050905 -8.720995e-05 0.00011318271 0.0003537722 -8.62488e-05 0.0005441789
-0.00027238132 -4.3265994e-05 -0.00030739582 0.00056073326 0.00019440723 -0.0007309059 -5.8770944e-05 -0.000841278
9.130731e-05 -0.00090397726 -0.0073643844 -0.00016359659 -0.00022892769 -0.00057269546 -0.0009434616 0.0004399007
0.00015353296 -0.0034038941 -0.0035052614 0.000369211 -0.006164112 -0.00060335844 -0.00016534212 -0.0005261972
-0.00032995277 -0.009181732 -0.00015911933 0.0002505569 -0.0006398693 0.0007288363 0.00044255666 -9.162807e-05
-0.000117975964 -0.000724036 0.00036168948 0.00035055817 0.00014225357 -0.0007172845 -0.00040522093 0.00021025192

exp_avg_sq f4 [64, 27]
00000000: 3b17 c630 30d4 8a30 0f79 8632 f11f 9630
00000010: 5818 7631 debf 5731 355b c731 0874 bc30
00000020: 8c21 4d31 5850 b732 8eb2 ca34 e21b 1e30
00000030: 06da d230 3b29 ec30 6740 eb2f 9007 fd2f
00000040: aad9 9232 6866 c633 be7b 9734 22d9 d132
00000050: 6893 e834 2489 3431 6b71 9f31 fc68 c931
00000060: 037a b732 f69d f034 3b76 bb30 7470 8230
00000070: 3b54 262f 6ce5 b331 f557 8b32 d083 9132
00000080: aa80 1330 b65f 0431 55ae a132 f4d0 4b31
00000090: 5627 1432 00c1 e834 5de8 e02f 740a 7331
000000a0: ef47 5e31 94ba 6431 8e96 0930 2f0c 1633
000000b0: 6d3d af34 0e16 4634 009b 6232 e855 1335
000000c0: d48e 8130 cfa6 0d32 f51b 0b32 9452 e331
000000d0: 6c2a c833 1c83 8630 3c6f 5932 7c9d a532
000000e0: eb81 a931 e3a4 bb31 1067 7a32 7482 0f31
000000f0: 8e23 8e32 52a4 f630 1265 3e31 4cb8 cb31
00000100: be41 3233 8609 4730 6d60 7332 f6ce df30
00000110: 4c47 3e32 4c40 7530 9e55 3232 cb22 0733
00000120: 447b f333 f6f2 d831 d9ed 8533 d0f4 ca31
00000130: c0cb 3330 965e 8632 7e1e 2132 beae c732
00000140: 6c8e 5a32 04c1 3d32 6f79 e031 0bd2 8930
00000150: a8e2 4731 949b e22e b248 a130 4436 7532
00000160: 82fa cd31 4ea6 8531 9899 6032 8840 9233
00000170: da05 9631 e840 942f 1451 4c31 8078 982f
00000180: 0a6e b931 9a59 9131 cace 0f33 2ec5 d133
00000190: 2a85 9430 e2b5 8f33 4856 2d32 7bb9 5f32
000001a0: 80b6 aa31 508e b230 4880 5534 a448 5532
000001b0: 5892 3e32 341d 9230 f27a d131 12bc 7232
000001c0: 176f a531 8320 5332 7b3a ac30 1b52 8332
000001d0: 64fd 3031 9ba1 8f32 e3c8 5732 634c 8230
000001e0: aa3c 8c32 e30b 0532 a1e1 7831 7302 9932
000001f0: a4f3 e130 1a64 9a32 ec3a 9232 150c 8e30
00000200: d341 0132 c33d 1330 c861 d631 5981 9231
00000210: 22cc 7a31 10c5 4b33 e445 9732 7649 5a32
00000220: 32f9 1432 9c04 a831 6f26 b631 e4e9 b72f
00000230: b961 0632 419d a431 d481 8c2f a488 0c31
00000240: 1d30 8b31 d629 0d30 68ce 7532 3238 8f32
00000250: 2983 c731 480c e92e 9184 8c32 3be4 aa32
00000260: 439a 2033 2bf4 3d31 9500 4532 eae0 2732
00000270: 4d3a d231 ac53 f031 ed54 3b32 f1e3 a131
00000280: 6b0b f732 3b42 ab32 ec9d 9531 37b0 cb2f
00000290: 08f3 8931 ce31 dc30 b6f9 a22f a03f 722f
000002a0: 43ce a330 7822 8130 eb7e 9f2f 2617 1432
000002b0: d9ac 2733 eab0 9f30 dd4f 3632 6e90 3932
000002c0: 1892 022f 907a 8931 1e97 892f 28e4 af32
000002d0: fdea c632 dee0 5b31 2e64 c533 6926 8132
000002e0: db0c 9d32 b778 6932 770c 5f32 b716 ff33
000002f0: 4be9 8431 7064 0832 64da 9e32 9879 3b32
00000300: 42a2 2231 8ca9 5532 7802 cf2e b658 2932
00000310: a679 9e31 2a77 4332 7cd9 1632 dea4 f332
00000320: b8dd 3631 1ec2 0632 cc59 5032 94e3 c331
00000330: 944c 5032 404d 6932 914c 0832 7ee0 7a30
00000340: 2dc6 3432 c5d2 5d31 b1a3 6e31 9159 802f
00000350: 4b9f 4031 d19c 7f31 d2d7 b330 720e 1732
00000360: 79ff 1731 0e65 d82e 3d21 4731 5423 2232
00000370: 48c4 bb30 acb5 8e32 75e8 2f30 4bc5 be32
00000380: 4c08 3c30 9509 dc32 a5ff d835 c652 a330
00000390: db25 f130 9fd0 2732 54ad e332 9d3d d031
000003a0: 2397 d330 79da c734 fcfb d134 54d8 8c31
000003b0: 3dba 9635 6a0b 3c32 a1e1 7e30 d54c 8232
000003c0: a318 5f31 4821 2936 af49 b730 5da3 0031
000003d0: 389f 5132 e4c1 8732 a017 c831 de97 8a2f
000003e0: d6f6 e42f 7dff 8532 2839 8631 9168 7c31
000003f0: 29ac 2730 1db7 8332 81bb a731 82d5 b530
1.4412999e-09 1.0101129e-09 1.5654704e-08 1.0923015e-09 3.581155e-09 3.1395682e-09 5.8020313e-09 1.3711778e-09
2.9850495e-09 2.134054e-08 3.7755348e-07 5.751969e-10 1.5341477e-09 1.7182978e-09 4.2792012e-10 4.6025805e-10
1.709562e-08 9.238721e-08 2.8215976e-07 2.4429543e-08 4.332062e-07 2.6271403e-09 4.640403e-09 5.8618053e-09
2.1359488e-08 4.4818415e-07 1.3639644e-09 9.490706e-10 1.5127537e-10 5.235668e-09 1.6221728e-08 1.6940163e-08
5.366113e-10 1.9262933e-09 1.8822144e-08 2.9659164e-09 8.623678e-09 4.3353793e-07 4.0910467e-10 3.5367096e-09
3.2346141e-09 3.3284424e-09 5.005426e-10 3.4935677e-08 3.2640983e-07 1.844821e-07 1.3190174e-08 5.488678e-07
9.42658e-10 8.245208e-09 8.097222e-09 6.6159576e-09 9.320942e-08 9.787047e-10 1.2656354e-08 1.9280144e-08
4.9333173e-09 5.4611617e-09 1.4575349e-08 2.0883393e-09 1.6547144e-08 1.7945558e-09 2.770609e-09 5.9290297e-09
4.1503647e-08 7.240931e-10 1.4166386e-08 1.6284207e-09 1.1075667e-08 8.922185e-10 1.0380431e-08 3.146378e-08
1.1337991e-07 6.314049e-09 6.2365594e-08 5.9068057e-09 6.5409367e-10 1.5642666e-08 9.3783665e-09 2.3246113e-08
1.2721653e-08 1.1045135e-08 6.5330634e-09 1.002776e-09 2.908715e-09 1.03049264e-10 1.1734953e-09 1.42732155e-08
5.9947647e-09 3.889716e-09 1.3073439e-08 6.810393e-08 4.36624e-09 2.6967162e-10 2.9731995e-09 2.773426e-10
5.3967186e-09 4.230242e-09 3.3482856e-08 9.768188e-08 1.0806265e-09 6.692041e-08 1.0089543e-08 1.3022482e-08
4.968399e-09 1.2991652e-09 1.9883839e-07 1.2414748e-08 1.109273e-08 1.0631198e-09 6.096678e-09 1.4129016e-08
4.8147615e-09 1.2289209e-08 1.2531268e-09 1.5287744e-08 2.5755407e-09 1.672088e-08 1.25603234e-08 9.480455e-10
1.6325732e-08 7.744322e-09 3.6217005e-09 1.7812658e-08 1.6440151e-09 1.797348e-08 1.7023432e-08 1.0335294e-09
7.523755e-09 5.3566057e-10 6.239336e-09 4.2638644e-09 3.6495824e-09 4.7443848e-08 1.7610496e-08 1.2705973e-08
8.671394e-09 4.8899675e-09 5.3012665e-09 3.3453695e-10 7.822046e-09 4.790906e-09 2.55581e-10 2.0450353e-09
4.0509023e-09 5.1354954e-10 1.4307808e-08 1.6672946e-08 5.8065734e-09 1.0597795e-10 1.635843e-08 1.9894392e-08
3.7393203e-08 2.7641913e-09 1.14670415e-08 9.771819e-09 6.1184324e-09 6.9944317e-09 1.09041425e-08 4.7116306e-09
2.8759777e-08 1.9937138e-08 4.3544244e-09 3.7050693e-10 4.0148542e-09 1.6021262e-09 2.964506e-10 2.2032376e-10
1.1918434e-09 9.395782e-10 2.9012112e-10 8.619997e-09 3.903992e-08 1.1619055e-09 1.0611953e-08 1.0801257e-08
1.1875334e-10 4.0011585e-09 2.502753e-10 2.0476435e-08 2.3157094e-08 3.1996517e-09 9.19175e-08 1.5035043e-08
1.8283052e-08 1.3589832e-08 1.2983143e-08 1.18784946e-07 3.868228e-09 7.939079e-09 1.8492933e-08 1.091248e-08
2.3666336e-09 1.2436782e-08 9.413709e-11 9.857265e-09 4.612235e-09 1.1377589e-08 8.780599e-09 2.8363896e-08
2.6610518e-09 7.843964e-09 1.2127611e-08 5.7011196e-09 1.2124605e-08 1.357995e-08 7.933651e-09 9.126849e-10
1.0522439e-08 3.2279541e-09 3.4726606e-09 2.3346705e-10 2.8030225e-09 3.7196524e-09 1.3085304e-09 8.792641e-09
2.2118611e-09 9.840494e-11 2.8977205e-09 9.437674e-09 1.3661827e-09 1.661359e-08 6.399497e-10 2.220863e-08
6.840579e-10 2.5615728e-08 1.6167656e-06 1.1883337e-09 1.7545817e-09 9.768114e-09 2.6505099e-08 6.0606014e-09
1.5395226e-09 3.7225598e-07 3.9112626e-07 4.09913e-09 1.1230073e-06 1.09456355e-08 9.27253e-10 1.5168931e-08
3.2464775e-09 2.5202335e-06 1.3335945e-09 1.8719313e-09 1.2201603e-08 1.580424e-08 5.823452e-09 2.5209962e-10
4.1648346e-10 1.559942e-08 3.906411e-09 3.6730265e-09 6.09989e-10 1.5333677e-08 4.8816564e-09 1.3230166e-09

exp_avg f4 [64]
00000000: e60d df3b 52cb e33b 4a85 cc3a 1a2f 29bb
00000010: 1851 993a 5682 0eba 2a96 613b e581 30ba
00000020: dbaa 53bc 5da1 77ba 3bbe 693c 3855 a1ba
00000030: 41ba 6f3a 6984 3cbb 3f56 99bb c640 15bc
00000040: de43 0aba 57cf 29bb bc0f 09b9 cf20 303c
00000050: abc8 0e3b 5580 29ba 70d8 613c fcc7 803a
00000060: e4c7 17bb d9da e1bb b736 2c3b 44e1 423b
00000070: 2035 90b9 202a b33b d963 e6bb d7cf 9638
00000080: 090d 15bc 18ac 8bba 01c7 a6ba f93f ca3a
00000090: 1ce3 b0ba f654 0fb9 043a 6f3b f859 7a3c
000000a0: fc3b 70b9 225a 35bb e3f6 2bbc ae64 42bc
000000b0: c2d9 95bb 3abc 89b9 f560 45ba b59c ce3b
000000c0: 7365 cbb9 6677 20b9 31b5 5d3a 782e 1e3c
000000d0: d296 12bc 5423 61bb e719 34ba f907 41bb
000000e0: cffc 933b 3b6e 773a a74b 0d3b 4017 0bbb
000000f0: ea75 f6ba 2dab ceb7 5410 bd3a d0c0 a0ba
0.0068070767 0.006951728 0.0015603688 -0.0025815428 0.0011697141 -0.00054362917 0.003442178 -0.0006733223
-0.012919153 -0.0009446347 0.014266546 -0.0012308722 0.00091448805 -0.0028765446 -0.004679471 -0.0091096815
-0.0005274395 -0.0025910938 -0.000130712 0.01075001 0.0021787088 -0.00064659613 0.013784513 0.0009825225
-0.0023159916 -0.0068925438 0.002627773 0.002973632 -0.00027505402 0.005467668 -0.0070309457 7.1912706e-05
-0.009097346 -0.0010656146 -0.0012724103 0.0015430442 -0.0013495418 -0.00013669193 0.0036503086 0.015280239
-0.0002291053 -0.0027672132 -0.010495874 -0.011864824 -0.004573078 -0.00026270916 -0.00075294013 0.006305302
-0.00038794763 -0.00015303268 0.00084574806 0.009654634 -0.008947091 -0.0034353333 -0.0006870315 -0.0029454215
0.004516221 0.0009438728 0.0021559985 -0.0021223575 -0.0018803452 -2.4636824e-05 0.0014424422 -0.0012264494

exp_avg_sq f4 [64]
00000000: 2cd3 b735 53a3 ce35 a29d ce33 ba14 7834
00000010: b957 a733 675d 6332 11e8 c434 1af0 8432
00000020: ccb9 a636 ce9d e532 35ca cd36 0442 6633
00000030: b6ea ea32 5e3d 8a34 15d1 3135 4ef6 2436
00000040: 0fb6 1732 eb5f 5734 8ec9 c731 457a 6936
00000050: a484 2334 1ee1 5932 f27c c136 e543 1d33
00000060: 4da7 2d34 b18c c035 ae6b 8d34 2696 af34
00000070: dab0 0733 7b05 7a35 5562 c935 71ce 1032
00000080: d3b8 2736 dbed 1133 402a 7133 0880 0534
00000090: de04 7e33 6b00 2933 b43c de34 1e4b e736
000000a0: 0e28 ed30 5628 8234 dd6c 6236 431d 9036
000000b0: 57b4 2b35 87ed cb31 5af7 9232 bc30 9c35
000000c0: b889 a231 0453 4e30 2a56 3733 84aa 3a36
000000d0: 16c1 2036 59d6 c934 0024 7932 9083 8d34
000000e0: 866f 2b35 a47d fb32 6d7c 1d34 a15c 1634
000000f0: fd50 eb33 e6a7 c831 f369 8e33 1770 6733
1.3696022e-06 1.539573e-06 9.621296e-08 2.310434e-07 7.7925e-08 1.3234376e-08 3.6676695e-07 1.5476008e-08
4.968815e-06 2.673087e-08 6.133016e-06 5.361109e-08 2.734792e-08 2.5749154e-07 6.624189e-07 2.4581273e-06
8.830752e-09 2.005833e-07 5.8145764e-09 3.4790876e-06 1.5228812e-07 1.2682248e-08 5.7663938e-06 3.661616e-08
1.6172744e-07 1.4346061e-06 2.6341644e-07 3.2705537e-07 3.1592982e-08 9.314023e-07 1.5004285e-06 8.4288425e-09
2.499252e-06 3.397677e-08 5.615061e-08 1.2433168e-07 5.914341e-08 3.934876e-08 4.139489e-07 6.8930813e-06
1.7255404e-09 2.4243735e-07 3.373999e-06 4.294941e-06 6.3964893e-07 5.9350813e-09 1.710912e-08 1.1637089e-06
4.7304773e-09 7.5060336e-10 4.2686374e-08 2.7815413e-06 2.3954249e-06 3.7595126e-07 1.4501893e-08 2.635902e-07
6.386475e-07 2.927738e-08 1.466703e-07 1.4003537e-07 1.0957772e-07 5.839854e-09 6.631662e-08 5.3885824e-08

exp_avg f4 [64]
00000000: 34c5 aa3b 07fc b93b 4ee6 883b 0c69 693b
00000010: c849 883b 8924 863b a4e4 913b 9ebb 853b
00000020: 0172 253b 6b19 863b 50c6 c73b f0ea 823b
00000030: 5a93 873b 39f1 6e3b e15e 783b 81bf 5d3b
00000040: 5d57 863b 6dd6 813b 5bb0 853b 95b6 bc3b
00000050: eb73 8e3b ab1a 863b 0c2b a03b a8fc 873b
00000060: 46e1 843b be22 313b bce6 903b 8f9c 9d3b
00000070: 5ede 883b 60fc 913b 3976 073b 45b0 873b
00000080: 562c 433b b623 863b c543 823b 2604 8a3b
00000090: 1af6 843b f3ec 783b f3f2 8f3b da5a 1b3c
000000a0: 6b19 863b 8032 803b 4c97 063b 62e0 bd3a
000000b0: d357 7f3b d967 863b 6b19 863b 54bf 8e3b
000000c0: 6eed 853b fe0c 863b d369 893b 88b6 963b
000000d0: e050 353b b247 563b e5f9 853b 6ba3 723b
000000e0: c648 963b d53c 8c3b 3503 8f3b 0972 843b
000000f0: 3cf9 613b 7431 873b 4257 883b 151b 7f3b
0.0052114967 0.005675796 0.004177845 0.0035615591 0.004159186 0.004093711 0.004452305 0.0040812036
0.0025244954 0.0040923855 0.0060966387 0.003995292 0.0041374387 0.0036459698 0.003789835 0.003383607
0.00409977 0.003962329 0.004079861 0.00575907 0.0043473146 0.0040925345 0.004887944 0.004149992
0.004055175 0.0027028765 0.004422037 0.004809923 0.004176899 0.0044551343 0.0020669831 0.004140886
0.0029781065 0.0040936125 0.003975364 0.0042119203 0.004057658 0.003798303 0.0043929755 0.00948211
0.0040923855 0.00391227 0.0020536957 0.0014486427 0.003896226 0.004101735 0.0040923855 0.004356304
0.0040871417 0.0040909043 0.0041935234 0.004599396 0.0027666613 0.0032696542 0.0040886276 0.0037023674
0.004586312 0.0042797127 0.004364396 0.0040419144 0.003448083 0.0041257683 0.0041607926 0.0038926054

exp_avg_sq f4 [64]
00000000: fde0 5735 b50e 8135 086d 0b35 24ef cc34
00000010: a573 0b35 add3 0535 048b 1e35 280a 0535
00000020: 5d4f 4d34 ebc9 0535 e15b 9435 3b2e ff34
00000030: 0ea1 0835 8442 d734 d487 e634 ae25 b734
00000040: 3c43 0635 1e0a fb34 48bc 0435 cbca 8435
00000050: b2fc 1635 4dcc 0535 6eca 3f35 57b2 0935
00000060: a476 0335 be30 6c34 a177 1c35 2af2 3935
00000070: 768e 0c35 aa16 1f35 6186 0934 0638 0935
00000080: b5fb 8d34 14de 0535 ab5c fc34 5d7a 0d35
00000090: 92ab 0335 a205 e734 708f 1a35 64b4 3236
000000a0: ebc9 0535 e37e f434 2e17 0e34 2ac4 8433
000000b0: 2bf8 f234 0963 0635 ebc9 0535 5862 1735
000000c0: 9770 0535 42b4 0535 1f13 0c35 16d3 2835
000000d0: 504d 7434 9a51 a934 4a8e 0535 fdef da34
000000e0: af33 2835 53e6 1135 f692 1835 8cb0 0235
000000f0: d886 bf34 1108 0835 dd7a 0a35 1650 f234
8.042114e-07 9.615529e-07 5.1940196e-07 3.817196e-07 5.194982e-07 4.985439e-07 5.906188e-07 4.956114e-07
1.9120985e-07 4.984019e-07 1.10536e-06 4.7531088e-07 5.0898313e-07 4.0095267e-07 4.2939666e-07 3.4113822e-07
5.001673e-07 4.6759754e-07 4.944782e-07 9.893787e-07 5.6247075e-07 4.984366e-07 7.144762e-07 5.1295996e-07
4.897395e-07 2.1996945e-07 5.828861e-07 6.9270266e-07 5.236137e-07 5.9265096e-07 1.2808006e-07 5.1118e-07
2.6446438e-07 4.986953e-07 4.7006083e-07 5.2704655e-07 4.905097e-07 4.30312e-07 5.75782e-07 2.6629068e-06
4.984019e-07 4.5540864e-07 1.3233213e-07 6.182411e-08 4.5256579e-07 5.0063005e-07 4.984019e-07 5.639499e-07
4.97102e-07 4.980867e-07 5.218189e-07 6.289205e-07 2.2752397e-07 3.1538076e-07 4.975342e-07 4.078028e-07
6.2660087e-07 5.4351875e-07 5.683827e-07 4.8685683e-07 3.5674634e-07 5.0675686e-07 5.1587796e-07 4.5134283e-07

exp_avg f4 [64]
00000000: 2684 a33a 899e 993a 6539 db39 3f83 0eba
00000010: 1d2f 1539 e584 4c38 217d 153a 7520 9ab7
00000020: bfde 1ebb 0000 0000 4ec9 2b3b 97a1 1cb9
00000030: 1f41 3e39 c29f f9b9 a5e5 37ba 0913 d4ba
00000040: ff35 0c38 6696 bdb9 5ad4 3138 d098 003b
00000050: 4220 9c39 c52c 32b5 6ffa 1d3b 8b96 6939
00000060: 2cbc 8db9 873b a1ba 1ddd e039 6f69 093a
00000070: d2b9 96b8 02e3 8f3a 3180 aeba 0fdc 4339
00000080: 219b c2ba 24a8 fcb7 2a3f 78b9 2f30 9739
00000090: 5878 51b9 7bd3 0b39 495e 333a d3a9 2c3b
000000a0: 0000 0000 564f c1b9 f6a2 f3ba 06bf 08bb
000000b0: 3b60 2cba de5e f6b8 0000 0000 c1a3 953a
000000c0: 681c 3cb7 83e7 aab6 3b39 2d39 20cc f63a
000000d0: 454e ddba ae39 20ba 672c 88b7 fd74 0dba
000000e0: 4e13 7b3a 39c7 b139 db96 023a 76a6 9ab9
000000f0: 5a80 d0b9 23d7 b838 460a e539 9844 50b9
0.0012475296 0.0011720221 0.00041813697 -0.00054364273 0.00014227298 4.8761158e-05 0.00057025446 -1.8373345e-05
-0.0024241654 0.0 0.0026212516 -0.00014937516 0.00018144072 -0.0004761201 -0.00070151157 -0.0016179989
3.342889e-05 -0.00036160945 4.2397856e-05 0.0019622333 0.00029778673 -6.6375316e-07 0.002410557 0.00022276693
-0.00027033815 -0.0012301066 0.00042889352 0.0005241846 -7.187169e-05 0.0010977688 -0.001331335 0.00018678627
-0.0014847257 -3.0119038e-05 -0.00023674653 0.00028836864 -0.00019976625 0.00013334856 0.00068423577 0.002634634
0.0 -0.00036870938 -0.0018587995 -0.0020865812 -0.0006575619 -0.000117478645 0.0 0.00114166
-1.1212287e-05 -5.0933463e-06 0.00016519886 0.0018829145 -0.0016884288 -0.00061121106 -1.623314e-05 -0.0005396156
0.0009577767 0.00033908503 0.00049815857 -0.00029497192 -0.0003976848 8.813876e-05 0.00043685938 -0.00019861979
