models/TSLA.pth (torch, 84074 bytes, 33 tensors)

shared.0.weight f4 [64, 20]
000000 b6 07 9a a5 8a 7a 07 b9 f3 b6 53 3b 4b 81 82 3b
       -2.6719967e-16 -0.00012920253 0.003230509 0.003982698
000010 94 78 39 ba 6f a4 94 bb c7 90 38 b9 7d a9 93 bc
       -0.00070751575 -0.0045362036 -0.00017601541 -0.018025154
000020 0a 75 38 bc 6b ce 16 bd eb d9 f7 3d bd 6a 9f 3a
       -0.011258373 -0.03681795 0.121021114 0.0012162548
000030 62 d0 07 bb 41 57 ce 06 64 ac 40 bb c9 9e a3 bb
       -0.002072357 7.7616796e-35 -0.0029399628 -0.004993294
000040 6c 5c c2 3a dd ad f2 38 de 03 5e 3c ff f1 fc 3b
       0.0014828569 0.00011571844 0.013550727 0.007719278
000050 e6 c7 d1 37 15 51 9f bb ee dd 3f bc de 87 60 bc
       2.5007826e-05 -0.0048619607 -0.011710627 -0.013704268
000060 b6 79 89 bc 59 46 65 bc 61 86 9e bc 93 53 d6 bc
       -0.01678167 -0.013993823 -0.019351186 -0.026162898
000070 7d 68 59 bc 21 7f 93 bc b0 d9 a1 3c 76 0f 14 bd
       -0.013269541 -0.018004956 0.019757122 -0.036147557
000080 4d 7d 07 bc 8c 64 a2 35 b0 7d 94 3b 6b e4 d5 3b
       -0.00826962 1.2099204e-06 0.0045315847 0.0065274737
000090 d2 9a a6 bc e8 70 02 bc 0b 2d dd 3c d9 72 0b bc
       -0.020337496 -0.007961489 0.026999017 -0.0085112685
0000a0 1a cc 21 84 f2 bc 09 bb f2 e5 b9 3b 89 de e8 3b
       -1.9019178e-36 -0.0021017161 0.0056731636 0.0071066064
0000b0 4a a6 8e 3c 8e c6 4c 3c 5d 3b a4 3c 0c b5 73 3c
       0.017413277 0.012498511 0.020047838 0.014874708
0000c0 2a 7e db 3c 0c f9 c8 3b 06 6b e0 bc ed c0 e3 3c
       0.026793558 0.0061332043 -0.027394783 0.027801955
0000d0 d6 d4 e6 3b ca bf 73 3a a2 4e bd 3b a3 6b f7 bb
       0.007044415 0.0009298293 0.005777196 -0.007550673
0000e0 aa d9 8d 3b 22 9b 3e bd ad cb 0a 3e ec bb 94 3d
       0.004328926 -0.046534665 0.13554259 0.07262406
0000f0 60 12 b5 0f 77 05 8c ba 3f 58 6a 39 77 ef 06 3b
       1.7855056e-29 -0.0010682781 0.00022348853 0.002058951
000100 4b d7 99 3a 72 f6 c9 ba 5e 1e 00 3b a4 c2 d9 3a
       0.0011737136 -0.001540853 0.001954935 0.0016613794
000110 c8 06 ab 3a 25 94 15 3b 8d 75 8f 3c 96 43 d4 b8
       0.0013048286 0.0022823897 0.017512107 -0.000101215366
000120 7f 0b 81 3a 4c 5d 25 39 19 b7 4b 39 94 02 90 3a
       0.0009845345 0.00015770382 0.00019427798 0.0010987096
000130 ee e5 1b 3b 8a e4 8b bc d6 48 a8 3d 81 8d 9b bc
       0.0023788172 -0.01707675 0.08217017 -0.018988373
000140 fd 53 ed b4 7e 1d 1a bc aa 82 7b bc 36 0f cf bc
       -4.42058e-07 -0.009406446 -0.015350977 -0.025275808
000150 39 05 08 bd 7e 95 02 bd 2e 18 c6 bc 77 3b be bc
       -0.033208106 -0.031880848 -0.024181452 -0.023221714
000160 f9 f9 77 bc 58 59 d5 3a e1 ba e9 3d 54 bd 14 bd
       -0.015135282 0.0016277237 0.114125974 -0.03631337
000170 6c a2 86 bc c3 5b a6 19 43 21 31 bd bc 3e 83 3b
       -0.01643487 1.720106e-23 -0.04324461 0.0040052813
000180 1d 12 29 bd 51 df 94 3d 68 47 25 bd a7 d8 b6 bd
       -0.04127704 0.07269157 -0.0403513 -0.08928042
000190 7c 69 d7 39 ac 79 93 3a b0 d7 67 3a d4 14 3e 3c
       0.00041086588 0.0011251471 0.00088440906 0.0116016455
0001a0 17 50 ee 3b 8b c7 b0 3c 23 4a f9 3c d7 74 e0 3b
       0.007272731 0.021579525 0.030430859 0.006849866
0001b0 3c d0 a2 3b e0 5f b9 ba 0d 26 a8 3d 1a 3d 8e 3c
       0.004968671 -0.0014142953 0.082103826 0.01736312
0001c0 80 f7 5e 37 f7 7d 00 8a 16 a9 d9 3b 55 31 b8 bc
       1.3289857e-05 -6.186667e-33 0.006642471 -0.02248446
0001d0 4a a9 c5 3b 09 cf bf bd 3c 48 01 3e b4 8f fe 3d
       0.0060321437 -0.09365661 0.12625211 0.12429753
0001e0 21 ae a4 b5 bc f9 75 3b 17 99 12 3c ab 65 de 3b
       -1.226963e-06 0.0037532886 0.008947632 0.006787022
0001f0 cf 9c a0 3c 58 30 0c 3d 05 1f 78 3c 90 bc 25 3d
       0.019606022 0.03422579 0.015144114 0.04046303
000200 df 77 79 bc 22 de 7d 3d 4d 1d 15 bb 63 09 17 3d
       -0.015226333 0.06197942 -0.002275306 0.036874186
000210 7a 91 f2 3b 7b 0d 58 98 7f e2 14 3d e9 fd 00 3c
       0.007402596 -2.7924152e-24 0.036348816 0.007873037
000220 78 0d 5e 3c 58 85 df bd 74 09 77 bc 64 d7 81 3d
       0.013553016 -0.10914105 -0.015077937 0.063399106
000230 ba f7 01 bb 23 e3 3a bc 5a 8d 85 bc ce 37 a9 bc
       -0.0019831494 -0.011406693 -0.016302753 -0.020656493
000240 79 09 c8 bc 5d 7e 94 bc 7d 3d 72 bc 35 6f 8b bc
       -0.02441858 -0.018126661 -0.014785168 -0.017020801
000250 8b ea 61 bc da b7 26 bc 65 8f c8 3d 05 1b c9 bc
       -0.01378883 -0.01017567 0.09792975 -0.024549017
000260 13 06 96 bc c6 92 0e b8 80 95 3c bd 1e d3 b7 bb
       -0.018313443 -3.399213e-05 -0.04604101 -0.005609884
000270 a0 9b 61 bc 6d f8 d5 3d 48 c1 a5 3c 39 78 0c be
       -0.013770014 0.10447774 0.020233765 -0.13717736
000280 72 35 54 39 d6 77 27 bb 84 bf 43 3b 66 9b 16 3b
       0.00020237805 -0.0025553606 0.002986879 0.0022980808
000290 1f d1 14 3c ca 85 6b 3b 41 19 91 3b 57 d9 82 3b
       0.0090830615 0.0035937899 0.0044280593 0.003993194
0002a0 e0 44 9c 3b bf 72 85 3b 85 7d 4f 3b 58 84 52 3b
       0.0047689527 0.0040725167 0.0031660509 0.003212234
0002b0 4e e8 cc 3a de f9 ce b8 f9 8a 99 bb ed f1 f9 3b
       0.0015633197 -9.869387e-05 -0.0046857563 0.0076277168
0002c0 6b 39 d1 3b 88 fb a1 bd 8d e3 bb 3d 83 36 bc bc
       0.0063850186 -0.07909304 0.09174261 -0.022975212
0002d0 6a 3b 5b 39 b8 a0 e8 39 43 7c 0e 3b c0 04 a3 bb
       0.00020907601 0.00044370233 0.0021741546 -0.0049749315
0002e0 8b bb 5d ba 9b 22 0c bc a1 b4 d1 bb f4 74 bc bb
       -0.0008458427 -0.008553172 -0.0063997065 -0.0057512466
0002f0 c2 1d e3 bb 30 8a dc bb 91 ba d7 bc 8f f3 25 bc
       -0.0069310376 -0.0067303404 -0.026334079 -0.01012887
000300 3b 45 1b bc c3 83 7b 21 53 e9 67 bc 32 51 f7 bb
       -0.009476955 8.5216493e-19 -0.01415475 -0.007547521
000310 6e 92 d2 bb e7 2e ad 3d 73 88 3e 3c 2d 57 9c bd
       -0.006426147 0.084562115 0.011629212 -0.07633815
000320 b5 44 04 0b 87 94 cb bc 92 ac 28 bd f3 1d 2f bd
       2.5473965e-32 -0.024851097 -0.0411802 -0.04275317
000330 00 a9 4b bd db bd 74 bd f6 05 65 bd af ca e7 bc
       -0.049721718 -0.059751373 -0.055913888 -0.02829489
000340 25 69 69 bc 35 f2 e9 bc 81 83 3f 3c 81 84 a3 bd
       -0.01424626 -0.028557876 0.011689068 -0.079842575
000350 ec 02 c7 bc 28 80 86 ba 5d 66 34 bc 94 56 94 3c
       -0.024293385 -0.0010261582 -0.011010733 0.01810769
000360 d7 94 e6 bc 3e bb 80 3d e1 7e 1b bd 8d a7 4a be
       -0.028147144 0.062857136 -0.037962798 -0.19790478
000370 02 48 25 87 8b ee a4 b9 38 d5 38 3b 28 24 22 bb
       -1.2434382e-34 -0.00031458246 0.002820326 -0.002474079
000380 66 fa 1d 3c 5c 26 60 3c d9 34 6e 3c 3e 04 55 3c
       0.009642219 0.013681021 0.014538967 0.0130015
000390 dd a3 3a 3c 1c 19 08 3c e9 26 57 bd 41 76 94 3c
       0.011391607 0.008306768 -0.052527342 0.018122794
0003a0 dd 30 dc 3b 6e b1 87 bb e2 ff 43 3c ee e2 2c b9
       0.006719692 -0.0041410243 0.011962863 -0.00016487736
0003b0 66 e4 99 3b 40 16 57 bd ee 21 da 3d a1 55 07 3d
       0.0046964167 -0.052511454 0.10651003 0.033040646
0003c0 ed a1 62 85 bf bd e6 3a de e6 17 3a ec 76 79 bb
       -1.065621e-35 0.0017604156 0.0005794595 -0.0038065268
0003d0 93 f3 4b b9 3f 54 10 bb cc 20 10 39 e6 af 3e 3b
       -0.00019450327 -0.002202287 0.00013745128 0.0029096543
0003e0 52 4d 12 3b e1 fd 5b 3b 4e 0d f6 39 71 68 d7 ba
       0.0022323919 0.0033568072 0.0004693069 -0.0016434324
0003f0 cc b3 4a b9 01 35 c6 b5 9d ae 9e 3b af 04 66 3b
       -0.00019331201 -1.4767576e-06 0.004842593 0.0035098006

shared.0.bias f4 [64]
000000 a0 8b d4 3c 29 37 9e 3d 8e e2 3f 3c 0e 5b 64 bd
       0.025945485 0.07725365 0.01171173 -0.0557509
000010 13 36 ea ba 17 58 98 bc b8 79 34 3e a1 67 e0 bd
       -0.0017868899 -0.018596692 0.17624557 -0.10957266
000020 f4 bc 89 bd 3c 94 1b bb 3e 98 bf 3d 3e ee 59 3d
       -0.06725493 -0.0023739478 0.0935521 0.05320572
000030 11 29 0f bd 3f 93 07 bd 00 77 01 bc 13 5d 05 bd
       -0.034951273 -0.03309941 -0.007901907 -0.032559466
000040 b0 cd 31 bd 70 2a 0b 3c 7a d2 10 3e c3 21 af bc
       -0.04340905 0.008494005 0.1414279 -0.021378404
000050 68 f3 5f bd c3 56 8b 3a 26 3c 33 3e 3b 25 8a 3d
       -0.05467549 0.0010630715 0.17503414 0.067453824
000060 74 63 2f 3d 0b 97 42 3c 28 44 90 bc aa 5d b5 3d
       0.042819455 0.011876832 -0.017610624 0.088557556
000070 66 16 85 3d 6a 42 c4 bc d8 62 5e 3d aa 62 4b bd
       0.06498413 -0.02395745 0.054293483 -0.04965464
000080 93 6b 4a 3c 99 46 dc bc a5 38 2d 3e 17 dc 93 3d
       0.012354749 -0.026889132 0.1691614 0.07219713
000090 0a e8 4e 3d 88 0d 18 bc 91 23 f9 bc 7e 49 59 3d
       0.05051426 -0.00928057 -0.030412467 0.053048603
0000a0 6c 72 92 3d 27 63 d3 3d df 53 0b bc 84 24 93 3d
       0.071507305 0.10321646 -0.008503883 0.07184699
0000b0 2a 25 71 3d 2e fe e7 ba 04 47 0f bc c6 56 e3 3d
       0.058873333 -0.0017699653 -0.008744959 0.11100535
0000c0 0d 31 a9 bc 0b 5d e7 bc 5a 17 8f bd 2d 90 06 3e
       -0.020653272 -0.028242609 -0.06986876 0.13140936
0000d0 57 81 fd bc 78 51 a0 bd 30 2e a8 bc fb c5 fa 3d
       -0.030945463 -0.07828039 -0.020529836 0.12244793
0000e0 61 8b c3 3d 44 52 f4 3c dd 7d 67 3d 5e 98 1a 3e
       0.09548069 0.029824384 0.056516517 0.15097186
0000f0 c1 4a 78 bc 28 29 07 3e 63 35 29 3e d3 8b 03 bd
       -0.0151545415 0.13199294 0.16524272 -0.03211577

shared.1.weight f4 [64]
000000 e5 04 18 3f 05 88 19 3f 47 9c 18 3f a4 11 18 3f
       0.5938247 0.59973174 0.5961346 0.5940192
000010 51 17 1f 3f 0f 6d 1b 3f 22 53 1f 3f f9 12 1a 3f
       0.62144953 0.60713285 0.62236226 0.601852
000020 e4 de 17 3f 85 49 18 3f 1e 68 1e 3f b8 62 1b 3f
       0.5932448 0.5948718 0.6187762 0.6069751
000030 b3 46 18 3f b0 46 18 3f b0 46 18 3f a9 46 18 3f
       0.5948288 0.5948286 0.5948286 0.5948282
000040 b1 27 19 3f 00 77 18 3f af 99 1a 3f 6b 74 17 3f
       0.5982619 0.5955658 0.6039075 0.59162015
000050 1f 49 18 3f c1 d1 19 3f b0 2c 1c 3f c1 d6 29 3f
       0.59486574 0.60085684 0.6100569 0.66343313
000060 d0 18 1a 3f e4 df 19 3f b2 52 1f 3f b0 ae 18 3f
       0.6019411 0.60107255 0.6223556 0.5964155
000070 08 d0 18 3f c4 3e 18 3f da 39 1a 3f 71 ba 19 3f
       0.5969243 0.5947077 0.60244524 0.6005011
000080 3c 5d 18 3f ba 46 18 3f 5a 4d 1d 3f cb 24 1c 3f
       0.59517264 0.5948292 0.61446154 0.6099364
000090 7e b3 1b 3f ee 8a 19 3f b3 46 18 3f e0 7b 18 3f
       0.6082076 0.59977615 0.5948288 0.5956402
0000a0 af b2 19 3f d1 03 18 3f b7 79 18 3f 93 d6 16 3f
       0.60038275 0.59380823 0.5956072 0.58921164
0000b0 19 dd 16 3f b4 17 1e 3f a3 5f 18 3f e7 6b 19 3f
       0.5893112 0.6175492 0.5952093 0.5993027
0000c0 0e 27 18 3f 2c 46 18 3f 20 dc 19 3f 43 53 21 3f
       0.5943459 0.59482074 0.6010151 0.6301767
0000d0 96 46 18 3f cb fe 17 3f 53 40 18 3f 5a 4c 33 3f
       0.59482706 0.5937316 0.5947315 0.7003838
0000e0 36 e1 18 3f 47 5b 17 3f 0f c3 1d 3f 16 bd 1a 3f
       0.59718645 0.59123653 0.6162576 0.6044477
0000f0 4e 47 18 3f 06 2a 1c 3f 28 88 1d 3f b3 46 18 3f
       0.594838 0.6100162 0.6153588 0.5948288

shared.1.bias f4 [64]
000000 73 d3 95 bb 0a af de bb 17 6a 19 3c f9 52 e7 ba
       -0.004572326 -0.0067957686 0.009363673 -0.0017648629
000010 71 c4 f8 bb de 73 75 3c e8 5a 06 bb 3a 4b c1 b9
       -0.007591777 0.014981238 -0.0020500962 -0.00036867877
000020 ed 51 da 3a 69 24 54 3b 8d 37 50 3b 76 66 6d ba
       0.0016656496 0.0032370335 0.0031771392 -0.00090561004
000030 00 00 00 00 cc 2a df 80 70 ae 4e 01 61 b4 8f 86
       0.0 -2.0494668e-38 3.7961377e-38 -5.4055664e-35
000040 77 d8 6e 3c 30 32 2f ba 52 e6 86 3c 54 dc d1 39
       0.014577976 -0.0006683199 0.016467247 0.00040027744
000050 09 fb 77 35 91 9b 4e bb 16 40 c8 3b b0 5e a6 bc
       9.2379975e-07 -0.003152583 0.0061111553 -0.020308822
000060 79 a6 ef ba 83 9e 38 bb 21 f7 6c 3a fb c6 1d 3c
       -0.0018283866 -0.0028170652 0.00090395106 0.00962996
000070 cf 83 11 bb 03 7a 84 32 f1 83 f0 39 1f 32 a9 3b
       -0.0022203808 1.5422307e-08 0.0004587467 0.0051634456
000080 05 87 0e ba d4 94 df 01 b5 fa 95 3c fb 6a e0 bb
       -0.00054369896 8.213082e-38 0.018308023 -0.0068486906
000090 81 f7 2a bb 85 68 1c bb 00 00 00 00 9e af 24 bb
       -0.0026087465 -0.002386601 0.0 -0.002512909
0000a0 46 5e cb 3b ff bc a5 bb 29 e2 91 bb f0 56 74 bb
       0.0062063066 -0.0050579305 -0.004452009 -0.0037283264
0000b0 29 15 3c 3a 2d c8 aa 3c 57 04 03 37 02 08 44 3b
       0.0007174784 0.020847404 7.809219e-06 0.0029912
0000c0 34 e4 9a ba b1 b1 14 32 94 b3 aa 3c 3d 39 3f bc
       -0.0011817277 8.655136e-09 0.020837583 -0.0116713615
0000d0 59 02 98 02 20 75 08 ba fd 6a 56 b2 cc ab 21 bd
       2.233574e-37 -0.0005205441 -1.2480766e-08 -0.03947048
0000e0 14 72 b5 3b 0b f0 62 bb 54 ed 3c 3a dc a4 03 bc
       0.005537281 -0.003462794 0.00072069955 -0.008034911
0000f0 c3 7c 27 91 2e 63 46 bc e3 cd a3 3a 00 00 00 00
       -1.3212422e-28 -0.012108607 0.0012497272 0.0

shared.4.weight f4 [64, 64]
000000 e1 45 49 bc 42 02 6a bb 8a 05 66 bb 3d 3e 89 b9
       -0.012284727 -0.0035706912 -0.0035098516 -0.00026177047
000010 cd 89 12 3c e0 35 25 3a 20 de 22 bd 21 08 47 3c
       0.008943987 0.00063022785 -0.039762616 0.012147934
000020 c0 5c f4 39 3a cb 05 ba 2c 99 5a bc 4e 82 44 bc
       0.0004660841 -0.00051038305 -0.013342183 -0.011993958
000030 e7 cb 6c 02 17 c9 0f b1 94 f8 96 82 c3 2b 70 04
       1.7397059e-37 -2.0923545e-09 -2.2183196e-37 2.8231959e-36
000040 d2 63 b6 3a 44 9c 8f 39 49 e0 87 bc e6 c4 d4 3b
       0.0013915247 0.00027391512 -0.01658644 0.0064931987
000050 45 53 88 36 06 d7 34 3a a1 6c 43 bb b5 fc 8f bc
       4.0628097e-06 0.0006898496 -0.0029819387 -0.017576555
000060 57 4b 8e ba d2 8e 93 39 df 7b 23 bc 4f b1 8c bb
       -0.0010856193 0.00028144434 -0.009978264 -0.004293598
000070 0a 97 08 bc 04 15 9a 33 5c 99 ee bb e7 40 8a 3b
       -0.008336792 7.1750065e-08 -0.0072814655 0.0042191627
000080 98 5b 86 ba f2 73 b1 04 5b ec a2 bc 02 4f c0 bb
       -0.0010250686 4.171898e-36 -0.019888094 -0.0058687935
000090 7e 5e 28 bc 8c 54 c1 39 13 db da 36 1d 90 7c bb
       -0.010276435 0.0003687482 6.52241e-06 -0.0038538047
0000a0 ae df 75 bc cc 3c ad bc 59 a6 21 3c 39 c7 a4 bb
       -0.015006943 -0.021147154 0.0098663205 -0.005028632
0000b0 a2 93 02 3b 62 af 20 3b 50 8c 7b b8 65 a6 61 bc
       0.0019924422 0.0024518599 -5.997374e-05 -0.013772582
0000c0 39 ff 96 3a 38 a1 1f 36 07 56 33 3b f6 ba 89 bc
       0.0011520154 2.3786688e-06 0.0027364509 -0.016812783
0000d0 2d 9e 4b b3 af 56 0a 38 a4 ef af 31 74 4e a5 bb
       -4.740848e-08 3.2982494e-05 5.1204143e-09 -0.0050447527
0000e0 9d 44 35 bc 55 6c e3 39 18 46 08 bb f5 a0 ea bb
       -0.011063722 0.00043377528 -0.0020793732 -0.007160301
0000f0 04 3a d2 b4 b2 79 32 bc 96 9d 9e bc 5c bd 40 b6
       -3.915776e-07 -0.010893272 -0.019362252 -2.8720451e-06
000100 46 09 40 3d 27 71 87 3d 47 ba 02 3c 9a e8 b3 3b
       0.046883844 0.06613379 0.007978982 0.0054903748
000110 ff 24 5b 3d e2 2e 8a bc f6 b1 98 bd 36 a6 1e 3d
       0.05350208 -0.016868059 -0.07455818 0.03873273
000120 0c 4a a4 bb ed b9 07 3c 8c b0 37 ba f5 fe 71 3c
       -0.00501371 0.008284074 -0.00070072035 0.014770259
000130 ae 35 b9 13 28 d3 03 82 15 d1 86 a2 bf b1 e9 06
       4.6753498e-27 -9.684959e-38 -3.6542147e-18 8.7906033e-35
000140 e2 44 00 3d 6f 25 2c 3a ca 7e 45 bd 6a da b4 3a
       0.03131569 0.00065668573 -0.04821662 0.0013798003
000150 9a 00 77 3b 97 15 7a bb 63 78 83 3c 2e b7 84 3c
       0.0037689568 -0.0038159841 0.016048616 0.016200628
000160 0b e0 9a bc b7 d2 05 3c 9e 78 87 bd 4b 9b d2 bc
       -0.01890566 0.008167914 -0.06614803 -0.025708815
000170 b9 5c 7f bc 05 aa 89 b5 30 52 c1 3c e6 87 f9 3c
       -0.015586072 -1.0256778e-06 0.02359876 0.03046031
000180 36 b1 98 bc 81 0a 19 8c cb 85 7a bd ca 1c 02 3d
       -0.018639188 -1.1789852e-31 -0.06116275 0.031765737
000190 fe 37 b3 bc f1 10 a0 3a 7e 14 d5 b6 48 01 c6 3b
       -0.021877285 0.001221208 -6.3502803e-06 0.006042633
0001a0 8b 98 55 bd f6 e3 8e bd c3 9e 0f bc 9d 74 04 3c
       -0.05214743 -0.06977074 -0.008765879 0.008084443
0001b0 96 e8 66 3d 48 ed a0 3d 6f 3e ae 38 ae 68 0c bb
       0.056374155 0.07857758 8.308596e-05 -0.0021424699
0001c0 8a a8 72 bb a6 bc 88 b1 fc c9 6a 3d 80 84 3f bb
       -0.0037026727 -3.979568e-09 0.057321534 -0.0029223263
0001d0 bc 8a 3c 06 8e b9 14 bb 63 24 1d 35 ed c2 9f 3d
       3.5460796e-35 -0.0022693607 5.854001e-07 0.07800851
0001e0 28 56 97 bb 54 36 ac bb 39 27 99 bc c3 7e ac bc
       -0.004618425 -0.0052555 -0.01869546 -0.021056538
0001f0 40 c6 9f 05 8e 0f 97 bc 86 8b 78 bd ad ea 4c 82
       1.5025114e-35 -0.018440034 -0.060679935 -1.5054902e-37
000200 59 7e 0b bc 73 e4 a4 bb f3 4b 72 bc 53 15 66 3a
       -0.00851401 -0.005032116 -0.0147886155 0.0008776981
000210 49 60 ce 3c 39 6e 70 bc 79 f7 fc bb e1 94 48 3c
       0.025192397 -0.014674717 -0.0077199307 0.012242527
000220 b1 66 6c ba e1 de 7b bb 7f 12 59 3c 6a 8c 0c bc
       -0.0009017988 -0.0038432407 0.013249039 -0.008578399
000230 3d d2 1d 21 31 28 dd 83 f2 43 4b 0c fc 46 9f 2d
       5.3471917e-19 -1.299844e-36 1.5658998e-31 1.810773e-11
000240 be 5e db 3b 0b 9f 10 ba f6 f3 62 bc 0e 73 0d ba
       0.0066946438 -0.00055168633 -0.01385211 -0.00053958676
000250 99 6c 0c b8 54 7a 51 ba 04 2e 48 bc fd 15 3f 3d
       -3.347974e-05 -0.00079909456 -0.012218002 0.04665183
000260 6c ed b9 3c 34 a3 80 bb 82 5b 0e bd 2d 8c 13 bc
       0.02269622 -0.0039257053 -0.034755237 -0.0090055885
000270 67 df e4 3b b1 46 71 b4 c6 4c 42 3c 8d 88 53 b9
       0.0069846394 -2.2470591e-07 0.0118591245 -0.00020173397
000280 c6 05 da bb dc 0e 9b 9b 2a 98 c4 bc ea 1c 8a bc
       -0.0066535203 -2.5652202e-22 -0.023998339 -0.01685949
000290 79 ed 8a bc e3 96 9d ba f7 53 b2 36 7f 96 b1 3b
       -0.016958939 -0.0012023117 5.314588e-06 0.005419552
0002a0 53 6b b4 bb 5b 85 95 bc 3c 9e 06 3b 93 a2 37 ba
       -0.005505958 -0.018252065 0.0020541092 -0.00070051214
0002b0 38 32 8a 3c d2 e1 95 3c 1b f3 e0 b7 fd 18 6c 3c
       0.01686965 0.018296156 -2.6816086e-05 0.014410255
0002c0 ed 29 a0 ba 03 46 65 0f 01 84 36 3c 79 0b 44 bc
       -0.0012219526 1.13040555e-29 0.011139871 -0.011965626
0002d0 05 11 3c 31 ee 13 22 3b da 5c c4 13 b2 aa 1b 3d
       2.7367275e-09 0.0024731117 4.9568915e-27 0.038004585
0002e0 2f 6e cc 3b d0 32 1e 3a 0d 30 ee bc ea 4f dc 3b
       0.006238721 0.00060347933 -0.029075647 0.0067233937
0002f0 ae 16 24 07 ba 2d 8c 3c ac 67 b4 bc c9 ba a3 b1
       1.2344654e-34 0.017111648 -0.02202209 -4.7651594e-09
000300 8b 4b 2c 3d 5d 6b cd bc e4 8b c3 bb 94 3b 37 ba
       0.04206423 -0.025075609 -0.005967604 -0.0006989774
000310 9c ee 95 bc e6 91 9d bb 0b 04 4f 3c 21 4f f6 bc
       -0.018302254 -0.004808652 0.012635241 -0.030067028
000320 8f d8 46 ba 5f 0d 2e bc 4c 1a 74 39 12 8b 8c bb
       -0.00075853703 -0.010623305 0.0002327945 -0.0042890394
000330 06 96 aa 10 69 a7 db b5 9f f1 48 8c b6 f4 a4 b4
       6.7284325e-29 -1.6365494e-06 -1.548015e-31 -3.072543e-07
000340 d8 a9 de bc 94 1c 93 3a 70 62 ec 3c 26 16 d2 3a
       -0.027180597 0.0011223727 0.028855532 0.0016028329
000350 30 72 09 b8 de b1 51 3a 16 a7 85 3c e6 31 7e 3c
       -3.276969e-05 0.00079992216 0.016315024 0.015514826
000360 43 11 95 bb fb d6 fe 3a e1 92 ac bb f0 72 2a 3c
       -0.004549177 0.0019442731 -0.005266533 0.01040338
000370 56 de 86 3b fc cb c2 34 93 52 5c bb 3a ec d2 bc
       0.00411586 3.6283734e-07 -0.0033618554 -0.025747407
000380 10 9f af 38 9e 3f 30 aa 62 94 b5 3b 05 57 b9 3c
       8.374278e-05 -1.5654012e-13 0.0055413703 0.022624502
000390 67 bb fd 3b a2 1f 8e 3a 43 47 b3 b3 8d f5 52 3b
       0.0077432874 0.0010843168 -8.3482995e-08 0.0032189817
0003a0 c1 bb b4 3b e1 30 9e 3b c5 76 16 bb 87 15 08 3c
       0.005515546 0.004827604 -0.0022958976 0.008305914
0003b0 5f c0 84 3a bd d7 df bc b2 cb 35 b8 8f 33 ad 3b
       0.0010128132 -0.027324552 -4.334347e-05 0.0052856873
0003c0 0f 42 52 b8 7a 2b e2 30 32 d8 e7 bc bc b5 46 3c
       -5.0129423e-05 1.6456021e-09 -0.028301332 0.01212829
0003d0 61 24 92 16 b4 59 0c b8 a2 7c 19 26 15 23 5d 3d
       2.361053e-25 -3.3462144e-05 5.3251447e-16 0.053988535
0003e0 35 0d 61 3c 98 56 25 ba af 20 de bb 05 8a 18 bb
       0.013736059 -0.0006307154 -0.0067787985 -0.0023275625
0003f0 cc 99 89 84 b9 78 34 bb 86 8b 3a 3d fa 0e 16 2c
       -3.2349785e-36 -0.0027537777 0.045543216 2.1324596e-12

shared.4.bias f4 [64]
000000 9d bd bb bc 26 57 31 3d d3 03 eb bc 18 31 c8 3c
       -0.022917563 0.043296 -0.028688347 0.024437472
000010 1d 98 ba 3b 36 e5 c4 3c 11 51 02 bb 5d 55 0a bd
       0.005694403 0.024035078 -0.0019884745 -0.033772815
000020 a4 89 4e bc ee 5d 64 3c 0c b7 12 3d 73 5c 06 bc
       -0.012606058 0.01393841 0.0358191 -0.008200753
000030 f3 34 1e 3d 20 10 9d 3a 1e 10 91 bc d5 6b 62 bc
       0.038624715 0.0011982955 -0.01770788 -0.0138196545
000040 f4 f2 97 3b 0f 97 b8 bb d8 c9 cb 3c 4b 79 53 bc
       0.0046371166 -0.005633242 0.02487652 -0.0129073365
000050 b6 a7 53 bc a5 39 2e 3d 61 90 85 bb af f1 91 3d
       -0.012918403 0.042535443 -0.004076049 0.071261756
000060 12 d6 54 bc 7a b1 f3 bc 3c 75 66 bc c5 d3 62 3d
       -0.012990491 -0.029747713 -0.014066037 0.05537774
000070 7f 42 42 3c 83 de 76 3d a8 00 44 3b 3b 07 0d 3d
       0.011856674 0.060270797 0.0029907618 0.034430724
000080 42 0a b2 bc ed 0e 2d bd b4 fa 3f bd c4 24 8c 3d
       -0.021733407 -0.042250562 -0.04686995 0.0684295
000090 0d 78 3a 39 97 34 3d bd 22 d2 6d 3c 5d ed 80 bc
       0.00017783065 -0.04619273 0.014515432 -0.015738184
0000a0 13 9b 0c 3d 22 67 99 3b 90 32 bf bb d7 d4 c1 3c
       0.034327578 0.004681484 -0.005834885 0.02366106
0000b0 d4 e6 5a bb 6e 31 c0 ba 10 1e 41 bc 50 33 22 3d
       -0.0033401744 -0.0014663169 -0.011786953 0.039599717
0000c0 c7 3d 85 bc 02 59 0b bd 0f 4e ac bc 45 26 2c bd
       -0.01626481 -0.03402043 -0.021033315 -0.042028684
0000d0 94 57 62 bc 37 90 9a bc 32 ee 02 ba 02 79 ec bc
       -0.013814826 -0.018867595 -0.00049946003 -0.028866295
0000e0 df ac 3d bd 58 58 76 3b e1 29 a1 3c f7 d5 20 bc
       -0.04630744 0.0037589278 0.01967329 -0.009816638
0000f0 90 26 22 3d 64 25 9a ba 30 38 95 bc 21 d4 ae 3c
       0.039587557 -0.0011760411 -0.018215269 0.021341385

shared.5.weight f4 [64]
000000 3a 9b 18 3f 6f 0a 25 3f 90 ac 19 3f 5e 38 21 3f
       0.59611857 0.64469045 0.60028934 0.62976635
000010 23 86 3a 3f 04 d2 19 3f 9f 58 3e 3f c8 78 1b 3f
       0.72860926 0.60086083 0.74353975 0.6073117
000020 89 2f 18 3f ba 09 21 3f 4a b5 3f 3f 6e 59 18 3f
       0.5944753 0.62905467 0.74886 0.5951146
000030 c9 85 23 3f 39 d2 19 3f 44 01 1d 3f 7c 43 18 3f
       0.63876015 0.600864 0.61330056 0.59477973
000040 33 48 1e 3f 4f 5f 37 3f 15 ef 2f 3f e4 58 18 3f
       0.6182892 0.71629804 0.68724185 0.59510636
000050 a9 5e 17 3f a0 19 2a 3f dc af 18 3f bb b8 45 3f
       0.59128815 0.6644535 0.5964334 0.77235
000060 8a 98 18 3f 60 6e 36 3f de 56 18 3f 19 3f 1f 3f
       0.59607756 0.7126217 0.5950755 0.62205654
000070 78 4e 19 3f 50 20 24 3f d9 1d 1e 3f 70 d8 28 3f
       0.5988536 0.64111805 0.61764294 0.6595526
000080 44 99 41 3f c6 67 4b 3f 5e e4 4e 3f 09 49 2d 3f
       0.7562449 0.7945522 0.8081721 0.6768957
000090 60 72 1d 3f 2d 01 1a 3f 4b c6 18 3f b9 62 18 3f
       0.6150265 0.60158044 0.5967757 0.5952564
0000a0 76 a1 41 3f 72 d2 18 3f 0d 2c 31 3f 85 17 30 3f
       0.75636995 0.59696114 0.6920784 0.6878589
0000b0 cf 48 18 3f 63 61 18 3f 3d 4e 18 3f 98 3f 46 3f
       0.594861 0.595236 0.5949438 0.77440786
0000c0 46 b6 2c 3f f7 92 18 3f 59 40 1c 3f 08 80 19 3f
       0.6746563 0.5959925 0.61035687 0.59960985
0000d0 db 05 18 3f be b7 18 3f 0a 10 21 3f bf 2a 1c 3f
       0.59383935 0.5965537 0.629151 0.61002725
0000e0 61 91 1f 3f 0d 55 18 3f 13 dc 25 3f 65 31 18 3f
       0.62331206 0.5950478 0.6478893 0.5945037
0000f0 37 d0 4a 3f 67 ab 19 3f 46 f8 17 3f 16 70 40 3f
       0.7922396 0.60027164 0.5936321 0.7517103

shared.5.bias f4 [64]
000000 64 0b 18 38 84 54 1b 3c 8f 04 fd 3b 1f 88 35 3d
       3.6250232e-05 0.009480599 0.0077214907 0.04431927
000010 53 84 41 3d 0b a2 2e 3c d8 07 33 3d 0a a4 84 3c
       0.047245335 0.010658751 0.043708652 0.016191501
000020 ad a5 9c b7 0a 0b 4e 3d a7 29 56 3d cc f1 a0 b9
       -1.8673798e-05 0.050303496 0.052285817 -0.0003069773
000030 ca e8 fd 3b c7 34 a1 3c b9 9c a7 3c de 53 ef b4
       0.007748698 0.019678487 0.020460473 -4.457824e-07
000040 3b 5f 53 3c e7 73 28 3d b2 eb 4a 3d 24 6a 8b b8
       0.012901123 0.041126158 0.049541183 -6.647807e-05
000050 61 19 a0 bb 83 f1 49 3d 0c 8b aa 3b 02 e0 25 3d
       -0.004885838 0.04930259 0.005204564 0.040496834
000060 78 39 cc 38 0b 9d 4f 3d 1b fa b7 36 b3 0b 15 3d
       9.7381824e-05 0.050686877 5.482941e-06 0.03638811
000070 f1 c1 d8 3b a9 47 3d 3b b6 10 9b 3c 73 ad 45 3d
       0.0066149165 0.0028881824 0.018928867 0.048261117
000080 49 f6 42 3d 0a b9 3f 3d 27 4b 33 3d 2a bf 5e 3d
       0.047598157 0.046807326 0.043772843 0.054381527
000090 e0 b7 3c 3d 65 aa 6d 3c 9f a2 d5 b7 cf 16 63 37
       0.046073794 0.014505957 -2.5467305e-05 1.3535565e-05
0000a0 2e cc 34 3d c5 4e 36 3c f0 20 6c 3d 1c f7 45 3d
       0.044140033 0.011127179 0.0576486 0.048331365
0000b0 35 15 a7 37 6c a0 f0 3a ac 8a 9a 39 6e 22 2f 3d
       1.9917827e-05 0.0018358356 0.00029476488 0.042757444
0000c0 e8 38 36 3d 67 8d 6f b9 d6 38 be 3c cd 29 7e 3a
       0.044487864 -0.00022845493 0.02322046 0.000969556
0000d0 1e 02 25 ba e8 78 b1 35 54 d3 55 3d 96 74 00 ba
       -0.0006294566 1.3222716e-06 0.05220349 -0.0004900185
0000e0 09 8a 9a 3c a5 64 b0 39 f3 be 4e 3d 22 5f a1 3c
       0.018864648 0.00033644322 0.050475072 0.019698683
0000f0 97 85 1f 3d 55 a6 fd 3b 4a 3e 69 ba 33 42 38 3d
       0.03894576 0.0077407756 -0.00088975264 0.044985007

actor.0.weight f4 [3, 64]
000000 27 0b e7 36 61 97 ba bb 6e ec 8b bb 34 73 49 bc
       6.885635e-06 -0.0056943153 -0.004270128 -0.012295533
000010 24 c8 a3 bc 55 02 27 ba 64 74 a3 bc 5c ad fd ba
       -0.019992895 -0.0006370892 -0.01995296 -0.0019354033
000020 31 c0 f0 37 9a a0 72 bc 28 be b7 bc 5e 9d f0 b8
       2.8699726e-05 -0.014808798 -0.02242954 -0.00011473404
000030 68 3b 9f bb b3 25 1a bc 8a 8f 4c bb 90 17 87 35
       -0.0048593767 -0.009408402 -0.0031213486 1.0065141e-06
000040 19 7a 55 bb 48 c7 c7 bc 80 06 4c bc c4 9e 1d 38
       -0.0032573997 -0.024387017 -0.012452722 3.757958e-05
000050 30 ae a8 b7 4b 31 98 bc 7c 9b 09 bb 0d 10 d4 bc
       -2.0108273e-05 -0.018578192 -0.0020997217 -0.02588656
000060 7c 47 dd b4 29 d2 b3 bc f8 19 2f b7 69 05 5e bc
       -4.121647e-07 -0.021950798 -1.0436859e-05 -0.013551095
000070 5b 52 05 39 90 70 a4 bb f7 33 3c bc 98 af 8d bc
       0.00012714548 -0.0050183013 -0.011486999 -0.017295644
000080 b3 84 a0 bc ca 4a da bc 29 26 d6 bc 57 4a ab bc
       -0.019594526 -0.02664699 -0.026141243 -0.020909471
000090 c7 66 7f bc dc 48 92 bb 39 36 06 38 b7 4d 69 37
       -0.015588469 -0.004464252 3.199859e-05 1.3905977e-05
0000a0 79 92 c8 bc b1 3c da b9 9f ec af bc 71 a2 bb bc
       -0.024483906 -0.0004162542 -0.021475134 -0.022904607
0000b0 89 a9 54 b8 d5 af 86 ba e5 f4 11 b7 d6 76 a0 bc
       -5.070263e-05 -0.0010275791 -8.699692e-06 -0.019587915
0000c0 16 99 8e bc a4 ce 55 b7 a2 0a 72 bc c8 ac 30 b7
       -0.017406981 -1.2743902e-05 -0.014773043 -1.0530646e-05
0000d0 ce 0e bc b4 76 f9 46 38 62 22 75 bc b9 5e a0 3a
       -3.50285e-07 4.7439207e-05 -0.014961811 0.0012235261
0000e0 75 15 29 bc 31 d2 0b b8 8e 72 a2 bc 93 6c 04 b9
       -0.010320057 -3.333594e-05 -0.019830015 -0.00012628948
0000f0 ca 5b db bc a0 02 fd bb 0e d7 41 37 68 6b b0 bc
       -0.026777167 -0.00772126 1.1553768e-05 -0.02153559
000100 f8 e0 9c 36 fc 17 14 3d d9 c2 5f 3c 26 57 3d 3c
       4.675352e-06 0.036155686 0.013657295 0.011556422
000110 7d 59 7a 39 cf c1 bc 3b e0 2c 2d 38 1d cf 5a 3c
       0.00023875195 0.0057604085 4.1288207e-05 0.013355044
000120 ae cf 6b 39 cd 8c 0b bb 23 3b 0e 3c 5c 57 db 38
       0.00022488713 -0.002129364 0.0086810915 0.00010459006
000130 89 a2 f3 3c cd aa e0 3c 64 63 93 3c fc 9a 3f 34
       0.029740589 0.027425194 0.01799173 1.7844644e-07
000140 7a 9b 63 3c ee b8 46 3c a4 ed c0 3c 5a 99 55 39
       0.013892049 0.012129052 0.023550816 0.00020370391
000150 c3 39 04 3a 60 31 9b 3c 33 3e a1 3b cb 0b f3 3b
       0.00050440076 0.018944442 0.004920745 0.0074171773
000160 15 93 96 35 30 70 4b 3c 56 b4 97 38 18 a7 70 3c
       1.1218677e-06 0.012416884 7.233831e-05 0.014688276
000170 a0 ff 38 3a 10 26 93 3c 5b e2 ec 3c 90 a8 50 3c
       0.0007057134 0.017962486 0.028916528 0.012735501
000180 50 fe f5 3a 86 d3 e5 bb 57 7b 2a 3c a0 e7 7f 3b
       0.0018767808 -0.007013741 0.010405383 0.0039047971
000190 f8 8a 9e 3b 47 74 49 3c f6 02 62 39 1e 09 04 35
       0.0048383437 0.012295789 0.00021554143 4.91871e-07
0001a0 d6 77 6c 3c bd 79 c3 3a b2 f8 d2 bb 82 d3 3f 3c
       0.014432868 0.00149136 -0.006438338 0.011708142
0001b0 b3 dc ce 37 00 08 94 3b 75 9b 30 37 e5 a4 6a 3c
       2.4659885e-05 0.0045175552 1.0526613e-05 0.0143215405
0001c0 7e ca 22 3b 5a f8 44 b8 47 dc fc 3c d6 00 2f 39
       0.0024839933 -4.6961337e-05 0.030866755 0.00016689612
0001d0 1d 67 66 37 a0 2e d2 38 d3 cd 87 bb 9a 03 b1 38
       1.3733076e-05 0.00010022265 -0.004144409 8.4406885e-05
0001e0 62 f2 07 3d 53 dd 45 39 ad ba 9f bb 8f de 54 3b
       0.03319014 0.00018869834 -0.0048745484 0.0032481288
0001f0 2f a7 8a 3c 45 6a 98 3c 03 8a 47 39 26 07 7d 3c
       0.016925422 0.01860536 0.00019029532 0.015443599
000200 74 af b1 34 2f e4 ed bc 07 d7 df bb 53 83 a0 3b
       3.3096478e-07 -0.02903947 -0.006831053 0.0048984676
000210 fc dd 90 3c da 85 b8 bb 8f 96 a8 3c a1 14 35 bc
       0.017683975 -0.0056311907 0.020579604 -0.011052282
000220 43 16 40 b9 5f 44 89 3c 86 f1 db 3c cd b5 57 b9
       -0.0001831884 0.016756235 0.026848566 -0.00020571724
000230 b1 c8 bb bc 03 0d 8e bc 01 6d 84 bc a0 ed 25 b5
       -0.022922846 -0.017340189 -0.016165258 -6.181308e-07
000240 09 bb 32 bc 2b da ef 3b c6 55 00 bc 7f 0c c9 b9
       -0.0109088505 0.007319709 -0.00783295 -0.00038347018
000250 d2 9e 42 ba ed d1 9e 3b e2 05 31 bb b5 33 ae 3c
       -0.0007424179 0.0048468024 -0.0027011563 0.02126489
000260 8a f8 8e b7 89 db 66 3c 9d 5b a4 b7 5b 50 30 ba
       -1.7043454e-05 0.014090427 -1.9592984e-05 -0.0006725841
000270 70 3d a5 ba 45 ec 82 bc 64 fc 89 bc 73 73 12 3c
       -0.0012606811 -0.015981803 -0.016843982 0.008938658
000280 4a 1a b8 3c 1d fb 8a 3c 1f 33 6d 3c 1b ac af 3c
       0.022473473 0.016965443 0.01447752 0.021444371
000290 4b c8 09 3c 04 6d ca bb 6b 68 75 b9 0b 30 bc b7
       0.00840957 -0.0061775465 -0.0002340392 -2.2433718e-05
0002a0 0a d6 06 3c 40 1c 6b bb 9c dc f1 3c bf 29 a9 3c
       0.008229742 -0.0035874993 0.02952414 0.020649789
0002b0 90 1f 4d b8 58 45 cc ba 4e 4f 85 b5 b4 4c 9c 3c
       -4.8905204e-05 -0.0015584631 -9.932353e-07 0.019079544
0002c0 7d e8 50 3c 1e 6d 72 b7 e1 b8 7c bc f3 a0 19 b9
       0.012750742 -1.444973e-05 -0.015424938 -0.00014651175
0002d0 7a a0 b4 b7 db bf a6 b8 4d 51 9d 3c 8d 44 fb b8
       -2.15324e-05 -7.951233e-05 0.019203806 -0.00011981381
0002e0 52 74 aa bc ec 0f b0 b7 82 9d c9 3c ab 83 f1 ba
       -0.020807419 -2.098825e-05 0.024611238 -0.0018426081
0002f0 85 07 ab 3c fa a7 38 bc 66 8c dc b7 48 02 af 3c
       0.020877609 -0.0112705175 -2.6291422e-05 0.021363392

actor.0.bias f4 [3]
000000 05 45 0a bd cb 49 e3 3c 60 d2 f5 3b
       -0.03375723 0.027745148 0.0075018853

critic.0.weight f4 [1, 64]
000000 2f 96 a0 3b 0b bd e6 3d 9f bf 34 3d f4 1b b2 bd
       0.004900716 0.11266526 0.044128057 -0.08696738
000010 bd b0 17 be 59 d8 6b 3d 07 0f 27 be 31 9e d2 3d
       -0.14813514 0.057579372 -0.16314326 0.10284079
000020 a3 74 ba bb 8d 16 0e be 39 f3 0f be 51 6b 3d bc
       -0.0056901737 -0.1387579 -0.14057626 -0.011561231
000030 49 3b ed 3d c2 e1 9d 3d ff 57 e6 3d d9 9a 7d 3a
       0.11583573 0.077090755 0.11247253 0.0009674258
000040 2f 34 9d 3d f3 78 fa bd 56 27 e1 bd 5a 1a 55 3b
       0.07675969 -0.122301005 -0.10993831 0.0032516927
000050 f4 5b d3 bc 06 57 e0 bd 76 5f 1e 3d 34 d8 0d be
       -0.025800683 -0.109540984 0.038665257 -0.13852006
000060 de da d4 3b 5f ff 08 be 67 18 fc 3a b6 7b d4 bd
       0.0064958176 -0.13378666 0.0019233347 -0.103751585
000070 59 fc ec 3c af 86 cf 3d b9 3e d8 3d cd ed c6 bd
       0.028928922 0.10133111 0.105588384 -0.09713326
000080 1d bf 12 be 1e d3 32 be 24 82 24 be 3c 47 0c be
       -0.14330716 -0.17463347 -0.1606527 -0.13699049
000090 07 5f aa bd 24 a5 94 3d 7b 3e 5a ba 66 88 da 3a
       -0.08318906 0.072580606 -0.00083253504 0.001667273
0000a0 a8 f2 05 be 6b 3c 4d 3d 91 51 1a be 4b 13 f6 bd
       -0.13080847 0.050106447 -0.15070178 -0.120153986
0000b0 1e ce 0a 3c a9 38 bb 3c 79 b8 9f 3c b6 bd 28 be
       0.008471994 0.022854166 0.019497143 -0.16478619
0000c0 af 52 fb bd 27 11 69 bc 6d 42 db 3d 7d 1e eb 3c
       -0.1227163 -0.014225281 0.10706029 0.028701061
0000d0 69 cb 98 bc 48 85 be 3c 7a 3a f6 bd c0 7a ca 3c
       -0.018651681 0.023256913 -0.12022872 0.024716735
0000e0 32 32 fe 3d aa f8 e7 3b 19 f9 fa bd 72 63 7c bd
       0.12411918 0.0070792036 -0.12254543 -0.061618276
0000f0 5b bd 10 be 2a d8 19 3d ff 87 d4 bc 1d 04 15 be
       -0.14134733 0.037559666 -0.025943754 -0.1455235

exp_avg f4 [64, 20]
000000 11 2c d7 a2 7e f5 c7 38 4f d0 17 37 09 b4 46 b8
       -5.8322524e-18 9.534786e-05 9.048802e-06 -4.737455e-05
000010 11 a6 98 b7 e6 b8 81 35 bf 9b e9 b8 ac 05 a9 b9
       -1.8197143e-05 9.665061e-07 -0.00011139316 -0.00032238418
000020 81 39 b3 b9 d1 c9 0e ba ca ac 53 39 93 a9 35 38
       -0.00034184384 -0.0005446943 0.00020186897 4.331169e-05
000030 2d 32 dc b8 b0 dc e7 83 a5 e5 5c b9 36 7b 97 b9
       -0.000104997634 -1.3627627e-36 -0.00021066384 -0.00028892764
000040 8e 26 24 b9 56 1f 78 ba ae 57 f0 3a 48 a6 4f 39
       -0.00015654622 -0.00094651186 0.0018336677 0.00019803003
000050 3d 32 95 34 98 61 d0 b8 9b eb 00 b9 88 d0 9d b8
       2.7789966e-07 -9.936391e-05 -0.00012294801 -7.525185e-05
000060 b0 92 85 b8 cc 88 61 38 4e 5a 30 39 9f 11 82 39
       -6.369257e-05 5.3771582e-05 0.00016818309 0.0002480866
000070 df 0f f0 39 ae f1 c5 39 59 19 03 3c f8 f9 54 39
       0.00045788192 0.00037754833 0.008001649 0.00020311016
000080 a7 3f 15 39 8c b5 70 32 f8 5a 80 3a ee f6 cb 39
       0.0001423346 1.4011118e-08 0.0009792736 0.00038903154
000090 cf 7e b9 39 cb 03 3b 3a 23 12 06 3c 95 cc 08 ba
       0.0003538043 0.0007134049 0.008183035 -0.00052184734
0000a0 e4 37 c1 80 0f 45 56 39 ce 0b 86 39 c7 ce c8 38
       -1.77443e-38 0.00020434357 0.00025567267 9.5752584e-05
0000b0 c7 b5 8a 39 22 36 33 39 bb 77 b4 39 54 98 cd 39
       0.00026456846 0.00017090936 0.00034421482 0.0003921414
0000c0 49 dc 16 3a a2 46 0f 3a 75 9a 0e bb 33 98 77 3a
       0.0005754871 0.0005465542 -0.0021759544 0.00094449817
0000d0 f6 30 bf 39 4e cd 25 37 c9 a6 ff b9 4a 56 b1 39
       0.00036466838 9.882568e-06 -0.00048761655 0.0003382436
0000e0 4f 74 0a 3a 9f 79 99 3b ee 35 ba bb 07 b5 52 38
       0.00052816136 0.004683688 -0.0056826985 5.0236496e-05
0000f0 1b d8 8c 8e b4 4d a8 b8 95 1c de b8 69 7d c6 b8
       -3.4720767e-30 -8.0253376e-05 -0.00010591109 -9.464735e-05
000100 af 9a 1f b9 4b 95 50 b9 55 15 46 b9 56 c0 77 b9
       -0.00015221046 -0.00019892042 -0.00018890698 -0.00023627406
000110 fc fc 97 b9 01 92 8c b9 c9 ce 6f 39 99 54 83 b9
       -0.00028989452 -0.00026811662 0.0002286985 -0.00025049297
000120 a6 5a ec b8 f1 ca e5 35 e3 d7 d0 38 e2 a5 c5 b8
       -0.000112702415 1.7120893e-06 9.958425e-05 -9.42459e-05
000130 51 1d 8c b9 b8 87 b0 ba ee 99 10 3a bb e5 5a b8
       -0.00026724723 -0.0013468182 0.00055161014 -5.2189203e-05
000140 13 78 b2 b1 08 34 a5 b9 12 09 ff b9 df 15 aa b9
       -5.1941327e-09 -0.0003151002 -0.00048644148 -0.00032441222
000150 ec ee ff b9 4a 7d 11 ba 97 b6 7d b9 ed f8 25 b9
       -0.000488154 -0.00055499806 -0.0002419598 -0.00015828358
000160 24 52 8d 39 34 17 58 3a 11 39 22 3c 19 fa 3a 3a
       0.00026954815 0.00082432036 0.009901301 0.00071326044
000170 a0 51 1a 3a d9 c8 56 97 51 fc c0 39 02 58 8d 3a
       0.0005886797 -6.9400635e-25 0.00036809084 0.0010783675
000180 17 50 cd 39 2e e9 03 3c 81 87 09 3a c9 a5 08 3a
       0.0003916032 0.0080512 0.0005246327 0.0005212692
000190 2c f1 93 36 3a 73 98 39 c9 e1 4f 3a 26 4d 9c 3a
       4.4090175e-06 0.0002907755 0.0007930068 0.0011924847
0001a0 65 22 b0 3a f2 a1 ae 3a cf b2 ce 3a a5 b4 d2 3a
       0.0013437985 0.001332341 0.0015769842 0.0016075565
0001b0 d0 92 0a 3b 53 f7 0f 3b a0 7a d2 bb fb 99 1c 3b
       0.0021144636 0.0021967485 -0.0064233094 0.002389549
0001c0 1d 98 94 3a 80 9b 83 86 78 27 f7 ba d7 67 7e 3a
       0.0011336837 -4.950521e-35 -0.0018856367 0.00097048044
0001d0 cd e3 14 3b d6 4d 4e 3c 7c e0 33 bc fc bd 57 3a
       0.0022718788 0.0125918 -0.010978814 0.0008229909
0001e0 1b 0d 74 b2 f4 1a 81 39 62 cf 18 3a 32 8a 00 3a
       -1.4205649e-08 0.0002462488 0.0005829242 0.0004903405
0001f0 ca 61 80 3a db 2d a4 3a 47 61 27 3a 5a 80 67 3a
       0.0009794768 0.0012525873 0.000638504 0.00088310766
000200 be 69 3a 38 e0 ea 4f 39 af 1b 39 bc 19 ab eb b9
       4.4444336e-05 0.00019828556 -0.011298104 -0.0004495017
000210 7c 37 2d ba 0e 11 95 94 bd 3d 93 ba ef bf a1 ba
       -0.0006607694 -1.5051882e-26 -0.0011233609 -0.0012340526
000220 8d 7e 97 b9 ac e5 01 bc 06 bb a9 bb d3 14 38 ba
       -0.00028895252 -0.007928293 -0.0051797656 -0.0007022146
000230 79 49 af b7 72 89 ad b9 ea 83 0e ba 69 59 3c ba
       -2.0895839e-05 -0.00033099536 -0.0005436527 -0.0007184954
000240 a9 84 83 ba f0 f5 93 ba 7b 3f 83 ba 19 87 65 ba
       -0.0010034043 -0.0011288505 -0.0010013425 -0.0008755788
000250 7f 3d 90 ba 1a e6 63 ba 81 f5 9a bb 01 a1 95 ba
       -0.0011004655 -0.00086936506 -0.0047289734 -0.0011415781
000260 dd 84 cd b9 d6 fd c9 b4 5c 17 4c ba 1c 9a 37 39
       -0.00039199638 -3.7623857e-07 -0.0007785463 0.0001750965
000270 91 61 6d ba dc 18 da bb 7f 7a 89 bc df e9 a6 3a
       -0.0009055371 -0.0066557955 -0.016782044 0.0012734494
000280 6b fe 12 36 44 03 c7 b8 53 d7 b7 b8 86 b3 04 b9
       2.1903786e-06 -9.489668e-05 -8.766227e-05 -0.00012655379
000290 5d 7e db b8 79 a6 2f b9 01 d8 3a b9 43 7a 72 b9
       -0.00010466271 -0.00016751316 -0.0001781881 -0.00023124464
0002a0 74 80 8f b9 d7 c8 9a b9 e8 96 3e b8 bb c2 81 b9
       -0.0002737079 -0.00029522806 -4.5440072e-05 -0.00024749883
0002b0 2c b9 09 b9 8f a5 90 b5 96 26 2b 38 88 ca 62 b8
       -0.0001313432 -1.077702e-06 4.0805513e-05 -5.407122e-05
0002c0 b0 06 8e b9 9a ef 04 bb d3 58 c8 39 85 c3 63 b8
       -0.00027089333 -0.0020284415 0.00038213152 -5.430311e-05
0002d0 65 cc 17 36 e1 7f f6 b8 30 8b 13 b9 df a4 57 b9
       2.2619727e-06 -0.000117540134 -0.00014070864 -0.00020565417
0002e0 cc 3a 92 b9 64 22 c4 b9 c0 d4 88 b9 4c 50 75 b9
       -0.00027891097 -0.00037409656 -0.00026098453 -0.00023394934
0002f0 f3 f6 9e b9 9d fe 43 b9 a5 bc 8b b9 2d 7c a1 b9
       -0.000303201 -0.000186915 -0.00026652697 -0.0003080083
000300 72 96 b5 b8 ed 10 9c 1e 79 3b 85 b8 0f 38 e8 38
       -8.658775e-05 1.6524143e-20 -6.353012e-05 0.00011073064
000310 bb ba 40 b9 ec 01 a0 39 6d e3 3c bb 3b 1d f0 37
       -0.0001838011 0.0003051901 -0.002882208 2.8623841e-05
000320 2a 97 99 07 a7 7e e9 b9 87 2c 96 ba de 77 77 ba
       2.3109728e-34 -0.00044535586 -0.0011457362 -0.0009440164
000330 fe d8 84 ba 32 39 9a ba b8 b7 d8 ba b6 fe b9 ba
       -0.001013547 -0.0011766313 -0.0016534245 -0.001419029
000340 b4 79 87 b9 a4 1e 37 3a 9f 33 27 3d 12 91 3f 3a
       -0.00025839882 0.0006985462 0.040820714 0.0007307689
000350 b1 9c 66 3a 21 c5 36 b7 0a ff ae 3b bd 43 cd 3a
       0.00087971525 -1.0893943e-05 0.0053404616 0.0015660446
000360 c7 33 38 3a 5b c1 08 3c 59 74 84 3c 74 ae 24 bb
       0.00070267584 0.008346881 0.01616876 -0.0025128396
000370 44 55 e8 84 f6 ad b2 38 8d 5a 25 39 2d f2 e4 38
       -5.4621242e-36 8.520104e-05 0.00015769359 0.00010916996
000380 97 6b 85 39 c5 0c bd 39 ac b1 0b 3a 62 ef 3b 3a
       0.00025447897 0.00036058403 0.00053289044 0.00071691547
000390 8e 19 64 3a ab 23 85 3a a3 9f 8f 3b dd 46 93 3a
       0.0008701318 0.0010157725 0.004383044 0.0011236329
0003a0 1e b0 2c 3a 54 85 35 b8 ab eb c8 39 04 4f 41 3a
       0.0006587523 -4.3277934e-05 0.0003832256 0.000737414
0003b0 7b 4a 80 3a cf 40 9f 3b 81 2c f5 3b 2e 37 e3 b8
       0.0009787822 0.0048600207 0.007482112 -0.000108344815
0003c0 1c a2 db 01 f7 d7 67 b8 46 a7 db b8 cc 22 1e b9
       8.068051e-38 -5.5275825e-05 -0.00010473891 -0.00015081017
0003d0 03 6b 24 b9 71 b9 4a b9 bc 75 46 b9 f0 cd 5b b9
       -0.00015680124 -0.00019333303 -0.00018926611 -0.00020962185
0003e0 8d 33 8e b9 16 9d 84 b9 f3 a6 3f b7 d7 1a 8a b9
       -0.0002712276 -0.0002529404 -1.1423358e-05 -0.00026341408
0003f0 e5 d5 02 b9 a1 7b 92 b2 b0 c1 10 39 91 7d a2 b8
       -0.00012477448 -1.7052857e-08 0.00013805064 -7.7481505e-05

exp_avg_sq f4 [64, 20]
000000 f7 50 18 32 32 de be 34 02 df e8 34 cb 06 31 35
       8.865974e-09 3.5551926e-07 4.3375627e-07 6.5947523e-07
000010 d4 a6 7a 35 91 b2 ad 35 28 0c da 35 a8 85 19 36
       9.3375024e-07 1.2941474e-06 1.6245804e-06 2.2876575e-06
000020 a5 f6 2c 36 62 4b 75 36 87 e2 70 38 02 80 3b 36
       2.5773563e-06 3.6551723e-06 5.743143e-05 2.7939682e-06
000030 b9 cd 86 35 93 97 1d 30 f1 c5 af 35 9d 39 9b 35
       1.0043651e-06 5.7331667e-10 1.3096125e-06 1.1565168e-06
000040 40 ff 61 36 55 1a c5 38 17 8d a0 38 f6 35 34 36
       3.3676188e-06 9.398597e-05 7.6556746e-05 2.68535e-06
000050 f1 ff b2 33 69 2d 1d 34 3e d9 9b 34 80 a3 00 35
       8.3353264e-08 1.4638285e-07 2.9029064e-07 4.792164e-07
000060 3f c2 54 35 96 21 86 35 5a 15 92 35 bb e0 d0 35
       7.925882e-07 9.993553e-07 1.0884062e-06 1.5562613e-06
000070 35 cd 00 36 7c 51 10 36 d3 09 29 38 ee d5 13 36
       1.9192933e-06 2.1505102e-06 4.030189e-05 2.202923e-06
000080 78 5f 21 35 13 6e 4f 33 99 44 6d 35 63 0c 99 35
       6.01161e-07 4.8296055e-08 8.83892e-07 1.1402993e-06
000090 80 11 11 36 b0 44 8b 38 12 b8 8a 38 47 40 ff 35
       2.161687e-06 6.6408305e-05 6.6146386e-05 1.9017688e-06
0000a0 cf 05 11 2f 98 51 4e 34 98 f2 dc 34 a3 75 4f 35
       1.3189737e-10 1.9214929e-07 4.1154703e-07 7.7284693e-07
0000b0 24 93 68 35 3f 48 bd 35 19 cc c7 35 c9 51 00 36
       8.664085e-07 1.4102624e-06 1.4886056e-06 1.9121092e-06
0000c0 84 f3 3a 36 e4 4c 2e 36 d2 d4 4d 38 23 f0 00 36
       2.7857905e-06 2.5972777e-06 4.9074013e-05 1.9213264e-06
0000d0 fb a0 13 35 cf 05 6d 34 a4 10 7e 35 0c c6 27 35
       5.4996025e-07 2.2074458e-07 9.464659e-07 6.2500544e-07
0000e0 c8 d7 31 36 1c 68 79 38 9a b7 01 39 05 ab 52 36
       2.6500657e-06 5.9463186e-05 0.00012370796 3.1391985e-06
0000f0 a8 2b 2f 31 d3 31 94 34 0e fa 7b 34 5f fd 52 34
       2.5490667e-09 2.76034e-07 2.3467166e-07 1.964995e-07
000100 f2 da 3b 34 57 d8 b6 34 08 39 fe 33 24 57 74 34
       1.7495384e-07 3.405755e-07 1.18381706e-07 2.2755972e-07
000110 84 59 7e 34 b0 9d 76 34 9d 26 88 36 e2 88 70 34
       2.3688159e-07 2.2967902e-07 4.057611e-06 2.240154e-07
000120 bf a9 62 33 53 49 0a 34 99 69 99 33 fd 81 0e 34
       5.277411e-08 1.2878927e-07 7.143826e-08 1.327207e-07
000130 c1 e4 68 34 ba 80 c4 36 2a a5 1c 37 33 c1 20 34
       2.1689904e-07 5.856241e-06 9.33678e-06 1.4971447e-07
000140 eb bb 32 33 18 e6 bb 34 86 1b 4f 35 fd 2e e7 35
       4.1614765e-08 3.499888e-07 7.715356e-07 1.7224517e-06
000150 61 dc 39 36 c1 a5 6a 36 21 d7 a8 36 c1 cd d7 36
       2.7695426e-06 3.4965199e-06 5.0318345e-06 6.431452e-06
000160 24 34 02 37 bd 7a 21 37 6f ca 6f 39 2f 37 d8 36
       7.760744e-06 9.624925e-06 0.00022868229 6.443726e-06
000170 8d 46 fe 35 4f 96 aa 31 c4 96 30 36 80 19 16 36
       1.8945008e-06 4.9647393e-09 2.63138e-06 2.2366585e-06
000180 a2 a3 1f 37 35 75 53 39 4b bd 5e 39 17 88 49 37
       9.515237e-06 0.00020166191 0.00021242087 1.20122195e-05
000190 25 9b 35 34 23 8c 03 35 8e e2 73 35 1a 3f 9e 35
       1.691338e-07 4.900523e-07 9.0854235e-07 1.1790282e-06
0001a0 da 5c 14 36 5e 47 2d 36 ea c4 82 36 b6 2e 9c 36
       2.2107765e-06 2.582055e-06 3.8972257e-06 4.6546e-06
0001b0 97 bd bb 36 90 1d d8 36 07 d9 09 39 aa 77 b7 36
       5.5951054e-06 6.440743e-06 0.00013146187 5.4677557e-06
0001c0 02 d1 c7 35 45 7c 86 30 8b 36 3b 36 2e 39 dc 35
       1.4887485e-06 9.785103e-10 2.789692e-06 1.6407919e-06
0001d0 e3 3b dd 36 08 b3 32 39 69 bd 9e 39 3a e7 12 37
       6.593285e-06 0.00017042097 0.0003027723 8.756115e-06
0001e0 1e e1 4f 33 6a 6e ee 34 7f 32 bf 35 8c 92 59 36
       4.8400686e-08 4.441129e-07 1.4245305e-06 3.2420821e-06
0001f0 f5 b1 a3 36 09 9c e7 36 3c e5 21 37 47 a1 4e 37
       4.8784955e-06 6.9025014e-06 9.649721e-06 1.2316107e-05
000200 a3 14 86 37 5a fd 9e 37 8a 7e c7 39 95 8c 67 37
       1.5983655e-05 1.8953044e-05 0.00038050517 1.3801405e-05
000210 34 eb 89 36 32 2a 92 31 0f 99 a1 36 eb 8f 81 36
       4.1102994e-06 4.2539563e-09 4.8159923e-06 3.861254e-06
000220 66 5a 9e 37 5b eb c1 39 05 c0 bb 39 8a c5 9b 37
       1.8877163e-05 0.00036987182 0.00035810485 1.8569426e-05
000230 71 38 9d 34 55 c6 8f 34 d1 2b 99 35 8c 9e 15 36
       2.9284595e-07 2.678013e-07 1.141214e-06 2.2295017e-06
000240 27 74 72 36 ef e5 b9 36 a7 50 fc 36 d2 64 26 37
       3.612842e-06 5.5401974e-06 7.5195744e-06 9.917845e-06
000250 9c 72 58 37 a9 4e 88 37 33 45 9c 39 9b cc 49 37
       1.2901288e-05 1.6249092e-05 0.00029806196 1.2028172e-05
000260 01 3a 58 36 d6 2e bf 33 cd db 2d 36 40 21 4d 36
       3.222027e-06 8.90265e-08 2.590695e-06 3.0566734e-06
000270 2a 06 88 37 82 ab a9 39 97 b8 7d 39 cb 4d d7 36
       1.6215334e-05 0.00032361975 0.00024196725 6.4165556e-06
000280 8f ed 13 34 7a dc c5 34 05 63 80 33 33 e4 8c 34
       1.3776865e-07 3.6854527e-07 5.978476e-08 2.624307e-07
000290 4d b7 16 35 d9 30 53 34 a0 ed 92 34 42 08 a1 34
       5.614609e-07 1.9668677e-07 2.7367514e-07 2.9994595e-07
0002a0 4b 3f fa 34 75 68 e0 34 b2 2e ea 36 7f 88 ba 34
       4.661218e-07 4.1799254e-07 6.9791795e-06 3.4744514e-07
0002b0 aa 52 2a 34 b1 26 f5 33 d9 55 9c 34 0c 21 17 35
       1.5862557e-07 1.14157395e-07 2.9119727e-07 5.6299973e-07
0002c0 79 9f 1c 35 df f2 72 37 05 f7 c0 37 b0 8d 41 35
       5.834659e-07 1.4480872e-05 2.3003211e-05 7.2104285e-07
0002d0 ec 42 15 34 7d 35 45 33 b6 f6 07 35 63 e5 bb 34
       1.3901052e-07 4.5916284e-08 5.065043e-07 3.4998365e-07
0002e0 09 4c 7e 35 e6 10 67 35 35 1c a8 35 2d 10 e0 35
       9.473302e-07 8.6078796e-07 1.2525185e-06 1.6694008e-06
0002f0 a7 ab 11 36 20 00 3b 36 66 81 66 38 1c 4e 0c 36
       2.1706599e-06 2.7865244e-06 5.4956785e-05 2.0907091e-06
000300 9e 84 4e 35 a8 a7 f7 31 61 f7 21 35 53 06 07 35
       7.6933964e-07 7.2077064e-09 6.033716e-07 5.030062e-07
000310 c3 20 39 36 9d ee 77 38 17 ea 45 38 c4 25 a2 35
       2.7586218e-06 5.9111615e-05 4.7186473e-05 1.2080932e-06
000320 45 4e 9f 30 de 0d 40 35 38 71 fc 35 7f 68 88 36
       1.1591018e-09 7.1545753e-07 1.8808414e-06 4.065281e-06
000330 ef c3 d7 36 39 7c 14 37 39 4c 45 37 6d 23 72 37
       6.430309e-06 8.85041e-06 1.1759862e-05 1.4432572e-05
000340 1c 2c 8d 37 75 c2 96 37 d7 11 e6 39 e8 ae 66 37
       1.682905e-05 1.7971945e-05 0.0004388231 1.3749792e-05
000350 be ff 64 36 87 61 75 34 d4 e3 15 37 28 9a 6a 36
       3.412351e-06 2.2852883e-07 8.934137e-06 3.4958448e-06
000360 ce c0 96 37 b2 ee ca 39 cd 01 ce 39 4b 1e f6 37
       1.7971175e-05 0.00038706284 0.00039292724 2.9339591e-05
000370 de c4 3b 30 c1 b4 06 34 f6 3f 7c 34 38 ca 41 35
       6.830997e-10 1.254548e-07 2.3492598e-07 7.219237e-07
000380 e2 d6 26 35 a8 25 67 35 94 6a 6b 35 8b e9 99 35
       6.2152515e-07 8.6109003e-07 8.7699414e-07 1.1467358e-06
000390 0e bf c3 35 50 f7 e8 35 02 9c f2 37 6e 1a ad 35
       1.4584236e-06 1.7357324e-06 2.8921295e-05 1.2897196e-06
0003a0 da 68 f9 34 56 dc d7 34 5e 5b 65 35 3f bb 17 35
       4.6456154e-07 4.0207186e-07 8.5442105e-07 5.652436e-07
0003b0 46 26 f8 35 f8 95 40 38 72 7e 9a 38 03 26 c2 35
       1.8488579e-06 4.5916036e-05 7.3668445e-05 1.4465189e-06
0003c0 71 cc aa 2f e6 c6 f8 31 9b 9b df 32 0b 91 ce 34
       3.1068084e-10 7.240362e-09 2.6031378e-08 3.8476023e-07
0003d0 06 85 6f 33 51 93 9b 34 6f 19 4a 34 91 b6 d2 34
       5.5767508e-08 2.8978187e-07 1.8821969e-07 3.9248383e-07
0003e0 80 18 29 34 b7 ec 63 34 63 c2 8a 36 5b 56 79 34
       1.5748265e-07 2.1227139e-07 4.13535e-06 2.3221348e-07
0003f0 44 90 8e 34 e4 fb 55 33 fd c9 a7 33 0f 39 b1 33
       2.6554528e-07 4.982202e-08 7.813285e-08 8.252584e-08

exp_avg f4 [64]
000000 c9 d8 03 bb 4d 07 6a 3c 88 de f5 bb 38 b1 3e 3a
       -0.0020118228 0.014283967 -0.0075033344 0.00072743325
000010 fc 47 7a 3c f9 cf ce bc 68 d5 a2 bc 83 f5 d9 bb
       0.0152759515 -0.025245653 -0.01987715 -0.0066515817
000020 c4 d5 dc 39 6c b0 e5 3a 9a 1d a3 3d 6e a1 d2 3b
       0.00042120938 0.0017523891 0.079646304 0.0064279353
000030 c5 8e 51 3a 0c f7 58 3a 08 fb 86 3a 1a eb 56 3a
       0.00079939916 0.0008276559 0.0010298202 0.0008198485
000040 b5 84 12 3c 47 0d 1b 3a a9 5f 03 bd b5 dd b4 38
       0.008942773 0.0005914759 -0.03207365 8.624365e-05
000050 b3 08 20 3a dc 3b 04 3b 2d aa 1b bc cf f9 79 3d
       0.0006104812 0.002017728 -0.009501022 0.06102925
000060 c2 01 99 3c 80 01 32 bb 00 c0 03 bd 18 7a ca bc
       0.018677596 -0.0027161539 -0.032165527 -0.024716422
000070 5e 83 5e 3c d6 a8 6f 3a 59 85 b2 3c 20 f8 ca bb
       0.013581125 0.0009142285 0.0217921 -0.0061941296
000080 41 c0 9a b8 48 8b 68 3a c2 d8 63 bd 98 0a e9 bc
       -7.379102e-05 0.0008870852 -0.05562664 -0.028447434
000090 94 7a ae bc a1 30 e4 3a bc cd 59 3a 33 10 11 3c
       -0.021298684 0.0017409512 0.000830855 0.00885396
0000a0 55 c0 c8 bc 53 80 32 bb 49 91 f8 bb 2d 83 47 bc
       -0.024505774 -0.0027237132 -0.0075856787 -0.012177271
0000b0 89 88 0a 3b ce 79 fc 3c 47 7c 89 3a 21 28 08 3d
       0.002113851 0.0308198 0.0010489308 0.033241395
0000c0 cb f9 b6 3a 19 ad 62 3a a9 c7 4e 3c 7d bc 03 3c
       0.0013959942 0.00086470094 0.012620845 0.008040545
0000d0 6f d1 58 3a 94 7e cd 39 af ae 73 3a b6 d2 82 3d
       0.0008270954 0.00039194955 0.0009295744 0.06387846
0000e0 4d eb a6 3c bb 1e 50 3b 9e 3c 5f bd 6f 45 22 bd
       0.020375872 0.0031756598 -0.05450117 -0.039617
0000f0 4e e5 79 3a 3d 56 99 3c 62 24 f1 bc ae ff 58 3a
       0.0009532765 0.01871788 -0.029436294 0.00082778453
