models/TSLA_v3.pth (torch, 91078 bytes, 33 tensors)

shared.0.weight f4 [64, 27]
-0.16079353 0.108038686 0.066468075 0.13080704 -0.09286193 0.0113124 0.04813702 0.030387009
0.039795216 -0.11514305 -0.18052089 -0.008931991 0.0079099545 -0.15598722 0.13140132 -0.10868669
0.07213562 -0.06529005 -0.13345115 -0.010145182 -0.10694821 -0.009857497 0.048839744 -0.112055354
-0.07068901 0.11397856 -0.16019067 0.1361376 -0.10171568 0.01006188 -0.11442846 0.0985669
-0.015578827 -0.00061965396 0.18807967 0.09438922 0.16409312 0.14170991 -0.10988993 0.14920628
0.05002796 -0.04965743 -0.18099684 -0.104311995 0.036324482 -0.07501811 0.04541147 -0.14300284
0.09451511 -0.17459895 0.1367457 0.06657526 0.15875275 0.05265084 0.034549102 -0.03202881
0.1282927 -0.16690032 0.15476826 0.11509043 0.10622606 0.014974093 0.17490804 -0.1435833
-0.049809318 0.17249528 -0.067909904 -0.04287877 0.17036766 -0.10986731 0.053961046 0.17080383
-0.024586309 0.13154078 -0.11642804 0.110350445 0.12526374 -0.102573395 -0.06702097 0.08538103
0.15523623 0.17082186 -0.06872423 0.13521576 -0.042039905 -0.012569855 -0.17226861 -0.06650536
-0.16105185 -0.12730442 0.15231295 0.18975239 0.10527335 0.11987297 0.12830485 0.0787187
0.18586355 0.018105842 -0.07052387 -0.094447784 -0.10473592 0.040274657 -0.07874128 -0.16126311
0.038662374 0.17856069 0.18641691 0.12183132 -0.102690935 -0.16490842 0.115768395 0.034333587
0.13450249 0.14939834 0.12609468 -0.14294209 0.055960327 0.044101935 0.15903704 0.010702671
-0.16158965 0.022407493 -0.11132123 -0.05179717 0.18414629 0.013749716 -0.14698112 0.059363298
0.11683669 -0.0881503 -0.17307635 0.0552584 0.18872829 -0.13811095 -0.11214242 0.019449012
-0.12808937 -0.106579 -0.06695422 0.14797947 -0.12380685 -0.023580788 -0.12090472 -0.12824343
-0.11141123 -0.19285879 0.1909004 -0.17266528 -0.020664841 0.07368933 0.16912511 0.036493327
0.0061531095 -0.01360051 0.020337632 0.18057933 -0.16969135 0.008729922 0.0821456 -0.19058639
0.16303146 -0.18899138 0.12442348 0.111252576 -0.0035498424 -0.009729045 -0.11987554 0.125709
0.017758368 -0.16019624 0.044983458 0.13721737 -0.09914556 -0.10505058 0.18198678 0.014903233
0.09737689 -0.029622754 -0.08328629 -0.08102554 0.05772557 0.09219902 -0.13723469 -0.023981215
0.002557162 0.046724476 0.15575929 0.064464495 0.09530975 0.15600191 0.051189944 -0.14705503
-0.05997114 0.045234673 0.17524691 -0.16001819 -0.15602082 -0.16759878 0.049549975 -0.018792296
-0.0711797 0.047944102 -0.034619763 -0.05743776 -0.113330424 -0.032340664 -0.08759198 -0.10992407
0.13862674 0.15817524 -0.1729381 -0.07038301 0.114735685 -0.10275576 -0.07518699 -0.10721217
0.107070915 -0.1729784 0.08319081 -0.054348443 -0.13165024 0.17607784 0.11658834 0.018947307
0.10052718 0.13136382 -0.013995944 -0.03683684 -0.06880007 -0.058114424 0.08339039 0.025264332
-0.089625545 -0.071587265 0.008987343 0.0037791533 0.014302165 -0.12661588 -0.12778665 0.054800045
-0.011945739 0.16373487 0.06494996 -0.080157444 -0.18996932 0.008172358 -0.056502588 0.17843595
-0.12474195 0.12326569 0.09048604 0.1883981 -0.14218947 0.02247384 -0.116837196 -0.11182772
00000000: 0fa7 24be 6343 dd3d 6a20 883d 48f2 053e
00000010: 652e bebd a557 393c 532b 453d 2dee f83c
00000020: 4f00 233d 1fd0 ebbd 78da 38be 7c57 12bc
00000030: c198 013c 1dbb 1fbe 118e 063e 2197 debd
00000040: d7bb 933d cab6 85bd 6ba7 08be fa37 26bc
00000050: aa07 dbbd 5781 21bc 2f0c 483d 477d e5bd
00000060: 66c5 90bd 976d e93d 0609 24be a867 0b3e
00000070: 4f50 d0bd 95da 243c 7859 eabd 71dd c93d
00000080: 563e 7fbc 4670 22ba f597 403e 234f c13d
00000090: 0708 283e 671c 113e f90d e1bd 88c9 183e
000000a0: 1eea 4c3d 9765 4bbd 3c57 39be 87a1 d5bd
000000b0: fbc8 143d 18a3 99bd 6101 3a3d 566f 12be
000000c0: 2391 c13d 11ca 32be 1107 0c3e 9c58 883d
000000d0: 1590 223e 68a8 573d 5c83 0d3d a430 03bd
000000e0: 295f 033e ebe7 2abe 927b 1e3e 88b4 eb3d
000000f0: 0c8d d93d e655 753c 181b 333e 8007 13be
00000100: db04 4cbd 9aa2 303e 5914 8bbd a6a1 2fbd
00000110: dc74 2e3e 1d02 e1bd 4206 5d3d 33e7 2e3e
00000120: 3a69 c9bc a0b2 063e d371 eebd 6aff e13d
00000130: 2345 003e 0012 d2bd 4a42 89bd 40dc ae3d
00000140: 3ff6 1e3e edeb 2e3e 4abf 8cbd 0076 0a3e
00000150: 0932 2cbd cbf1 4dbc 2f67 30be f633 88bd
00000160: c7ea 24be 175c 02be edf7 1b3e 734e 423e
00000170: 8e99 d73d f67f f53d 5962 033e 4537 a13d
00000180: 0453 3e3e b452 943c d26e 90bd d76d c1bd
00000190: c97f d6bd 0af7 243d 1c43 a1bd 2822 25be
000001a0: 705c 1e3d 9dd8 363e 13e4 3e3e b382 f93d
000001b0: a04f d2bd c1dd 28be fb17 ed3d 60a1 0c3d
000001c0: 05bb 093e e1fb 183e f71e 013e 695f 12be
000001d0: a836 653d 3ba4 343d 9bda 223e 415a 2f3c
000001e0: c277 25be eb8f b73c 63fc e3bd 4529 54bd
000001f0: d890 3c3e 7d46 613c 3882 16be ee26 733d
00000200: 1348 ef3d 2588 b4bd ed3a 31be a256 623d
00000210: fd41 413e f56c 0dbe edaa e5bd 8953 9f3c
00000220: dc29 03be 1746 dabd 4b1f 89bd ee87 173e
00000230: 728e fdbd 7f2c c1bc e59c f7bd 3f52 03be
00000240: 922b e4bd c67c 45be 657b 433e 2bcf 30be
00000250: 5049 a9bc 6eea 963d 222f 2d3e 077a 153d
00000260: 06a0 c93b acd4 5ebc 1b9b a63c cae9 383e
00000270: 92c3 2dbe f207 0f3c f43b a83d 1429 43be
00000280: b8f1 263e f586 41be bdd1 fe3d 64d8 e33d
00000290: 79a4 68bb 9366 1fbc 4f81 f5bd dcb9 003e
000002a0: ff79 913c 7c0a 24be 9340 383d b682 0c3e
000002b0: d40c cbbd c224 d7bd be5a 3a3e b12c 743c
000002c0: 896d c73d 6bab f2bc 0192 aabd b8f0 a5bd
000002d0: a671 6c3d d7d2 bc3d 4087 0cbe 4174 c4bc
000002e0: 0f96 273b 2a62 3f3d 5d7f 1f3e f605 843d
000002f0: c231 c33d f7be 1f3e 8cac 513d 9895 16be
00000300: 4ca4 75bd fe47 393d ed73 333e cfdb 23be
00000310: ecc3 1fbe 049f 2bbe eaf4 4a3d 4df2 99bc
00000320: aac6 91bd 0961 443d 74cd 0dbd db43 6bbd
00000330: c819 e8bd a577 04bd 6d63 b3bd df1f e1bd
00000340: 2bf4 0d3e b1f8 213e af16 31be f824 90bd
00000350: 8bfa ea3d 9d71 d2bd a3fb 99bd 0e92 dbbd
00000360: ff47 db3d 4021 31be f25f aa3d 799c 5ebd
00000370: 52cf 06be c04d 343e dec5 ee3d 6237 9b3c
00000380: 32e1 cd3d 3d84 063e 3e4f 65bc 3ae2 16bd
00000390: 0de7 8cbd 6409 6ebd 95c8 aa3d 25f7 ce3c
000003a0: 998d b7bd 589c 92bd a63f 133c acab 773b
000003b0: a153 6a3c 98a7 01be 81da 02be 0376 603d
000003c0: 10b8 43bc 1daa 273e 7c04 853d 9629 a4bd
000003d0: 5187 42be 5be5 053c 426f 67bd eab7 363e
000003e0: b578 ffbd b972 fc3d bf50 b93d 6eeb 403e
000003f0: 1e9a 11be 0f1b b83c 5748 efbd ef05 e5bd

shared.0.bias f4 [64]
0.1752683 -0.009386627 -0.10466949 -0.09302237 -0.026657112 0.11783008 -0.035541162 0.17271234
-0.17491429 -0.055496033 -0.048157338 0.0003714956 -0.1875273 -0.0398067 0.18695937 0.09224021
0.051814396 0.045581702 0.18260355 0.18482025 0.17204733 0.07126173 0.1422747 -0.0761784
0.1604563 0.15429541 0.089981705 0.12546471 0.120490104 -0.15620331 -0.11631266 -0.18283579
-0.08687355 0.14618647 -0.039180484 -0.12682162 0.14394921 0.05618282 -0.1259676 0.09362938
-0.12814283 -0.053640753 0.017286344 0.11476949 0.17729315 -0.072700314 -0.108433045 -0.081774
-0.09631349 -0.09854713 -0.08996522 -0.0036712002 -0.15001531 -0.03461567 -0.11726158 -0.098803334
-0.070458025 0.10042726 0.04622162 -0.06577503 0.13933885 -0.084447615 0.13336608 0.18409349
00000000: 8979 333e 5eca 19bc f55c d6bd 8382 bebd
00000010: 0460 dabc e650 f13d 9c93 11bd 81db 303e
00000020: bb1c 33be cf4f 63bd a140 45bd 4cc5 c239
00000030: 2807 40be 5a0c 23bd 4772 3f3e 6fe8 bc3d
00000040: 553b 543d e1b3 3a3d 6dfc 3a3e 8541 3d3e
00000050: 2d2d 303e abf1 913d 75b0 113e 6c03 9cbd
00000060: a84e 243e 9eff 1d3e 5448 b83d d279 003e
00000070: 84c3 f63d c3f3 1fbe 5535 eebd 4e39 3bbe
00000080: c3ea b1bd e8b1 153e b77b 20bd 87dd 01be
00000090: 6c67 133e f51f 663d a7fd 00be c3c0 bf3d
000000a0: e037 03be 68b6 5bbd 179c 8d3c 440c eb3d
000000b0: 568c 353e e7e3 94bd 2512 debd 2079 a7bd
000000c0: 0240 c5bd 14d3 c9bd af3f b8bd 8598 70bb
000000d0: 9d9d 19be 29c9 0dbd d726 f0bd 6759 cabd
000000e0: 4c4c 90bd cfac cd3d e252 3d3d 0fb5 86bd
000000f0: d8ae 0e3e dff2 acbd 1e91 083e 0183 3c3e

shared.1.weight f4 [64]
0.9984977 0.998501 0.99850094 0.99850327 0.99850017 0.9985027 0.99850035 0.9985017
0.9984999 0.9985007 0.9985001 0.9984996 0.9984999 0.9985002 0.99850357 0.99849844
0.99850047 0.9985017 0.9985004 0.9985127 0.9985011 0.9984996 0.9985023 0.99850005
0.99850667 0.9985001 0.9984993 0.99849874 0.9984972 0.9985006 0.9984999 0.99850005
0.9985013 0.99850845 0.99850106 0.99850005 0.99849945 0.9984992 0.99850076 0.99849993
0.9985 0.9984997 0.99850214 0.9985062 0.998499 0.99850065 0.9985016 0.99850005
0.99850005 0.9985045 0.99850196 0.99849737 0.99850005 0.99850255 0.99849975 0.99850005
0.99850005 0.99849963 0.99849993 0.99850124 0.99849993 0.9984992 0.99849904 0.99850565
00000000: 8c9d 7f3f c39d 7f3f c29d 7f3f e99d 7f3f
00000010: b59d 7f3f df9d 7f3f b89d 7f3f cf9d 7f3f
00000020: b09d 7f3f be9d 7f3f b49d 7f3f ab9d 7f3f
00000030: b09d 7f3f b69d 7f3f ee9d 7f3f 989d 7f3f
00000040: ba9d 7f3f cf9d 7f3f b99d 7f3f 879e 7f3f
00000050: c59d 7f3f ab9d 7f3f d99d 7f3f b39d 7f3f
00000060: 229e 7f3f b49d 7f3f a69d 7f3f 9d9d 7f3f
00000070: 839d 7f3f bc9d 7f3f b09d 7f3f b39d 7f3f
00000080: c89d 7f3f 409e 7f3f c49d 7f3f b39d 7f3f
00000090: a99d 7f3f a59d 7f3f bf9d 7f3f b19d 7f3f
000000a0: b29d 7f3f ad9d 7f3f d69d 7f3f 1a9e 7f3f
000000b0: a19d 7f3f bd9d 7f3f cd9d 7f3f b39d 7f3f
000000c0: b39d 7f3f fe9d 7f3f d39d 7f3f 869d 7f3f
000000d0: b39d 7f3f dd9d 7f3f ae9d 7f3f b39d 7f3f
000000e0: b39d 7f3f ac9d 7f3f b19d 7f3f c79d 7f3f
000000f0: b19d 7f3f a59d 7f3f a29d 7f3f 119e 7f3f

shared.1.bias f4 [64]
0.0014294359 -0.0014955613 0.0014908079 -0.0014480879 -0.0014459654 -0.0014791393 -0.0012126156 0.0014343087
0.001396421 0.0015021339 0.0014427428 -0.0014670885 -0.0014805943 -0.0012833996 -0.0014766217 -0.0014919618
-0.0014950901 0.0015047542 0.0007060301 -0.00019930577 -0.0012856155 0.0013032167 -0.0014879626 0.0
0.001461458 0.0015023125 -0.0013638632 -0.0006883464 0.0014832006 -0.0012479874 0.0011933192 0.0
-0.0014967712 0.0014689302 -0.0014949341 0.00049063604 -0.0014914413 0.0011870206 -0.0014655392 0.0014258988
-0.0009200933 -0.0014926926 0.0014998912 0.0014547969 -0.001429779 -0.0014863804 -0.0013047762 0.0012307839
0.0 0.0014896365 0.0014286155 0.0014841661 0.0 0.0014990749 -0.0013841973 0.0
0.0 0.0014941152 0.0003772759 -0.0013178696 0.0014831389 0.0013617713 0.0014601873 0.0014923228
00000000: e95b bb3a b606 c4ba 3667 c33a c4cd bdba
00000010: 8c86 bdba aedf c1ba a1f0 9eba 6aff bb3a
00000020: 1d08 b73a 40e3 c43a 6a1a bd3a 524b c0ba
00000030: 8010 c2ba bf37 a8ba 348b c1ba ee8d c3ba
00000040: e6f6 c3ba 2c3b c53a e114 393a bcfc 50b9
00000050: 1982 a8ba b2d0 aa3a bd07 c3ba 0000 0000
00000060: 658e bf3a 3ee9 c43a a8c3 b2ba 2572 34ba
00000070: f467 c23a 8293 a3ba 2669 9c3a 0000 0000
00000080: 4f2f c4ba 1e89 c03a aaf1 c3ba 079e 003a
00000090: 777c c3ba cd95 9b3a 5617 c0ba 39e5 ba3a
000000a0: 6b32 71ba 74a6 c3ba ff97 c43a e2ae be3a
000000b0: 6c67 bbba a6d2 c2ba 0605 abba 4152 a13a
000000c0: 0000 0000 e83f c33a 6240 bb3a 5a88 c23a
000000d0: 0000 0000 9b7c c43a f46d b5ba 0000 0000
000000e0: 0000 0000 30d6 c33a 1dcd c539 5ebc acba
000000f0: e265 c23a 767d b23a c163 bf3a 0b9a c33a

shared.4.weight f4 [64, 64]
-0.114053495 -0.026705207 -0.02411799 -0.052334663 0.026059717 0.09886441 -0.04176572 -0.050354585
-0.111241505 0.103423916 0.03743501 -0.036716133 0.020693272 0.085132726 -0.06312496 -0.096336685
-0.0032138417 0.028558727 -0.034804545 -0.034356818 0.11350745 -0.062791966 -0.087915316 -0.028383903
-0.1221952 -0.06676868 0.021763626 0.022193123 -0.00276644 0.034388497 0.114920326 -0.03684318
-0.0075686863 0.051111933 0.11819993 -0.11311921 0.07330658 0.09385431 0.025314983 0.115426764
-0.04321584 -0.12131491 0.04644093 0.07087026 0.046905726 -0.07487025 -0.0044729803 0.11555147
-0.11613505 -0.10645536 -0.03223883 -0.08665589 0.09849421 0.050572474 -0.046804532 -0.054551557
0.0018051047 0.039410528 -0.1060182 -0.0149510065 0.022225527 -0.041140154 -0.011438368 -0.011613573
0.07330848 -0.12331582 0.06530766 0.07233186 -0.0019549455 0.068701595 0.09534074 -0.06317573
0.09845586 -0.045409236 -0.07047148 0.016948089 0.111909196 0.005708977 0.058651697 -0.051829882
0.08447549 -0.016102055 0.032520574 -0.004391241 -0.120603904 0.07625392 -0.017572872 0.03018115
-0.024744632 -0.06676831 -0.050543264 0.01948055 0.04596696 0.03484566 0.09866062 0.07757257
0.089332715 0.09171161 -0.04812859 -0.0012890319 -0.029062402 0.069359764 -0.07365826 -0.02726007
-0.12313669 -0.10141537 0.11071212 0.08920917 -0.08816537 0.025308145 0.1033393 -0.005112804
0.026543425 -0.0043173665 0.03790086 0.062240515 0.11032493 -0.025733963 0.009393348 0.007532255
-0.015592019 0.017906748 0.059199225 -0.043190252 0.044337876 -0.0055495794 -0.059133805 0.061434966
-0.083296135 0.019526038 -0.08156312 -0.031395838 -0.11050778 0.081000574 0.071088865 -0.118090756
0.055306103 -0.07303462 0.04800646 -0.051252726 0.0564383 0.09852623 0.017760517 0.09706586
0.081329525 0.041450884 0.08890832 0.072769605 -0.06850054 -0.033832468 0.09067613 0.01835413
-0.072397016 0.04882765 -0.03849596 0.013753391 0.09685942 0.08554453 -0.08025232 -0.118953906
-0.086169094 -0.085496694 0.036535285 0.12133201 0.092143096 0.09066949 0.047030654 -0.11557573
-0.08385316 -0.04184612 -0.094008505 0.05846489 0.018325709 -0.08119868 0.122726664 -0.061951254
0.037788033 0.0064349445 -0.111646354 -0.009127549 0.10801931 0.020741252 0.12205345 0.09347934
-0.09304071 0.031908635 0.08596176 -0.12186682 -0.11898972 -0.099270515 -0.044817045 0.05389982
0.07379392 -0.065428585 0.11156325 0.08721327 0.06849842 0.08566465 0.0020306706 0.075586036
-0.092526585 -0.07683419 -0.014460798 -0.021410987 -0.059825994 -0.09363867 0.028106263 -0.0847378
0.07129948 -0.06253686 0.034287177 0.01754233 -0.058706477 -0.0055481824 -0.025650717 0.11156442
-0.12444277 0.085168965 0.1092633 0.024884425 0.07443655 -0.109279044 -0.0057540988 -0.01980553
0.07244113 -0.0296847 -0.12521964 0.10556621 0.095431134 0.07242506 0.06280553 -0.07167875
0.054217473 0.032009054 -0.099237844 -0.098832384 0.046596944 -0.034020662 0.004677764 -0.06783888
-0.05885732 -0.09295692 -0.12271916 0.11982699 0.09772978 -0.091606095 -0.03285682 0.12155717
0.11867901 -0.07148895 0.0046527996 -0.04399381 -0.11749329 0.037409212 -0.00905417 0.09728099
00000000: e194 e9bd e1c4 dabc 1793 c5bc df5c 56bd
00000010: 307b d53c 6c79 ca3d 8812 2bbd 9c40 4ebd
00000020: 96d2 e3bd ebcf d33d 7455 193d a863 16bd
00000030: f084 a93c 115a ae3d a947 81bd 2b4c c5bd
00000040: 519f 52bb fef3 e93c 368f 0ebd bcb9 0cbd
00000050: 9876 e83d 1399 80bd f20c b4bd 5c85 e8bc
00000060: 7a41 fabd 05be 88bd a249 b23c 5ace b53c
00000070: 294d 35bb f4da 0c3d 595b eb3d e0e8 16bd
00000080: be02 f8bb bf5a 513d ce12 f23d 0bab e7bd
00000090: c321 963d b036 c03d 5e61 cf3c de64 ec3d
000000a0: 1803 31bd f473 f8bd d838 3e3d 6d24 913d
000000b0: 3820 403d 9355 99bd 1492 92bb 40a6 ec3d
000000c0: 37d8 edbd 4505 dabd dd0c 04bd a578 b1bd
000000d0: 55b7 c93d 1525 4f3d 1cb6 3fbd 7471 5fbd
000000e0: 4399 ec3a ef6c 213d 1220 d9bd 11f5 74bc
000000f0: 4f12 b63c 9482 28bd fe67 3bbc db46 3ebc
00000100: c222 963d 018d fcbd 06c0 853d ba22 943d
00000110: 8b1e 00bb 6cb3 8c3d 0242 c33d 4762 81bd
00000120: 3aa3 c93d 09ff 39bd 5a53 90bd b8d6 8a3c
00000130: a630 e53d 5f12 bb3b c33c 703d 924b 54bd
00000140: 7c01 ad3d 75e8 83bc 4b34 053d 66e4 8fbb
00000150: 2eff f6bd 042b 9c3d fcf4 8fbc 763e f73c
00000160: 41b5 cabc d3bd 88bd 7406 4fbd ad95 9f3c
00000170: da47 3c3d 53ba 0e3d 940e ca3d 5ede 9e3d
00000180: 12f4 b63d 4cd3 bb3d 7c22 45bd bcf4 a8ba
00000190: 4614 eebc 7e0c 8e3d 24da 96bd 8350 dfbc
000001a0: 172f fcbd ddb2 cfbd 09bd e23d 4cb3 b63d
000001b0: 0c90 b4bd 0753 cf3c 8ea3 d33d 4f89 a7bb
000001c0: 9971 d93c b278 8dbb ef3d 1b3d e9ef 7e3d
000001d0: 09f2 e13d 08d0 d2bc 8fe6 193c 22d1 f63b
000001e0: ab75 7fbc 2cb1 923c e37a 723d 43e8 30bd
000001f0: a29b 353d 3fd9 b5bb 4a36 72bd 3ba3 7b3d
00000200: 2a97 aabd 12f5 9f3c 910a a7bd ec98 00bd
00000210: e751 e2bd a1e3 a53d 0a97 913d 91d9 f1bd
00000220: a788 623d 2d93 95bd 6ca2 443d 61ee 51bd
00000230: d92b 673d 1fc8 c93d 817e 913c 77ca c63d
00000240: 1890 a63d 67c8 293d 9115 b63d 3b08 953d
00000250: 034a 8cbd ea93 0abd 68b4 b93d 675b 963c
00000260: e344 94bd 80ff 473d f1ad 1dbd e755 613c
00000270: 3b5e c63d f831 af3d 545b a4bd 1b9e f3bd
00000280: 6c79 b0bd e418 afbd 06a6 153d eb7c f83d
00000290: 85b5 bc3d edb0 b93d 37a3 403d f8b2 ecbd
000002a0: 35bb abbd d666 2bbd 8887 c0bd e178 6f3d
000002b0: cc1f 963c 7e4b a6bd 1e58 fb3d 99c0 7dbd
000002c0: a0c7 1a3d 3adc d23b d8a6 e4bd b78b 15bc
000002d0: 3a39 dd3d 8fe9 a93c 29f7 f93d 1972 bf3d
000002e0: 218c bebd a1b2 023d b80c b03d 5095 f9bd
000002f0: e2b0 f3bd 574e cbbd 1492 37bd 0fc6 5c3d
00000300: 4421 973d 6cff 85bd 467b e43d df9c b23d
00000310: e648 8c3d f370 af3d 0015 053b dacc 9a3d
00000320: 947e bdbd 3e5b 9dbd fcec 6cbc 1866 afbc
00000330: 1a0c 75bd a2c5 bfbd 1b3f e63c 038b adbd
00000340: 7605 923d 5313 80bd b670 0c3d efb4 8f3c
00000350: 3476 70bd 87cd b5bb 7421 d2bc e37b e43d
00000360: dadb febd 116d ae3d 70c5 df3d 6cda cb3c
00000370: 3172 983d b1cd dfbd e18c bcbb 353f a2bc
00000380: 045c 943d 542d f3bc 9439 00be 1933 d83d
00000390: 6671 c33d 9753 943d 30a0 803d 4fcc 92bd
000003a0: 2413 5e3d ed1b 033d 363d cbbd a268 cabd
000003b0: 70dc 3e3d 4059 0bbd ee47 993b 1cef 8abd
000003c0: 6014 71bd 3360 bebd 2f54 fbbd da67 f53d
000003d0: 8d26 c83d fa9b bbbd df94 06bd f7f2 f83d
000003e0: fb0d f33d cc68 92bd 8376 983b da32 34bd
000003f0: 52a0 f0bd 673a 193d f157 14bc 413b c73d

shared.4.bias f4 [64]
-0.068817675 -0.09260506 -0.07711656 0.11848836 0.105738826 0.08813291 -0.12251654 0.052410055
-0.06706524 -0.083174795 0.029947652 -0.10724032 0.008430353 -0.058587216 -0.0030959153 -0.04995212
0.07386647 -0.02617893 -0.06993827 0.011663625 -0.08340844 0.059731174 0.107136615 -0.041151866
-0.0030829427 -0.09121708 0.043030832 -0.0076991026 0.070390664 0.11931774 -0.07128996 -0.08019353
-0.042873587 -0.08304535 -0.08423909 0.024392702 0.0029071094 0.006703792 0.07045347 -0.063653946
-0.0042606583 -0.046222135 -0.073996305 -0.078695185 0.048190884 0.12413037 -0.026397955 -0.0868611
-0.09758686 0.0038739895 -0.019232066 0.030235382 0.10294168 0.10659463 -0.06341247 0.064673826
-0.021116756 -0.09287345 -0.117083885 -0.033473276 -0.12368824 0.043395795 0.068368204 0.11911854
00000000: 48f0 8cbd b9a7 bdbd 49ef 9dbd 06aa f23d
00000010: 998d d83d 077f b43d f4e9 fabd edab 563d
00000020: 8059 89bd 8c57 aabd c754 f53c d0a0 dbbd
00000030: 771f 0a3c 26f9 6fbd d7e4 4abb 989a 4cbd
00000040: 4e47 973d 3275 d6bc cc3b 8fbd ca18 3f3c
00000050: 0bd2 aabd ada8 743d 716a db3d dc8e 28bd
00000060: 320b 4abb 05d0 babd 1941 303d c148 fcbb
00000070: fb28 903d dc5c f43d 7800 92bd 813c a4bd
00000080: 379c 2fbd ae13 aabd 8b85 acbd 34d3 c73c
00000090: 3485 3e3b 7cab db3b e949 903d 005d 82bd
000000a0: fe9c 8bbb 6c53 3dbd 608b 97bd f12a a1bd
000000b0: ce63 453d 1038 fe3d 8640 d8bc 3be4 b1bd
000000c0: 9fdb c7bd c2e2 7d3b 918c 9dbc 31b0 f73c
000000d0: 16d3 d23d 494e da3d 66de 81bd b673 843d
000000e0: 0cfd acbc 6f34 bebd adc9 efbd 461b 09bd
000000f0: 4350 fdbd cabf 313d a104 8c3d 6cf4 f33d

shared.5.weight f4 [64]
0.9985003 0.99850017 0.9985008 0.9984972 0.99849975 0.99850255 0.99850005 0.9985
0.99849993 0.9984985 0.99850047 0.99849963 0.99850065 0.9985008 0.9985009 0.9985018
0.998512 0.9985022 0.9984999 0.9985001 0.99850035 0.9985415 0.99850017 0.9985017
0.9985003 0.9985362 0.99850017 0.9985022 0.9985002 0.9985033 0.9985007 0.9984999
0.9985001 0.9985 0.99850905 0.9985007 0.99850553 0.9984994 0.99850047 0.99850017
0.99850047 0.9984996 0.99850297 0.9984999 0.99850005 0.9985 0.9985029 0.9985001
0.99850225 0.9985012 0.9985013 0.9985047 0.99850076 0.99850005 0.9984996 0.99850076
1.0014417 0.99850124 0.998501 0.9985013 0.9985011 0.9985008 0.99850005 0.9984999
00000000: b79d 7f3f b59d 7f3f c09d 7f3f 839d 7f3f
00000010: ae9d 7f3f dd9d 7f3f b39d 7f3f b29d 7f3f
00000020: b19d 7f3f 999d 7f3f ba9d 7f3f ac9d 7f3f
00000030: bd9d 7f3f c09d 7f3f c19d 7f3f d09d 7f3f
00000040: 7c9e 7f3f d79d 7f3f b09d 7f3f b49d 7f3f
00000050: b89d 7f3f 6aa0 7f3f b59d 7f3f cf9d 7f3f
00000060: b79d 7f3f 12a0 7f3f b59d 7f3f d79d 7f3f
00000070: b69d 7f3f ea9d 7f3f be9d 7f3f b09d 7f3f
00000080: b49d 7f3f b29d 7f3f 4a9e 7f3f be9d 7f3f
00000090: 0f9e 7f3f a89d 7f3f ba9d 7f3f b59d 7f3f
000000a0: ba9d 7f3f ab9d 7f3f e49d 7f3f b09d 7f3f
000000b0: b39d 7f3f b29d 7f3f e39d 7f3f b49d 7f3f
000000c0: d89d 7f3f c69d 7f3f c89d 7f3f 019e 7f3f
000000d0: bf9d 7f3f b39d 7f3f ab9d 7f3f bf9d 7f3f
000000e0: 3e2f 803f c79d 7f3f c39d 7f3f c89d 7f3f
000000f0: c59d 7f3f c09d 7f3f b39d 7f3f b09d 7f3f

shared.5.bias f4 [64]
-0.0014846837 -0.0014471338 -0.0014882829 -0.0015046077 0.0014976566 -0.0014952777 0.00019895143 0.0011947075
0.0014975052 -0.001498828 -0.0014023108 -0.001505781 0.0014838151 0.0014963633 -0.0014531399 0.0014990184
0.0014997356 -0.0014939758 0.0015005509 0.0014872097 -0.0014871935 0.0014975921 0.0014868663 -0.0014855606
-0.0014974823 0.0015007448 0.0014833603 -0.0014935643 -0.0014785945 -0.001491311 -0.0014674066 -0.0014136854
0.0012656208 -0.0014694637 0.0015033337 0.0015012948 -0.00148812 -0.0015015807 0.001493721 0.0014333919
0.0014911769 -0.001502329 0.0014986212 0.0014844129 0.0014583229 0.0014971952 0.0014895223 0.0014295072
0.0014889027 -0.0014996328 0.0014999106 -0.0014910303 0.001499896 0.0014410774 0.0014850078 0.0014954286
0.0015023747 0.0014841092 -0.0014928598 0.0014995261 -0.0014521264 0.0015016817 0.0003897329 -0.0014594726
00000000: b899 c2ba c1ad bdba 7d12 c3ba 4236 c5ba
00000010: 044d c43a 32fd c3ba 9e9d 5039 bb97 9c3a
00000020: f047 c43a 5274 c4ba becd b7ba a05d c5ba
00000030: 937c c23a 9f21 c43a 4977 beba b67a c43a
00000040: c792 c43a 82d1 c3ba 22ae c43a 7aee c23a
00000050: efed c2ba da4a c43a f4e2 c23a 24b7 c2ba
00000060: 2b47 c4ba a4b4 c43a 506d c23a b4c3 c3ba
00000070: 66cd c1ba 1878 c3ba ff55 c0ba 694b b9ba
00000080: 30e3 a53a 059b c0ba 820b c53a 18c7 c43a
00000090: 050d c3ba b0d0 c4ba f6c8 c33a a7e0 bb3a
000000a0: 9873 c33a cce9 c4ba 626d c43a a290 c23a
000000b0: 3225 bf3a 893d c43a 133c c33a 4d5e bb3a
000000c0: 4927 c33a 548f c4ba a698 c43a ad6e c3ba
000000d0: 2998 c43a 89e2 bc3a 98a4 c23a 4202 c43a
000000e0: 54eb c43a 7186 c23a 10ac c3ba bf8b c43a
000000f0: 4755 beba 14d4 c43a 1055 cc39 c64b bfba

actor.0.weight f4 [3, 64]
-0.055969276 -0.013545377 0.019344077 -0.03743629 -0.031288195 -0.058134865 0.009368703 0.115374774
-0.10854395 0.0022672538 0.09853324 -0.10288094 0.08131227 -0.047809195 -0.04075812 0.0887115
-0.025704687 0.061308447 0.045644987 0.020249574 0.103847496 0.10664397 0.07834679 0.039749585
0.07413488 0.07175273 0.08853855 -0.06834598 0.028930746 -0.04311926 -0.08318694 0.12004463
0.12049763 -0.0840719 -0.030921603 -0.0918478 -0.0678982 -0.015449379 0.019981876 0.035784736
-0.056570042 0.120024435 -0.121723175 -0.09090779 0.05782006 -0.10847184 0.12077099 0.0099190045
-0.012384801 -0.020557083 0.01925426 0.1217677 -0.116434745 0.032784767 -0.07760246 -0.056652278
0.02203655 0.10337851 0.073231414 -0.042924702 -0.051562194 -0.0483813 0.02756698 0.08857934
-0.047090933 0.0016282673 0.101264656 0.10899037 0.056507446 -0.118433185 0.051571645 -0.018526748
-0.056047115 0.06260521 -0.062496405 -0.012149613 0.0030822172 0.08470398 0.004794896 -0.007723346
-0.043352924 -0.005429093 -0.047403708 0.116582006 0.0059541315 -0.11014633 0.11853175 0.1110048
-0.022216316 0.031811025 -0.08598034 -0.00018399188 0.04408079 0.07946515 -0.048566382 -0.03665182
0.03721604 -0.091102794 0.019065335 0.04344237 -0.017715711 -0.04327426 -0.042736907 0.026275054
0.039173428 -0.08112751 -0.060000256 0.07451985 0.08229049 0.037730396 -0.10040304 -0.06358733
0.042424522 -0.06397208 -0.07126602 -0.053301647 -0.045424193 -0.031762384 0.09146633 0.04443149
-0.084235236 0.055757374 -0.008394391 -0.06263867 -0.0297124 -0.078585826 -0.009172967 0.1225237
0.09450926 0.0074219536 0.0041506095 -0.0735189 0.022976855 0.086298265 -0.06842182 0.045559056
-0.074978925 0.06124079 0.036961846 0.10467379 0.020944681 -0.08400962 0.0038576773 0.026786251
-0.07738759 0.04154072 0.02691028 -0.109712966 -0.010777747 0.108120605 -0.06782631 -0.06833715
-0.05649623 -0.08299258 -0.04248381 0.024673263 0.08460042 0.11424445 0.04121669 -0.034931336
0.018572336 -0.06795721 0.09873499 0.08673894 0.05077143 -0.08443884 0.0463551 -0.07031414
-0.09366836 -0.045615893 0.011446396 -0.004103211 0.10541424 -0.05168999 0.019041946 0.02402205
-0.11622813 0.098196045 -0.10597363 -0.026956938 0.071928084 -0.078596495 0.006910149 -0.10838051
0.10765031 0.049668614 0.054709584 -0.113518305 -0.030115163 -0.0034335493 -0.003827277 -0.07027884
00000000: 0a40 65bd 6eed 5dbc 7877 9e3c cc56 19bd
00000010: 0d28 00bd d31e 6ebd 307f 193c 9c49 ec3d
00000020: 4a4c debd 3596 143b cccb c93d 3eb3 d2bd
00000030: 0c87 a63d 93d3 43bd fdf1 26bd 60ae b53d
00000040: a392 d2bc 911e 7b3d 3df6 3a3d 6fe2 a53c
00000050: ffad d43d 2768 da3d 4874 a03d 76d0 223d
00000060: 07d4 973d 18f3 923d b353 b53d faf8 8bbd
00000070: 2c00 ed3c d29d 30bd ea5d aabd f5d9 f53d
00000080: 76c7 f63d e32d acbd 4d4f fdbc b31a bcbd
00000090: 360e 8bbd 641f 7dbc 08b1 a33c 0493 123d
000000a0: fdb5 67bd 5fcf f53d 004a f9bd dd2d babd
000000b0: bad4 6c3d 7c26 debd c856 f73d 5283 223c
000000c0: 9fe9 4abc 5467 a8bc 1cbb 9d3c 5861 f93d
000000d0: 5775 eebd 5249 063d 0aee 9ebd 380c 68bd
000000e0: ff85 b43c 1db8 d33d 5afa 953d d0d1 2fbd
000000f0: e132 53bd 782b 46bd 26d4 e13c 1669 b53d
00000100: 6ce2 40bd 966b d53a d863 cf3d 5836 df3d
00000110: 5a74 673d 198d f2bd ca3c 533d 68c5 97bc
00000120: a991 65bd 2937 803d 3bfc 7fbd 2c0f 47bc
00000130: 06ff 493b 4879 ad3d 811e 9d3b 1f14 fdbb
00000140: d692 31bd 88e6 b1bb 642a 42bd 8cc2 ee3d
00000150: e01a c33b 6694 e1bd c6c0 f23d 7c56 e33d
00000160: fefe b5bc 474c 023d 7616 b0bd f2ed 40b9
00000170: 0f8e 343d a0be a23d 8bed 46bd 3820 16bd
00000180: d96f 183d 1a94 babd e82e 9c3c a0f0 313d
00000190: 8a20 91bc 5a40 31bd e50c 2fbd c83e d73c
000001a0: 5174 203d 2e26 a6bd d4c2 75bd dd9d 983d
000001b0: eb87 a83d 308b 1a3d 1ca0 cdbd 133a 82bd
000001c0: 56c5 2d3d cb03 83bd ebf3 91bd d452 5abd
000001d0: b80e 3abd 4619 02bd b352 bb3d cbfd 353d
000001e0: 8683 acbd d861 643d a188 09bc b448 80bd
000001f0: 6b67 f3bc 9bf1 a0bd 364a 16bc b5ed fa3d
00000200: 128e c13d dc33 f33b d601 883b 1491 96bd
00000210: f539 bc3c 25bd b03d bd20 8cbd 229c 3a3d
00000220: 8d8e 99bd 9fd7 7a3d 4e65 173d 365f d63d
00000230: 2e94 ab3c 3c0d acbd 16d1 7c3b d76e db3c
00000240: 637d 9ebd 9a26 2a3d f372 dc3c 31b1 e0bd
00000250: 2695 30bc 566e dd3d 85e8 8abd 59f4 8bbd
00000260: 9768 67bd 04f8 a9bd 8103 2ebd 951f ca3c
00000270: fc42 ad3d fff8 e93d d5d2 283d 2914 0fbd
00000280: 0325 983c 262d 8bbd 9235 ca3d 2fa4 b13d
00000290: b4f5 4f3d 45ee acbd d8de 3d3d dc00 90bd
000002a0: 32d5 bfbd bbd7 3abd aa89 3b3c 3b74 86bb
000002b0: 6ce3 d73d e2b8 53bd dbfd 9b3c e4c9 c43c
000002c0: 0409 eebd 021b c93d b408 d9bd ccd4 dcbc
000002d0: 084f 933d 33f7 a0bd 886e e23b 9af6 ddbd
000002e0: c477 dc3d 5171 4b3d 2817 603d 497c e8bd
000002f0: 13b4 f6bc 6605 61bb 0ed3 7abb 5aee 8fbd

actor.0.bias f4 [3]
-0.022363344 -0.10445657 -0.050091755
00000000: 5533 b7bc 54ed d5bd 032d 4dbd

critic.0.weight f4 [1, 64]
0.0721433 0.00047748658 0.11060019 0.09749469 -0.055057313 0.08510296 -0.00053639873 -0.042627595
-0.04007375 0.06485429 0.0022743056 0.03843231 -0.0767017 -0.04977871 0.06332834 -0.047122125
-0.06415766 0.027531547 -0.020253066 -0.020639403 0.015273829 -0.12554169 -0.013136782 0.059970655
0.06918484 -0.11941963 -0.012946152 0.11489021 0.002617207 0.08541082 0.06727523 0.060414214
-0.016265012 0.028012453 -0.07540615 -0.03139819 0.10902287 0.10309986 -0.043489873 -0.007866388
-0.1252416 0.052613527 -0.061376035 -0.09171732 -0.10905605 -0.02456769 -0.08697769 -0.09725716
-0.11886398 0.0514323 -0.027101986 0.1095656 -0.0072802515 -0.00308191 -0.017106807 -0.09991956
-0.11346908 -0.10681678 0.037654437 -0.06760863 0.077325836 -0.04222534 -0.0030202335 0.032074112
00000000: debf 933d 2a57 fa39 5a82 e23d 4cab c73d
00000010: c783 61bd 764a ae3d 1c9d 0cba 469a 2ebd
00000020: 5f24 24bd 53d2 843d 840c 153b 336b 1d3d
00000030: c815 9dbd c3e4 4bbd 4ab2 813d 2103 41bd
00000040: 1765 83bd d789 e13c c2e9 a5bc f713 a9bc
00000050: 153f 7a3c 008e 00be a83b 57bc caa3 753d
00000060: c8b0 8d3d 4792 f4bd 191c 54bc 8f4b eb3d
00000070: 7285 2b3b deeb ae3d 99c7 893d e574 773d
00000080: 343e 85bc 5f7a e53c 8a6e 9abd 639b 00bd
00000090: 6247 df3d 0526 d33d 7022 32bd 06e2 00bc
000000a0: 563f 00be 4881 573d 7065 7bbd 4ad6 bbbd
000000b0: c758 dfbd 2e42 c9bc 5c21 b2bd c32e c7bd
000000c0: f56e f3bd adaa 523d fc04 debc ee63 e03d
000000d0: 2d8f eebb dff9 49bb 9323 8cbc a0a2 ccbd
000000e0: 7a62 e8bd c2c2 dabd 8a3b 1a3d 6576 8abd
000000f0: 025d 9e3d 7af4 2cbd 1cef 45bb 2560 033d

exp_avg f4 [64, 27]
-0.00066189276 0.00044701615 0.0002890796 0.00054763386 -0.00038379763 1.6074877e-05 0.00017401975 8.966071e-05
0.00012408779 -0.0005325083 -0.0023968325 -0.00010020995 -6.5195263e-07 -0.0006422103 0.0003622948 -0.00047395244
0.00024019548 -0.00055818696 -0.0010500603 0.00010327106 -0.0013327227 -0.00012623132 0.00018751337 -0.00013883483
-0.00037544218 -0.0013214652 -0.0009917596 0.00056092406 -0.00027968996 0.00026086613 -0.00019215945 0.00081572356
0.000417161 0.0005021458 0.0013301417 0.0009796956 0.0013185152 0.0063589914 0.00018359961 0.0008698046
0.00020829476 0.0003759136 -0.0005942966 0.00021911955 0.0037792674 0.0016496418 -0.00018448352 0.0012818488
0.00043373147 -0.00063761673 0.0008535421 0.00047287246 0.007011291 0.0016610187 0.0001449061 -0.00017256773
0.000440634 -0.0008257793 0.0004330356 0.00021672157 0.00012880244 -0.00029480807 0.0003236076 -0.0010347284
-0.0025847058 0.0003021869 -0.00047716938 -0.00017901766 0.0004584062 -0.0006233482 -0.00022564299 -0.0014237396
-0.0010360534 0.00063925696 -0.0011534174 0.00040376183 0.00046117016 -0.0005581236 -0.0003505904 -0.0024343044
-0.00018834266 0.0007029598 -0.0002981421 0.00051840965 -0.0002792645 -0.00018612498 -0.00082726066 -0.0004479519
-0.00090730743 -0.00077321636 0.00036934813 0.003075969 0.00023358564 0.00035378998 0.0005288481 0.00071466225
0.0006267534 -0.0001865195 -0.0019559134 0.00042358457 -0.00066602515 0.0016449385 -0.0002628944 -0.00063455163
-0.00060250296 0.0009004597 0.0023379158 0.00066632417 -0.00042395628 -0.0006455089 0.00052952376 0.0002182777
0.0006354505 0.00068210263 0.0005561386 -0.00061729347 0.00017097816 0.00012322454 0.0018408172 -6.4523265e-06
-0.00073737104 9.518285e-05 -0.00028680873 -0.00034460658 0.00069707516 -0.0007658607 -0.00059739075 0.00014852887
0.0013011236 -0.00035401658 -0.0007182547 0.00035490215 0.0008460452 0.000190894 -0.0004508629 8.306665e-05
-0.000577941 -0.0005178564 -0.00039951457 0.00047796706 -0.0006765535 -0.00031621565 -0.0007574933 -0.00083612866
-0.0007909601 0.002340437 0.000504652 -0.00091185514 -8.804599e-05 0.00084904366 0.00051249535 -0.0001850501
-0.0017667785 0.0018392184 -0.00030249616 0.0028831146 -0.00063769694 7.382757e-05 0.0006354155 -0.0005821968
0.0033743079 -0.00083002617 0.00051295344 0.0004589671 -2.9576568e-05 -6.90118e-05 -0.0005228596 0.00048844307
2.0206833e-05 -0.0007192501 0.000117783056 0.00047900676 -0.000108495675 -0.0005231177 0.0006879423 6.444907e-05
0.00049669656 -0.00018848936 -0.00043078692 -0.00090014946 0.00094674324 0.00033274555 -0.00025002012 -9.493398e-05
1.9609579e-05 0.0005331053 0.00067186856 0.00041262814 0.00036120001 0.00064227043 0.00023240827 -0.00061062764
-0.00023002486 0.00020987586 0.00074069767 -0.0005975507 -0.0005457575 -0.0005513662 0.00035991575 -0.0009413616
-0.00018401931 0.00029107844 -0.00014519546 -0.00039581125 -0.00033598338 2.324189e-05 0.00058822706 -0.0015366118
0.0006572403 0.00013329164 -0.00074567215 -0.0002970068 0.00034185586 -0.00048646948 -0.0007076046 -0.00048107156
0.00044189277 -0.0007300187 0.0003162116 -0.00026089608 -0.0006038897 0.0006514583 0.00038130092 -4.0780327e-05
0.00028494903 0.00038161984 -0.0005912399 -0.0002943166 -0.0003613455 -0.00024141002 0.00029333922 2.8549333e-05
-0.00053015404 -0.0008924198 -0.00039085586 4.3635908e-05 -1.6822767e-05 -0.0005027112 -0.0005404466 -6.6468696e-05
-6.339637e-05 0.00011604633 5.948557e-05 -0.00033167904 -0.0008676332 -0.00011523432 -0.00044523654 0.00044362087
-0.0008689377 7.9824924e-05 -8.499601e-05 0.00029054747 -0.0011441218 -0.0025579536 -0.0010092276 -0.000700039
00000000: df82 2dba 7e5d ea39 9b8f 9739 168f 0f3a
00000010: 7238 c9b9 89d8 8637 1279 3639 3a08 bc38
00000020: 901d 0239 0798 0bba 2d14 1dbb cf27 d2b8
00000030: d801 2fb5 015a 28ba 63f2 bd39 d27c f8b9
00000040: fcdc 7b39 4b53 12ba 2da2 89ba 3a93 d838
00000050: c1ae aeba f65c 04b9 3d9f 4439 3194 11b9
00000060: ffd6 c4b9 0435 adba eefd 81ba fa0a 133a
00000070: 5aa3 92b9 dcc4 8839 697e 49b9 48d6 553a
00000080: 67b6 da39 6fa2 033a 2658 ae3a 2169 803a
00000090: 07d2 ac3a 165f d03b a584 4039 9903 643a
000000a0: b369 5a39 4516 c539 92ca 1bba 75c3 6539
000000b0: 96ad 773b cb38 d83a eb71 41b9 b503 a83a
000000c0: 7466 e339 bc25 27ba 3ec0 5f3a deeb f739
000000d0: f9be e53b 8ab6 d93a eff1 1739 4cf3 34b9
000000e0: e504 e739 1c79 58ba 0e09 e339 c13f 6339
000000f0: 240f 0739 7890 9ab9 e0a9 a939 b99f 87ba
00000100: 2b64 29bb d76e 9e39 972c fab9 b0b6 3bb9
00000110: 3d56 f039 3168 23ba 949a 6cb9 c69c baba
00000120: 2fcc 87ba cf93 273a 442e 97ba ffaf d339
00000130: 36c9 f139 0a4f 12ba 72cf b7b9 da88 1fbb
00000140: d97d 45b9 d546 383a f54f 9cb9 e2e5 073a
00000150: 3f6a 92b9 8b2a 43b9 86dc 58ba 16db eab9
00000160: 5fd8 6dba acb1 4aba 11a5 c139 3296 493b
00000170: abee 7439 e37c b939 65a2 0a3a 2c58 3b3a
00000180: b54c 243a 7294 43b9 c82e 00bb 8f14 de39
00000190: 3198 2eba fa9a d73a 17d5 89b9 0a58 26ba
000001a0: 4af1 1dba d40c 6c3a b837 193b 42ac 2e3a
000001b0: 7346 deb9 5e37 29ba bdcf 0a3a 79e1 6439
000001c0: 5c94 263a 22cf 323a d4c9 113a ddd1 21ba
000001d0: 9a48 3339 d635 0139 9347 f13a 1081 d8b6
000001e0: 224c 41ba e79c c738 d15e 96b9 50ac b4b9
000001f0: ecbb 363a 0bc4 48ba 379a 1cba 6abe 1b39
00000200: 778a aa3a 4d9b b9b9 4249 3cba 2912 ba39
00000210: 22c9 5d3a b82a 4839 cb61 ecb9 1134 ae38
00000220: f780 17ba c1c0 07ba f075 d1b9 a797 fa39
00000230: bd5a 31ba bfc9 a5b9 8492 46ba a52f 5bba
00000240: 6f58 4fba 0462 193b 9f4a 043a 9009 6fba
00000250: 55a5 b8b8 5b92 5e3a fb58 063a 020a 42b9
00000260: 4093 e7ba ee11 f13a 5998 9eb9 a3f2 3c3b
00000270: 1e2b 27ba e0d3 9a38 0392 263a 919e 18ba
00000280: 7e23 5d3b 1d96 59ba b977 063a 85a1 f039
00000290: 321b f8b7 6eba 90b8 8410 09ba dc0a 003a
000002a0: d881 a937 0f8c 3cba 4c02 f738 3323 fb39
000002b0: 2c88 e3b8 d621 09ba 0757 343a d528 8738
000002c0: be34 023a 3aa5 45b9 3edb e1b9 02f8 6bba
000002d0: dd2e 783a 5a74 ae39 2215 83b9 4b17 c7b8
000002e0: 407f a437 17c0 0b3a 5620 303a 0356 d839
000002f0: 725f bd39 0a5e 283a 9fb2 7339 8712 20ba
00000300: d432 71b9 1f12 5c39 612b 423a f3a4 1cba
00000310: 2a11 0fba 8f89 10ba 13b3 bc39 b5c5 76ba
00000320: 4ff5 40b9 e39b 9839 9c3f 18b9 e384 cfb9
00000330: ed26 b0b9 94f7 c237 4033 1a3a 2368 c9ba
00000340: a64a 2c3a 34c4 0b39 3679 43ba 94b7 9bb9
00000350: 1e3b b339 d40c ffb9 8a7e 39ba 5538 fcb9
00000360: d8ad e739 ba5e 3fba 34c9 a539 e1c8 88b9
00000370: 5a4e 1eba a0c6 2a3a 58e9 c739 8b0b 2bb8
00000380: 3665 9539 2614 c839 70fd 1aba 814e 9ab9
00000390: f972 bdb9 0223 7db9 53cb 9939 3a7d ef37
000003a0: 09fa 0aba 47f1 69ba c9eb ccb9 b305 3738
000003b0: 9e1e 8db7 61c8 03ba c2ac 0dba 1c65 8bb8
000003c0: abf3 84b8 e65d f338 2580 7938 35e5 adb9
000003d0: e171 63ba f4a9 f1b8 a36e e9b9 c995 e839
000003e0: 6cc9 63ba ae67 a738 e33f b2b8 9f54 9839
000003f0: 5bf6 95ba 57a3 27bb 0f48 84ba d282 37ba

exp_avg_sq f4 [64, 27]
1.3046241e-08 5.996715e-09 2.503978e-09 8.9213925e-09 4.6148916e-09 4.01515e-10 1.3412529e-09 8.7415497e-10
1.476129e-09 9.85067e-09 1.9083406e-07 1.2276894e-09 3.940948e-10 1.2282172e-08 4.0400576e-09 7.0059056e-09
2.8258698e-09 4.9458613e-08 4.7380745e-08 6.266446e-10 6.117789e-08 6.9320455e-10 1.0997531e-09 6.121617e-09
4.3223376e-09 7.1429994e-08 3.134103e-08 9.370865e-09 2.3189903e-09 2.2011353e-09 1.2386687e-09 1.9946487e-08
5.3430997e-09 7.809065e-09 5.276216e-08 2.8663777e-08 5.162829e-08 1.2106464e-06 1.0360105e-09 2.2422256e-08
1.2942623e-09 4.362338e-09 1.08538e-08 1.6551125e-09 4.2784984e-07 8.22987e-08 1.0412714e-09 5.020092e-08
5.9031904e-09 1.2234285e-08 2.514952e-08 6.7063217e-09 1.463736e-06 8.3898826e-08 6.270978e-10 9.0142765e-10
5.871036e-09 2.0284343e-08 5.7535e-09 1.5224815e-09 6.0463656e-10 2.7446507e-09 3.339152e-09 3.2028144e-08
2.0354368e-07 2.899149e-09 6.847596e-09 9.564046e-10 6.3247905e-09 1.1764365e-08 1.7277975e-09 6.658453e-08
3.585518e-08 1.22909345e-08 4.008676e-08 5.021427e-09 6.320362e-09 9.227053e-09 3.6680046e-09 1.8357407e-07
1.5228822e-09 1.4714694e-08 2.7069453e-09 8.151737e-09 2.3568294e-09 1.1360092e-09 2.0076449e-08 5.985865e-09
2.4308513e-08 1.7764501e-08 4.5947077e-09 2.9535812e-07 1.967948e-09 3.8876813e-09 8.330249e-09 1.5245654e-08
1.1691656e-08 1.2453663e-09 1.1697443e-07 2.0142755e-08 1.3592182e-08 8.780646e-08 3.2185232e-09 1.19924e-08
1.4274187e-08 2.4202208e-08 1.8323033e-07 1.3594118e-08 5.3548144e-09 1.2606643e-08 8.346152e-09 1.4937761e-09
1.2171824e-08 1.3927457e-08 9.252904e-09 1.1259462e-08 1.0347875e-09 6.244207e-10 1.0644714e-07 1.2489514e-10
1.603699e-08 2.7111724e-10 2.4881393e-09 3.5322745e-09 1.4888544e-08 2.075407e-08 1.0906835e-08 6.515795e-10
5.4925163e-08 3.9249435e-09 1.538232e-08 5.979745e-09 2.1286198e-08 5.550477e-09 6.4215486e-09 2.0666932e-10
9.975123e-09 8.067369e-09 4.739971e-09 6.8090884e-09 1.3726454e-08 3.2665517e-09 1.7884139e-08 2.1225599e-08
1.8939053e-08 1.7192193e-07 7.788848e-09 2.480449e-08 2.3209779e-10 2.1834538e-08 8.086296e-09 1.1950528e-09
1.1321786e-07 1.2331209e-07 2.903391e-09 2.5664497e-07 1.2172311e-08 1.895799e-10 1.592848e-08 1.0027564e-08
3.455509e-07 2.1987375e-08 7.8372775e-09 6.234564e-09 3.756813e-11 1.778826e-10 8.272975e-09 7.045558e-09
4.5940966e-11 1.5630539e-08 4.9136406e-10 6.824709e-09 2.7085496e-09 8.290818e-09 1.4058831e-08 1.2466547e-10
7.5154825e-09 1.0912922e-09 5.6866796e-09 2.7003377e-08 3.8748905e-08 3.2974792e-09 2.8154923e-09 3.2967395e-10
1.3562958e-11 1.2113784e-08 1.3488679e-08 6.0811822e-09 3.8499706e-09 1.2284472e-08 1.7700763e-09 1.0972537e-08
1.5708239e-09 1.7556322e-09 1.7102042e-08 1.04689954e-08 8.745195e-09 9.0359125e-09 4.476677e-09 2.8386252e-08
1.1584791e-09 2.6751372e-09 6.2960004e-10 4.940957e-09 3.564069e-09 4.1471782e-10 1.8469015e-08 9.4272224e-08
1.296442e-08 4.385384e-09 1.6809226e-08 2.6641185e-09 4.645925e-09 7.0913306e-09 1.5520126e-08 6.944034e-09
5.817204e-09 1.5823868e-08 3.018085e-09 2.040738e-09 1.0830921e-08 1.28011095e-08 4.4777604e-09 1.4803193e-10
2.5990194e-09 4.5642015e-09 1.2015048e-08 2.6291527e-09 3.888888e-09 1.737892e-09 2.594629e-09 4.158864e-11
8.410906e-09 2.475139e-08 5.016136e-09 5.996076e-11 2.2159341e-10 7.517256e-09 8.690189e-09 6.9721323e-10
1.2249646e-10 2.9001526e-09 3.7288633e-10 3.2785976e-09 2.2270568e-08 4.2180132e-10 5.8305516e-09 6.1233014e-09
2.2301396e-08 3.9858247e-10 4.019628e-10 2.854048e-09 3.937806e-08 1.9257162e-07 3.0407943e-08 1.4758889e-08
00000000: fa21 6032 aa0b ce31 7212 2c31 b344 1932
00000010: 0491 9e31 36bc dc2f 2457 b830 3049 7030
00000020: ace0 ca30 b43b 2932 11e8 4c34 7bbb a830
00000030: eaa7 d82f 9001 5332 b9d0 8a31 99b8 f031
00000040: 3a31 4231 526c 5433 ae7f 4b33 3240 2c30
00000050: e760 8333 ef8b 3e30 1f26 9730 5056 d231
00000060: af83 9431 0e65 9933 d49b 0633 80fd 2032
00000070: 1c5c 1f31 c842 1731 c83d aa30 ca56 ab32
00000080: 6796 b731 a228 0632 9c9c 6233 5038 f632
00000090: e8bd 5d33 7e7d a235 6163 8e30 109b c032
000000a0: cee1 b130 88e3 9531 8477 3a32 187a e330
000000b0: 3cb3 e534 30bc b033 7b1c 8f30 7f9c 5733
000000c0: 03d5 ca31 f42e 5232 6108 d832 6e6d e631
000000d0: 9675 c435 de2b b433 1660 2c30 55c8 7730
000000e0: 2eba c931 be3d ae32 52b0 c531 8e3f d130
000000f0: 8433 2630 689c 3c31 fc76 6531 518f 0933
00000100: a98d 5a34 5e3a 4731 1748 eb31 7f72 8330
00000110: 7251 d931 391c 4a32 7877 ed30 3cfd 8e33
00000120: 30ff 1933 1a28 5332 dc2b 2c33 f088 ac31
00000130: 7e2a d931 0285 1e32 3810 7c31 751c 4534
00000140: a74d d130 e9cb 7c32 1605 3a31 b80b 0c32
00000150: c8f5 2131 c521 9c30 9474 ac32 3aac cd31
00000160: fcce d032 8d98 9832 7adf 9d31 b691 9e34
00000170: 823c 0731 6894 8531 d31c 0f32 8cf5 8232
00000180: 72dc 4832 6e29 ab30 5f33 fb33 6306 ad32
00000190: 0c83 6932 1d90 bc33 dc2c 5d31 2207 4e32
000001a0: 8a3a 7532 38e5 cf32 f8bd 4434 908b 6932
000001b0: 72fd b731 9a94 5832 c462 0f32 934d cd30
000001c0: 401c 5132 9b45 6f32 b4f6 1e32 a36f 4132
000001d0: 5938 8e30 b3a3 2b30 ef97 e433 db52 092f
000001e0: b7c1 8932 5c0c 952f cffb 2a31 6ebc 7231
000001f0: 82c8 7f32 af46 b232 c560 3b32 d51a 3330
00000200: dbe6 6b33 2bdc 8631 1422 8432 6576 cd31
00000210: d8d8 b632 83b6 be31 8aa4 dc31 3e3c 632f
00000220: 0e5f 2b32 aa98 0a32 3add a231 60f5 e931
00000230: 95d1 6b32 c979 6031 a39f 9932 9653 b632
00000240: 6baf a232 8a99 3834 b7cf 0532 a611 d532
00000250: b831 7f2f a88e bb32 e8eb 0a32 2f3f a430
00000260: 2d22 f333 c567 0434 ff84 4731 04c9 8934
00000270: 641e 5132 ff71 502f 19d3 8832 b145 2c32
00000280: 2784 b934 c0de bc32 b6a4 0632 ce37 d631
00000290: f439 252e 8095 432f ee20 0e32 6215 f231
000002a0: ee0c 4a2e eb43 8632 ac10 0730 c67e ea31
000002b0: 4f21 3a31 676f 0e32 6587 7132 3612 092f
000002c0: 711d 0132 6efc 9530 9064 c331 0ef5 e732
000002d0: df6c 2633 de99 6231 aa7a 4131 7c3d b52f
000002e0: 229a 6e2d fc1c 5032 d6bb 6732 a5f2 d031
000002f0: b348 8431 ae0b 5332 0647 f330 ba81 3c32
00000300: 74e4 d730 d14a f130 cae7 9232 21db 3332
00000310: c63d 1632 5d3c 1b32 44d1 9931 07d6 f332
00000320: 5c38 9f30 83d5 3731 2a10 2d30 1ec5 a931
00000330: c4eb 7431 58fe e32f cba5 9e32 b472 ca33
00000340: 1fba 5e32 3fae 9631 e163 9032 ab13 3731
00000350: fda1 9f31 01a8 f331 1e51 8532 5e98 ee31
00000360: abe0 c731 0eed 8732 b666 4f31 0b3d 0c31
00000370: e512 3a32 e0eb 5b32 ccda 9931 49c3 222f
00000380: 6f9a 3231 24d3 9c31 bd6a 4e32 8bac 3431
00000390: 059f 8531 a4da ee30 324d 3231 a5e8 362e
000003a0: 8e7f 1032 e29c d432 665a ac31 e8da 832e
000003b0: 00a5 732f 3e25 0132 db4b 1532 05a6 3f30
000003c0: b0af 062f 064c 4731 16ff cc2f b34d 6131
000003d0: 7f4d bf32 42e3 e72f 1356 c831 2165 d231
000003e0: 4a91 bf32 7f1f db2f 3cfb dc2f f220 4431
000003f0: a320 2933 afc5 4e34 e399 0233 488e 7d32

exp_avg f4 [64]
-0.0024858864 0.008616265 -0.0036216716 0.0050781327 0.0023347156 0.007704717 0.0007648238 -0.0013577052
-0.0012586479 -0.0032927145 -0.0014119109 0.0039779604 0.00018667916 0.0009870118 0.0074925246 0.007625077
0.010691246 -0.007291337 0.00055494515 0.0009890187 0.0025871582 -0.00051529397 0.010032772 -0.00025156286
-0.005973231 -0.010139399 0.0028240122 0.00211241 -0.0049341954 0.00027471528 -0.001237562 -0.00069182296
0.0032825656 -0.0054779416 0.0071443054 -0.0004076213 0.012847605 -0.00029672906 0.0020766726 -0.0035266252
-0.00045652967 0.0026684967 -0.005288809 -0.0028183695 0.004827854 0.005066086 0.0006680872 -0.00052365265
-0.00030787807 -0.0057608765 -0.0057963356 -0.005566666 -0.00064526463 -0.0114849685 0.0006565264 -0.00040088515
-0.00022194174 -0.01123826 0.0003891212 0.0019878594 -0.003316113 -0.0014142281 -0.0010587068 -0.003712841
00000000: 41ea 22bb 3c2b 0d3c 9159 6dbb 7766 a63b
00000010: 0702 193b da77 fc3b 757e 483a 07f5 b1ba
00000020: 37f9 a4ba 95ca 57bb de0f b9ba 8d59 823b
00000030: 4ebf 4339 9f5e 813a da83 f53b c8db f93b
00000040: 562a 2f3c 2bec eebb bd79 113a f6a1 813a
00000050: 508d 293b cb14 07ba 7f60 243c 32e4 83b9
00000060: 18bb c3bb b91f 26bc 1013 393b 5c70 0a3b
00000070: 08af a1bb a907 9039 b135 a2ba 745b 35ba
00000080: 5020 573b 4e80 b3bb c71a ea3b 01b6 d5b9
00000090: c37e 523c 4d92 9bb9 c918 083b f41e 67bb
000000a0: 605a efb9 f2e1 2e3b bf4d adbb 65b4 38bb
000000b0: fa32 9e3b 6901 a63b 9322 2f3a bc45 09ba
000000c0: b26a a1b9 bcc5 bcbb 30ef bdbb 9468 b6bb
000000d0: fa26 29ba 732b 3cbc be1a 2c3a e52d d2b9
000000e0: 08b9 68b9 ae20 38bc f702 cc39 bf46 023b
000000f0: 2553 59bb 9f5d b9ba 4ec4 8aba 2353 73bb

exp_avg_sq f4 [64]
2.551016e-07 2.2352563e-06 3.974777e-07 7.95926e-07 1.7288562e-07 1.8344203e-06 2.9497826e-08 7.206357e-08
4.965014e-08 3.1878497e-07 6.5749056e-08 4.86466e-07 2.8390437e-09 4.8684765e-08 1.692728e-06 1.7925842e-06
3.4919972e-06 1.5632735e-06 7.1370835e-08 1.537689e-07 2.307848e-07 2.6506587e-08 3.089699e-06 2.1338138e-09
1.1708458e-06 3.0588417e-06 2.5671434e-07 1.6668531e-07 7.7218453e-07 1.2322232e-08 5.4767124e-08 1.4689974e-08
3.2151362e-07 1.0421248e-06 1.5331515e-06 5.56754e-09 4.9970986e-06 3.859847e-08 1.4305763e-07 4.1306535e-07
6.6820034e-09 2.1171418e-07 8.2426163e-07 2.7023947e-07 7.322383e-07 8.0919216e-07 3.325158e-08 8.994407e-09
3.0688063e-09 9.882907e-07 1.1240451e-06 9.637419e-07 1.2723508e-08 3.9931406e-06 2.129779e-08 5.023174e-09
1.6982586e-09 3.7820566e-06 1.44293955e-08 1.4261099e-07 3.8676296e-07 7.445971e-08 5.391606e-08 4.1908612e-07
00000000: e6f4 8834 6901 1636 eb64 d534 9ea7 5535
00000010: 70a2 3934 3436 f635 6862 fd32 5ec1 9a33
00000020: e83e 5533 7925 ab34 ed31 8d33 b095 0235
00000030: fc18 4331 7719 5133 b131 e335 b998 f035
00000040: 0e58 6a36 abd1 d135 8844 9933 ac1b 2534
00000050: a5cd 7734 9ab0 e332 a058 4f36 73a2 1231
00000060: f525 9d35 8046 4d36 8dd2 8934 1cfa 3234
00000070: 1e48 4f35 c0b1 5332 1739 6b33 305f 7c32
00000080: 7f9c ac34 23df 8b35 afc6 cd35 9a4c bf31
00000090: c0ac a736 77c7 2533 629b 1934 45c3 dd34
000000a0: 8697 e531 8d53 6334 d442 5d35 6e15 9134
000000b0: 088f 4435 4337 5935 80d0 0e33 d285 1a32
000000c0: 03e3 5231 69a5 8435 e5dd 9635 eb59 8135
000000d0: 9496 5a32 d1fc 8536 56f2 b632 4e98 ac31
000000e0: 2a68 e930 3dcf 7d36 27e5 7732 9c20 1934
000000f0: 4ca4 cf34 a9e6 9f33 5691 6733 c2fe e034

exp_avg f4 [64]
0.0038084567 0.0058007315 0.0036961185 0.0044160727 0.0042026364 0.0051549557 0.004109923 0.0036563126
0.00407115 0.0037549806 0.0040664272 0.004506888 0.004177805 0.0041333297 0.005309693 0.0049127555
0.005370017 0.0031092542 0.0039719986 0.0039408836 0.0043819197 0.0039197975 0.0069835326 0.0040923855
0.0026826644 0.0032442852 0.0042907037 0.0042918255 0.0035810687 0.0041293507 0.0040487936 0.0040923855
0.0042647026 0.0029833661 0.0052300245 0.0040934547 0.005468745 0.0040696613 0.0041618086 0.0036730957
0.004096574 0.0042973678 0.0037408334 0.003521441 0.0043696417 0.0043335124 0.004046758 0.004090522
0.0040923855 0.003381754 0.0034863385 0.0031286804 0.0040923855 0.003141286 0.004153595 0.0040923855
0.0040923855 0.0026378578 0.004092073 0.004217454 0.0034930957 0.0039885063 0.0031734384 0.0031330797
00000000: 4d97 793b 1014 be3b 943a 723b b4b4 903b
00000010: 45b6 893b e7ea a83b 88ac 863b bf9e 6f3b
00000020: 4867 853b 1f16 763b aa3f 853b 84ae 933b
00000030: f8e5 883b e270 873b effc ad3b 2efb a03b
00000040: f8f6 af3b a1c4 4b3b 8a27 823b 8722 813b
00000050: 3596 8f3b a571 803b 1ed6 e43b 6b19 863b
00000060: a4cf 2f3b 139e 543b 0899 8c3b 71a2 8c3b
00000070: 5db0 6a3b 814f 873b beab 843b 6b19 863b
00000080: ebbe 8b3b 9484 433b a060 ab3b 6322 863b
00000090: 2833 b33b cb5a 853b c85f 883b 52b8 703b
000000a0: 8e3c 863b efd0 8c3b c528 753b fac7 663b
000000b0: 362f 8f3b 2300 8e3b ab9a 843b c909 863b
000000c0: 6b19 863b 6ba0 5d3b 0e7b 643b 8c0a 4d3b
000000d0: 6b19 863b 09de 4d3b e11a 883b 6b19 863b
000000e0: 6b19 863b e9df 2c3b cc16 863b 9232 8a3b
000000f0: 6cec 643b 04b2 823b 76f9 4f3b 5b54 4d3b

exp_avg_sq f4 [64]
4.2875428e-07 1.0017508e-06 4.0683489e-07 5.8262106e-07 5.2568265e-07 7.949107e-07 5.0295097e-07 3.9689536e-07
4.9320465e-07 4.2107465e-07 4.9211036e-07 6.030138e-07 5.196767e-07 5.084966e-07 8.3982434e-07 7.185569e-07
8.633483e-07 2.889437e-07 4.7316087e-07 4.788271e-07 5.7450774e-07 4.5856558e-07 1.4678635e-06 4.984019e-07
2.1409043e-07 3.1309295e-07 5.4761426e-07 5.4300926e-07 3.7910021e-07 5.079802e-07 4.87712e-07 4.984019e-07
5.420494e-07 2.6571382e-07 8.1842103e-07 4.9867066e-07 8.9053003e-07 4.912791e-07 5.1692325e-07 4.0135743e-07
4.9949125e-07 5.4943985e-07 4.1949417e-07 3.7332384e-07 5.6648594e-07 5.6069183e-07 4.896271e-07 4.979788e-07
4.984019e-07 3.45431e-07 3.6225526e-07 2.9075017e-07 4.984019e-07 2.9464508e-07 5.128769e-07 4.984019e-07
4.984019e-07 2.0742416e-07 4.9830203e-07 5.295543e-07 3.6077512e-07 4.7275387e-07 2.972387e-07 2.958199e-07
00000000: 8a2f e634 e573 8635 f66a da34 6a65 1c35
00000010: a31c 0d35 d961 5535 8702 0735 e214 d534
00000020: c464 0435 0f10 e234 9119 0435 cbde 2135
00000030: e97f 0b35 9f7f 0835 4a70 6135 dbe2 4035
00000040: d8c0 6735 1f20 9b34 bc06 fe34 bf88 0035
00000050: df37 1a35 c630 f634 6803 c535 ebc9 0535
00000060: bbe0 6534 2b17 a834 c4ff 1235 50c3 1135
00000070: 2387 cb34 225c 0835 50eb 0235 ebc9 0535
00000080: 5a81 1135 6ea7 8e34 77b1 5b35 63dc 0535
00000090: c20c 6f35 71e0 0335 b2c2 0a35 257a d734
000000a0: c714 0635 387d 1335 d736 e134 3d6d c834
000000b0: 9e10 1835 7382 1635 eb6e 0335 d8ac 0535
000000c0: ebc9 0535 ad73 b934 fc7b c234 6618 9c34
000000d0: ebc9 0535 b62f 9e34 a2ac 0935 ebc9 0535
000000e0: ebc9 0535 52b8 5e34 0ec3 0535 b226 0e35
000000f0: 8eb0 c134 ccce fd34 2d94 9f34 2dd1 9e34

exp_avg f4 [64]
-0.00062806223 0.0018246279 -0.0007648918 0.0008125408 0.000393663 0.0012636179 0.00015362297 -0.00039688358
-0.00018570508 -0.0008417407 -0.00020162726 0.00058320066 0.00022113345 0.00019947458 0.0010563289 0.0013854064
0.0018402926 -0.0012546491 -7.859569e-05 -0.00010447467 0.00025263577 -0.00020407944 0.0016599068 0.0
-0.0013771012 -0.0018728358 0.00032927864 0.00020735511 -0.00088741194 0.00015927761 -0.00015432917 0.0
0.00058406504 -0.0012425714 0.0014610566 3.190288e-07 0.002303132 -9.737017e-05 0.00061796396 -0.0008030052
2.4016024e-06 0.0006973857 -0.0010161448 -0.00062839204 0.00063126144 0.0009525394 0.00014625446 -5.6758476e-05
0.0 -0.0011623389 -0.0012249623 -0.0011005291 0.0 -0.001921421 0.00018466392 0.0
0.0 -0.0019555383 8.282488e-06 0.00043683013 -0.00076361495 -0.00028984714 -0.0004254604 -0.00088439457
00000000: 8ba4 24ba 5a28 ef3a 0583 48ba b100 553a
00000010: 8e64 ce39 fb9f a53a da15 2139 d014 d0b9
00000020: d4b9 42b9 43a8 5cba e86b 53b9 efe1 183a
00000030: 0fe0 6739 0d2a 5139 8474 8a3a 8696 b53a
00000040: f935 f13a 0a73 a4ba bdd3 a4b8 6919 dbb8
00000050: 3374 8439 28fe 55b9 3b91 d93a 0000 0000
00000060: d97f b4ba f179 f5ba 08a3 ac39 776d 5939
00000070: 35a1 68ba c203 2739 6cd3 21b9 0000 0000
00000080: f11b 193a c7dd a2ba ed80 bf3a fc46 ab34
00000090: 25f0 163b 3633 ccb8 dcfe 213a c480 52ba
000000a0: 372b 2136 c3d0 363a 2930 85ba adba 24ba
000000b0: 3d7b 253a d6b3 793a e25b 1939 f30f 6eb8
000000c0: 0000 0000 9f59 98ba ea8e a0ba a13f 90ba
000000d0: 0000 0000 31d8 fbba 58a2 4139 0000 0000
000000e0: 0000 0000 7d28 00bb 04f5 0a37 5906 e539
000000f0: 552d 48ba a0f6 97b9 5410 dfb9 b7d6 67ba
